best_model.pt (torch, 957538 bytes, 20 tensors)

conv1.weight f4 [64, 21, 3, 3]
00000000: f63e ab3c 76a5 9dbd c0f7 31bd 66c2 11bd
00000010: 2fc5 e5ba 033a b3bc d626 8bbd 4692 403d
00000020: b062 333d 827e 89bd 8cd9 a73a 7dc6 663d
00000030: 0878 91bd 1b36 8ebd 48ce 053d 0311 a03c
00000040: 2301 2f3d e3fc 65bd b74f b53c bcb0 6a3d
00000050: 43c3 8abc c9d0 94bd dea9 0cbe 1711 953c
00000060: 3763 0b3c fb52 0dbe a06c 96bc 86bf cf3c
00000070: 1945 74bd 9aa8 b6bd 842e ecbc 2d9a a9bd
00000080: 339c 0f3d d07c abbd a9ca a73d 75f0 9bbd
00000090: 9981 a2bc c011 f6bc 4134 e13c 7add bfbd
000000a0: 698c 15be 3041 9cbd 17c1 4bbd 4a61 643c
000000b0: c711 e23c b37d 66bd 3623 2fbd c5e1 72bd
000000c0: 92ac 15bd 7bd3 05bb 76ac 35bd 2f8d 493a
000000d0: 035f c93c acc3 4abc 3129 9f3c 2d52 003d
000000e0: 9a73 bd3d cdeb cabb 28a8 843d a50a a83d
000000f0: a2ea ec3c 294d d13b 0f47 7ebd 4c8b 47bd
00000100: 7a77 fe3c 6e5d d83c 986f 863d 0a2b 1bbc
00000110: 8214 5bbc bc3f 4c3d 30f4 193b 40db 8b3d
00000120: 1b78 cf3c efea 4dbd 6e4d 803d 52e2 413d
00000130: e753 98bd 28de 0cbd 5be0 8f3d b087 2bbc
00000140: 827e 023d 876c d63b 0422 ccbd e431 46be
00000150: f0e0 9cbd 33f9 7abd 2163 563d 64bd 70bd
00000160: 04ed 6f3c b213 c73d 4142 603b a37a 81bc
00000170: dafa e9bc 3152 55bd 5a12 b9bd 7253 943c
00000180: 5dc1 7cbd 83e8 fe3c 7481 febc e36f fdbd
00000190: bc2a 7cbd ce79 e53d 3e43 dfbc 87bf f43c
000001a0: b946 11bd 6063 233d 8db8 0c3d d482 873c
000001b0: b9d6 43bc 4405 923d e4c7 0dbd 4f62 19bd
000001c0: 5ca9 78bb a3bf 57bc 6445 bd3c 72a5 893d
000001d0: 0406 cc3c 9924 8bbd 3634 09bd 1a82 f1bb
000001e0: d7bd aabd 72c5 bdbb 2944 943d 60d8 c93c
000001f0: 1802 1f3c fb16 12bd 0386 0bbd 9a65 04bc
00000200: faa6 823d 7e2d 19bd 24aa 3e3c e89a 5abd
00000210: 50f3 a2bc 9f05 8a3b 72f9 60bd 0831 d33d
00000220: ecf4 10be 596a f4bd fd67 233c 4763 7ebc
00000230: 049b aabd 2fdf a93d e431 c73c a29a fabc
00000240: 1010 5abd 20ea 9d3d 91b3 36bd 15d5 213d
00000250: f8f8 e9bc 0867 88bc 3bf2 a33d 1315 503d
00000260: 9da8 aabc 9c73 c2bd 5c61 febd 578b 8dbc
00000270: f44e b73d aea2 883d 3a78 9abd 78f4 cdbd
00000280: 8e64 9a3d 97d4 ee3b 2d68 003d 410f 12be
00000290: 1160 543e a6c5 a5bd 8580 923e bd5a 913c
000002a0: 1e33 00bd b05f d03d 6d16 e23d ae1c 33bd
000002b0: ebba 893d 3598 683d 0902 793d ca03 2cba
000002c0: d468 1fbd 6dd1 22bd c49c d23c f2c3 6cbc
000002d0: f70b 9b3d e0a1 cb3d f17c 9f3d d45f 223d
000002e0: b1d2 283e 426f cf3d 30b7 393d a2a7 97bc
000002f0: 5cb6 6d3c 9b40 3c3d 9666 40bd 8b6d fc3b
00000300: 2984 bf3c e3e1 5bbc 6f94 aebd ab7a 9cbd
00000310: 4867 4f3d ddd9 db3c 4f41 11bd d529 a93c
00000320: f287 d5bb d191 ba3d 71a3 f13b f660 2abd
00000330: 6adc 63bb b616 48bd ace8 a6bc 38b9 9fbc
00000340: 48df c5bc 5043 01bb 9735 2cbe a75e 6d3d
00000350: 355e 4d3d 5c3f 15bd a885 bc3d 1f90 9ebc
00000360: 0b67 a53d fef2 cd3b 74de f9bc 5ef4 103d
00000370: acf5 0bbd af16 a93d f530 39bd e70f 7dbd
00000380: 4411 81bd 9121 3f3d 6d50 c33c 35eb 913b
00000390: e663 fd3c 0812 863d 71f6 c5bc 8cec bf3c
000003a0: fb94 5e3d fb9b 33bd 0b7b f2bc 1047 583d
000003b0: 35dd e33c 389d 8cbd b7ee d33c 611a 92bd
000003c0: 2cc2 21bd b431 e93c 8bf2 1c3d a4c5 85bd
000003d0: 5484 793d f7da 803d 1b85 bb3c b2c9 cdbd
000003e0: 9680 6cbc c658 74bc f164 c63d f158 9abb
000003f0: 3af5 783c 82d1 1c3d d0e1 1bbd 646e 34bd
0.020904046 -0.07697575 -0.043449163 -0.035585783 -0.0017530079 -0.021878248 -0.06794517 0.047014497
0.043795288 -0.067135826 0.0012805923 0.056341637 -0.07102972 -0.069439135 0.03266743 0.019539362
0.042725693 -0.056149375 0.022132738 0.057297453 -0.016938811 -0.07266385 -0.13736674 0.018196626
0.008507541 -0.13801186 -0.018362343 0.02535988 -0.05963621 -0.08918877 -0.028830774 -0.0828136
0.035061073 -0.083734155 0.08192951 -0.07614223 -0.019837188 -0.03003776 0.027490737 -0.09368415
-0.14604343 -0.07629621 -0.04974469 0.013939211 0.027596368 -0.05627222 -0.04275819 -0.05929734
-0.03654153 -0.0020420242 -0.044353925 0.00076885795 0.024581438 -0.012375753 0.019428821 0.03132837
0.09250565 -0.0061926604 0.06477386 0.08205155 0.028920475 0.006387372 -0.062079486 -0.04871683
0.03106283 0.026411738 0.065642536 -0.0094707105 -0.013371589 0.04986547 0.0023491494 0.06828928
0.025325825 -0.05027288 0.062647685 0.047334976 -0.07437878 -0.034391552 0.07025214 -0.010469362
0.03185893 0.006543699 -0.099674255 -0.1935497 -0.07660091 -0.06127281 0.05234063 -0.058774367
0.014643911 0.097205535 0.0034219178 -0.015805548 -0.028561998 -0.052080337 -0.090367034 0.018106196
-0.061707843 0.03111673 -0.031067587 -0.12374856 -0.061564192 0.11204873 -0.027253743 0.029876484
-0.035467837 0.039889693 0.03435569 0.016541876 -0.011953049 0.071299106 -0.03461446 -0.03744727
-0.0037942743 -0.013168248 0.023104377 0.06721009 0.024905212 -0.0679409 -0.033497058 -0.0073702456
-0.0833699 -0.0057913596 0.07239563 0.024639308 0.009705089 -0.035666447 -0.03406335 -0.008080864
0.063795045 -0.0373969 0.011637244 -0.053370386 -0.019891411 0.004212096 -0.05492539 0.10312086
-0.1415593 -0.11934347 0.009973523 -0.015526599 -0.08330348 0.08294522 0.024315782 -0.030591313
-0.053237975 0.077106714 -0.04460484 0.03950985 -0.0285611 -0.016650692 0.08005186 0.050801348
-0.020832354 -0.09494707 -0.124209136 -0.017278356 0.08950606 0.06671654 -0.07542463 -0.10056394
0.075387105 0.0072885263 0.03134935 -0.14263631 0.20739771 -0.08094339 0.28613678 0.017743463
-0.03129875 0.10174501 0.11039434 -0.043728523 0.06725105 0.05678578 0.060792957 -0.0006561844
-0.03891833 -0.039750505 0.025709517 -0.014451014 0.075706415 0.099429846 0.077875026 0.03964217
0.16486622 0.101286426 0.045340717 -0.01851255 0.01450881 0.04596005 -0.046972834 0.007703488
0.023378449 -0.013420555 -0.08524405 -0.076405846 0.050635606 0.026837284 -0.035462674 0.02064983
-0.00651645 0.091098435 0.00737422 -0.041596375 -0.0034768828 -0.048849784 -0.020374618 -0.019497499
-0.02415432 -0.001972396 -0.16817318 0.057951596 0.05013867 -0.036437377 0.092051804 -0.019355832
0.080762945 0.0062850704 -0.030501582 0.035389297 -0.034169838 0.0825628 -0.045212705 -0.061782744
-0.06302121 0.04666287 0.023842061 0.0044530877 0.030931424 0.06546408 -0.024165364 0.023428224
0.054341298 -0.043849926 -0.029599687 0.052802145 0.02781544 -0.068659246 0.025870664 -0.071339376
-0.039491817 0.028466083 0.038317244 -0.065318376 0.060917214 0.06291764 0.022890618 -0.10048236
-0.014434954 -0.014913743 0.09687222 -0.0047103097 0.015195185 0.03828574 -0.03805715 -0.04405059

conv1.bias f4 [64]
00000000: 7dbe b93c ae9f 8a3d eb1f 16bd 2a10 633c
00000010: c82c 6fbd f46b 7dbd 5066 1f3d acba c03c
00000020: 854f 92bb ae94 42bd e84b 573d ed7c d5bb
00000030: f913 4a3d 6821 4dbd c03e 653d bb2a 56bb
00000040: b68c bebc 34e5 d5bb 6257 67bd cf61 5ebc
00000050: 0059 8a3b 2f0c 63bd 6674 1d3d 842b 8d3d
00000060: 9d1e 193d 5c80 13bd c123 39bd 5547 6fbd
00000070: 74c6 39bd 55c1 343d 5be8 0a3d 83e6 dabc
00000080: e00a ef3a 9030 3ebc aef1 b13a c4a9 92bd
00000090: 1c2e 7a3d 0e20 d4bc b18b 80bd 4db8 f4ba
000000a0: efbc af3c 7311 0c3d 762f 17bd 89a2 babb
000000b0: 0e40 61bd aeda 64bd 363f 45bd 113d 3dbd
000000c0: d3a8 3d3d f32f 85bd b763 7bbc f0f9 f8bc
000000d0: 2522 433d bf33 aebb 463d 24bd c61f 713d
000000e0: ee3e 64bd 7a3b e6bc 13e3 88bd 03fe d4bb
000000f0: c73e a63c b7cf 813d 3cab 57bd 0118 45bd
0.02267384 0.06768738 -0.036651533 0.013858834 -0.058392316 -0.06187053 0.038915932 0.023526512
-0.004465046 -0.047505073 0.052562624 -0.0065151365 0.049335454 -0.050080687 0.055968046 -0.0032679278
-0.023260456 -0.0065275673 -0.05647982 -0.013573124 0.0042220354 -0.05543154 0.038441084 0.068930656
0.03738271 -0.036011085 -0.045200113 -0.058417637 -0.045355275 0.04412969 0.033912998 -0.026721245
0.0018237494 -0.011608258 0.0013576054 -0.071612865 0.06107913 -0.025894191 -0.06276644 -0.0018670649
0.021452395 0.03419633 -0.036910497 -0.005695645 -0.054992728 -0.05587261 -0.048155986 -0.046200816
0.04630358 -0.06503286 -0.015343598 -0.030392617 0.047639985 -0.005316227 -0.040097497 0.058868192
-0.055724077 -0.028104533 -0.06683936 -0.006500007 0.020293606 0.063384466 -0.052653536 -0.048118595

bn1.weight f4 [64]
00000000: 6a24 853f 264b 863f 923f 803f 47ee 8d3f
00000010: ef25 823f 6dee 813f fa59 873f 9f74 833f
00000020: e348 843f 6046 6a3f 35ea 7d3f 4cb4 6f3f
00000030: 6e01 803f cb9f 863f 4fa6 873f 38b7 923f
00000040: 8d95 6f3f a7a5 6d3f 1653 833f d458 763f
00000050: d463 673f a52b 693f e71b 873f 5bb7 853f
00000060: 6b17 8e3f 3cdd 683f 89e9 783f fb18 883f
00000070: adee 813f 6ca1 753f 2125 8b3f 656e 843f
00000080: b8e4 7d3f 4d9c 753f bbb6 823f d0c9 963f
00000090: 7c2d 7d3f 1180 823f 346d 8b3f a6ca 6d3f
000000a0: 2cc7 853f ccdc 873f 64ba 6b3f ab20 863f
000000b0: 22eb 7c3f 0b0c 883f 37e2 8c3f 4c5a 803f
000000c0: 52c6 763f 0b12 753f 0f66 823f 6cfa 713f
000000d0: 7a9f 833f 633e 813f 6002 873f 5348 8e3f
000000e0: 1bde 893f a03e 823f cd8c 683f e3c5 803f
000000f0: f9f1 873f 0e68 8e3f e15d 763f 4598 803f
1.0401738 1.0491683 1.00194 1.1088341 1.0167826 1.0150887 1.0574334 1.0269965
1.0334743 0.91513634 0.99185497 0.93634486 1.0000436 1.0517515 1.0597628 1.1462164
0.9358757 0.9283089 1.0259731 0.9622929 0.903867 0.9108222 1.055539 1.0446581
1.1100897 0.90962577 0.97231346 1.0632623 1.0150963 0.95949435 1.0870706 1.034619
0.9917712 0.9594162 1.0212015 1.1780338 0.9889753 1.0195333 1.0892701 0.9288734
1.0451407 1.0614257 0.92081285 1.047872 0.98796284 1.0628675 1.1006535 1.0027556
0.9639636 0.95730656 1.0187396 0.9452274 1.0283043 1.0097164 1.05476 1.1115822
1.0770906 1.0175362 0.90839845 1.006039 1.0620719 1.1125505 0.96237 1.0046469

bn1.bias f4 [64]
00000000: 9d23 15bd f34d 04bc 15eb fcbd de96 bebd
00000010: c059 1dbd c529 97bc 63b3 8cbc 14d9 ce3c
00000020: 2dae dcbc d45c a3bd bec4 d2bd 7058 b9bd
00000030: d475 9abd b496 14bd 74c7 5ebd 21ba 4ebd
00000040: 29d3 00be 5113 b7bd d3d4 f8bd 44b6 6e3b
00000050: b154 c4bd 5545 a3bd da48 0dbc d439 58bd
00000060: 35e0 a7bd c115 c8bd d870 653d 6c13 62bd
00000070: c33f 19be 748f f5bd 3232 99bd 80f6 d63a
00000080: 0bc4 09bd dd42 bfbd 003e 2d3d 5a74 9b3d
00000090: e4ff d13c 05f0 2bbd 8005 ebbd 7b06 c5bd
000000a0: 71fd c0bd b812 08bd 2f3f 803d a74a 9ebc
000000b0: 7c5c 02be 5241 9dbd df79 51bd d56c 61bd
000000c0: e567 d8bd a096 e8bd 26df 11bd d6cc bebd
000000d0: 6bba debd 0df3 abbd a4bc a9bc 50f6 35bd
000000e0: 2f5d 20bc c0c7 cdbc 79e3 c1bd 9e16 e2bd
000000f0: 7c66 73bd 2d1a 99bd 3849 a8bc 561f 103b
-0.036410917 -0.008075225 -0.12349526 -0.093061194 -0.03841567 -0.018452534 -0.017175382 0.025249995
-0.026938522 -0.0797669 -0.10291432 -0.09050071 -0.07542005 -0.036276534 -0.054389432 -0.050470475
-0.12580551 -0.08939231 -0.12149968 0.0036424557 -0.09586466 -0.079722084 -0.008623326 -0.052789524
-0.08197061 -0.09769774 0.05601582 -0.055194303 -0.1496573 -0.11990252 -0.07480277 0.0016400367
-0.033634227 -0.09338925 0.042295456 0.07590552 0.025634713 -0.041976947 -0.114756584 -0.09620377
-0.0942334 -0.033220977 0.06262051 -0.019322706 -0.12730592 -0.076784745 -0.051141616 -0.05503543
-0.10566691 -0.113568544 -0.0356132 -0.09316413 -0.108754 -0.08395968 -0.020719834 -0.044424355
-0.009787842 -0.025119662 -0.09467215 -0.1103947 -0.05942391 -0.07475696 -0.020542726 0.0021991334

bn1.running_mean f4 [64]
00000000: 5a57 08bc 32e1 633d ecfe 24bd bd58 4dbc
00000010: f2c2 a0bd 7450 abbd da48 a33c 4ea5 153c
00000020: cab3 e2bc 25a9 25bd c3ca 543d c85f 38bc
00000030: 9334 213d cfea a3bd f2d6 353d 7191 b6bc
00000040: 39c3 efbc b8c0 193b c0d3 83bd dcaa 04bd
00000050: 8e93 093d bcbb 1f3c a8e0 b93c eb86 1b3d
00000060: 41b5 d23b 4715 123d 86b8 7abd 02aa 9bbd
00000070: 4c2f 5fbd 84ce 3f3d 8880 11bb 0d13 88bd
00000080: 585c d4bc 98ef 1abc 7e45 b9bc eb37 2dbe
00000090: d0fe 263d 5ec5 48bd 74a1 c4bd 6340 9b3c
000000a0: b7d0 0ebc 994f 713c e83f 62bd edfd cabc
000000b0: f5c5 84bd 6c3a 98bd 10e3 a6bd 15b1 70bd
000000c0: 7e8f 223d d92c 9abd 7b13 00bd be13 fabc
000000d0: 11f8 b63c f465 7dbc 2f4d 80bd f0f8 db3c
000000e0: 2661 a7bd d824 76bd 8877 b4bc 365b b1bc
000000f0: 341d 4cbc bac6 2a3d a4b3 73bd 13d7 83bd
-0.0083216075 0.055634685 -0.040282175 -0.012533364 -0.07849683 -0.083649546 0.0199322 0.00913365
-0.02767362 -0.040444512 0.05195118 -0.011253305 0.03935678 -0.080037706 0.04439444 -0.022286149
-0.029267894 0.0023460817 -0.064368725 -0.032389507 0.033587985 0.009749349 0.022690132 0.037970465
0.0064302986 0.035664823 -0.06121113 -0.07600786 -0.054488465 0.046827808 -0.0022201855 -0.06644259
-0.02592294 -0.009456538 -0.022616144 -0.16915862 0.040770352 -0.04901635 -0.09601107 0.0189516
-0.008716754 0.01472845 -0.055236727 -0.024779284 -0.0648307 -0.07433018 -0.081487775 -0.05876263
0.039687626 -0.07528085 -0.031268578 -0.030526992 0.022335084 -0.015466202 -0.062647216 0.026852101
-0.081728265 -0.06009373 -0.022029653 -0.021649938 -0.012458134 0.041693427 -0.05949749 -0.064375065

bn1.running_var f4 [64]
00000000: 009b 593c 5240 143c 2a87 193c fb2e 463c
00000010: 983d 493c 3c4f 423c 0e65 143c 5f0d 453c
00000020: e420 533c 6775 083c c80c 273c e893 0a3c
00000030: f856 3c3c fe1b 783c b687 f23b c9ae dd3b
00000040: 3795 0a3c 4e2e 053c e69e 0a3c e68f 803c
00000050: 2268 223c d40e a23c 6e91 dc3b fc6f 553c
00000060: 208a 653c 36a7 c53c 2502 863c ba77 083c
00000070: 0e4e 0c3c 69a8 0e3c 4e36 823c 29d3 9f3c
00000080: 9e21 773c 1ba0 073c 5ea8 683c 1011 033d
00000090: 02c6 6e3c d291 553c 9d30 563c c525 f43b
000000a0: 7329 883c 272b 0f3c ce32 493c 96ec f83b
000000b0: dc82 283c 26cb 1a3c 8815 6f3c 3e5c 183c
000000c0: 103b 343c ba83 e53b ecc9 293c b1e7 163c
000000d0: b871 3f3c 8cbd e43b a208 223c e99e 663c
000000e0: 6ade 243c acdb 8d3c d823 7a3c 8f25 fe3b
000000f0: a306 7d3c e015 3b3c 3b62 5c3c 5b9f 333c
0.013281584 0.009048538 0.0093706045 0.012096162 0.0122827515 0.011859711 0.009057296 0.012027114
0.01288626 0.008328772 0.010195918 0.008458115 0.011495344 0.015143393 0.007401432 0.006765221
0.008458427 0.008128716 0.008460736 0.015693616 0.0099125225 0.019782461 0.0067312038 0.013027187
0.014009982 0.024127584 0.016358444 0.008329326 0.008563532 0.008707144 0.015895035 0.019509869
0.015083699 0.008277918 0.014200298 0.031998694 0.014573576 0.013035255 0.013073114 0.0074507915
0.016621327 0.008738316 0.012280179 0.0075965626 0.010285106 0.009447848 0.014592536 0.009299336
0.01100041 0.0070042284 0.010363083 0.009210513 0.0116848275 0.0069806036 0.009889754 0.014075973
0.010062793 0.017316662 0.015267335 0.007755942 0.015443477 0.01141879 0.013451154 0.010963286

conv2.weight f4 [128, 64, 3, 3]
00000000: 9518 74bb 2062 6d3d aeac 7ebc 47ae aabc
00000010: ff62 bb3d c013 3dbd aa07 fb3c f923 12bd
00000020: 2bcb cabb 3683 c23a 37bc 87bd c106 8c3c
00000030: dcd9 5bbd f375 c13c 972b 573d 9b00 71bd
00000040: 0731 4bbd fc18 dfbc 147b 4ebd c84b cdbc
00000050: 6bca f03c d838 7abc e05a 543d 7be0 833c
00000060: 3409 a33c c6a4 67bb 9eaf 0fbd adc9 b3bc
00000070: 68dd 69bc 6e3a 803c 6c6a 563c 440f 403c
00000080: 3d5b 313d 7fba 0cbd 5d90 403c 395e 60bd
00000090: 74c8 2e3d 6680 533d b370 c43c de09 913b
000000a0: 72a0 b13c 12b9 aebc 5d6a 40bb f535 493d
000000b0: 564a b73c 680e a3bd 4bc2 fd3b 37b3 a6bb
000000c0: e025 833d 6bee d3bc a2e4 983d 4518 cb3c
000000d0: 3ba9 0fbd 003a 51b6 a01a 68bd 47db 9e3a
000000e0: 4222 d33b 07fd 833c 6647 1b3d 9604 0abc
000000f0: 069e 35bd 3fe6 123d d776 09bc 0c85 16bc
00000100: f164 673c 3376 563b 3255 74bd 92ab 613c
00000110: cb28 02bd 4476 cabb 4a2b 56bc 3635 92bc
00000120: 50c1 91bc 6a9b a43c 2cc1 423d 3153 a6bc
00000130: cab0 e2bd 3b2e 86bd b2a4 5a3c 81f2 853d
00000140: 303e 0c3c 2d5f ed3c ef79 d3bc 2520 44bd
00000150: e730 443b 9e83 82bb f7c2 2a3d 06a8 89bd
00000160: 1f47 4f3d 2087 b8bb a722 00bd 2ad5 5abd
00000170: 13bd 86bd 8057 2cbd 3f07 23bd a60e 8d3c
00000180: 06bd 0a3d c62e 31bd 1f52 253c e51f 42bd
00000190: 4130 bc3c 18c6 38bd 86da 6a3d cfaf df3c
000001a0: b526 2ebd ef1e 3abd 0840 2c3d cf3f 2e3c
000001b0: d40a a13b 9032 d53c d74d d0bc 462f 083c
000001c0: b47c 383d 6138 323c 00c4 94bd 0c94 83bd
000001d0: 49c6 b7bd e21d a93d 0986 a7bd 6cdf d3bd
000001e0: 834b efbc d90c c9bc dce4 8ebd f1b6 f0bc
000001f0: c4ba 90bd 7dd0 9dbc c670 99bc 61d7 6f3c
00000200: 1c61 b63b 2e3a 943d 58bd ac3b ca2a a0bd
00000210: 100e 263c 0530 51bd 5cc9 9fba e7a6 e6bb
00000220: 9170 c8bc a2e9 0ebc 622e 273c d19a 31bd
00000230: 41a7 27bd 3e7e 2cbd 0fe0 933d 9596 25b9
00000240: ecf4 2a3d aa28 0b3d c923 99bc 162a bdbb
00000250: a5d1 1f3c 35f9 56bc 14da 4bbd 270f f6bc
00000260: 1a96 323d a4ee 743d eff9 5e3c a844 29be
00000270: ca43 4a3d 49ae 5b3d e1e0 5a3d 7696 8b3c
00000280: 1d83 febc 5b3b 4ebc 99bc 5d3c 40a1 c03d
00000290: 64d8 b03d 2520 443b 8f95 753d a474 623d
000002a0: 5a52 43bd 4481 eabc 45e2 7fbc 83da c43b
000002b0: b5eb c1bd aa4a 29bc 50e9 023c ffdd 363d
000002c0: bfe8 413c 3421 863d 83e0 e73c 8466 063c
000002d0: 7489 f1bc ac9d 78bc 9c19 ecbc a128 f138
000002e0: b16c 603d be96 2b3b 106d 9fbd c2fb 62bd
000002f0: 3f02 24bd bfe8 e43c 23d4 c13c 469a e33c
00000300: 5c29 fb3c 58fb 00bd 06e9 09bc 2b4a 11bd
00000310: 6220 19bd ed00 0f3c c110 98bc fa41 c9bd
00000320: 1494 93bc 5f9f bb3c d042 043d f106 69bc
00000330: 9fc2 50bd 86fe 623d 8700 5abc e4b9 8c3d
00000340: c4e1 c83c a861 b13a c2c9 fabb cd5c 8e3d
00000350: 1f47 6dbc 4493 8dbb e276 063c 8cf7 9abc
00000360: 63fc a4bc 18f0 07bc 9ac0 62bc 421e a9bc
00000370: a30d f23b ef60 afbc b1e0 81bd 08cb 9abc
00000380: c5e3 dd3c 1e5f c83c 1a0e 4abc be85 423c
00000390: af32 bcbc 3bfe efbb b966 29bd a33f 68bc
000003a0: db32 68bd e1d8 1cbd a44f c6ba 3281 33bd
000003b0: 45d9 b3bd 1f94 b9bc 5f7f 753c 0320 3c3c
000003c0: 33fc c3bc 72f2 43bd 22f0 68bd c6e3 97bb
000003d0: d9fb 54bd 95fb 7fbb 7c17 2c3d 0c64 b43d
000003e0: 2cd6 fabb b5da 4ebd 4d09 7b3d 7d10 33bd
000003f0: d039 95b8 fc20 013d ed9b c8bc fcec aabc
-0.0037246097 0.057954907 -0.0155441 -0.020835055 0.091497414 -0.046161413 0.030643303 -0.035678837
-0.0061887703 0.0014840129 -0.06627696 0.017093064 -0.053674564 0.023615813 0.052531805 -0.058838468
-0.049607303 -0.027233593 -0.050410345 -0.02506055 0.029393395 -0.015272342 0.051844478 0.016098252
0.01990185 -0.0035346015 -0.03507959 -0.021946752 -0.014273979 0.015652861 0.013086896 0.01172239
0.043299902 -0.034357544 0.011753169 -0.054777358 0.042671636 0.051636122 0.02397952 0.004426225
0.021682952 -0.021328483 -0.0029360272 0.049123723 0.022374313 -0.07961732 0.007744109 -0.005087282
0.064037085 -0.025870522 0.07465483 0.024791846 -0.0350735 -3.1177187e-06 -0.056666017 0.0012119793
0.006443293 0.016111864 0.037909888 -0.008423945 -0.044340156 0.03586411 -0.00839015 -0.009186994
0.014123187 0.003272426 -0.05965156 0.013773816 -0.031777184 -0.006178649 -0.013071844 -0.017847639
-0.017792374 0.020093638 0.047547504 -0.02030334 -0.11068876 -0.065517865 0.0133449305 0.065403946
0.0085597485 0.028976047 -0.025814978 -0.047882218 0.0029936375 -0.003982975 0.04168984 -0.06721501
0.050604936 -0.0056313425 -0.031283047 -0.053425945 -0.06579032 -0.042075634 -0.039801832 0.017218899
0.033871673 -0.043257497 0.01009038 -0.0473937 0.022972228 -0.045110792 0.057337306 0.027305512
-0.042517383 -0.045439657 0.042053252 0.01063533 0.004914621 0.026025087 -0.025427742 0.008312052
0.0450408 0.0108777 -0.072639465 -0.06424722 -0.08973367 0.08257653 -0.08179862 -0.10345349
-0.029210811 -0.024542259 -0.06977245 -0.029384108 -0.07066873 -0.019264454 -0.018730532 0.014638753
0.0055657756 0.072376594 0.005271595 -0.07820661 0.010135189 -0.051071186 -0.0012190747 -0.0070389393
-0.024467738 -0.008722695 0.01020393 -0.043360535 -0.04093099 -0.04211258 0.0722047 -0.00015791722
0.041737482 0.033974327 -0.018693822 -0.0057728393 0.009754573 -0.013120939 -0.049768522 -0.030036522
0.04360018 0.059797898 0.0136093935 -0.16530097 0.049381055 0.05363301 0.053437117 0.017039519
-0.031068379 -0.012587394 0.013533735 0.09405756 0.08635023 0.0029926386 0.059957083 0.05528702
-0.04768596 -0.028626092 -0.015617912 0.006007494 -0.09468786 -0.010332743 0.007990196 0.044645306
0.011835276 0.06549302 0.028305298 0.008203153 -0.029484488 -0.015174311 -0.028820805 0.00011499343
0.054791156 0.0026182379 -0.07784474 -0.055415876 -0.040041205 0.027943013 0.023660725 0.027783524
0.03065937 -0.0314897 -0.0084173735 -0.035471123 -0.0373844 0.008728248 -0.018562676 -0.09827037
-0.018014945 0.022903142 0.03229028 -0.014222846 -0.050966855 0.055418514 -0.01330579 0.06871393
0.024521716 0.0013533132 -0.007653446 0.06951294 -0.014482289 -0.004320534 0.008207055 -0.018916868
-0.020139879 -0.008296989 -0.013839865 -0.02064431 0.0073868795 -0.021408526 -0.063416846 -0.018895641
0.027086148 0.024459418 -0.012332464 0.011872707 -0.022973387 -0.007324008 -0.04135773 -0.014175328
-0.056689125 -0.03829277 -0.0015129936 -0.043824382 -0.08781675 -0.022653637 0.014983981 0.011482242
-0.023923969 -0.047838636 -0.056869633 -0.004635307 -0.051997993 -0.0039059867 0.042014584 0.08808145
-0.007654926 -0.050501544 0.061288167 -0.043716896 -7.115642e-05 0.031525597 -0.024488414 -0.020864956

conv2.bias f4 [128]
00000000: e46a c1bc 27ce 433c 46b3 cabc 6811 2e3c
00000010: 01ca 81bc 00f8 14bd 6a34 10bd 6d47 0f3d
00000020: 1230 053c 71ee 263c a2a0 bf3c ab39 02bb
00000030: 161d 243d 2ac8 0d3d 2d7f 253d a79a 733c
00000040: c2cf ebbb 2f12 1bbd 5ad0 a23c b3c4 28bd
00000050: 86ba 18bd f898 4f3c 9b20 46bc fe2f 82bc
00000060: e803 033c 3f10 14bd 89f9 1ebd 76f2 343c
00000070: 42e9 d3bc aa67 2d3c d529 1ebd 08ed 24bd
00000080: 393f 283a 07e5 0dbd eff1 c0bb b66a 883c
00000090: 1455 833b 35bc 073d 45b3 ae3c e0ff 1ebc
000000a0: 8aa9 883c 47fd ea3c 1217 f33c 7c23 e2bc
000000b0: 3aec 19bd 327d a33c e3ed 893b 2b64 79bc
000000c0: 29c4 89bc 56b9 de3c cc73 ab3c b091 de3c
000000d0: 7bbe 63bc e79b 223d 1079 ef3c 3b01 55bc
000000e0: 74fd 993a 8420 13bd 449e 173c 9439 13bd
000000f0: 3a42 dabc 31a6 9a3c ffa3 343c 77ce 98bc
00000100: 58b8 583c 49a2 783c 80f4 d6bc 549c 1ebd
00000110: 19ac 1d3d ef55 f8bc 3bb3 033d 36c1 72bc
00000120: 433b 15bd 1e41 1c3d c8d1 d8ba 75df 9dbc
00000130: 5dec 0a3d 6dde 50bc e19b de3c b0ac 013d
00000140: 0a0f b7bc 5ea9 813c 0009 283c 3df0 6b3c
00000150: 8172 45bc 1aa6 d9bb 5d02 dcbc 4333 c83c
00000160: 51ba 283d 16c8 983c 9dba 103d 475e 99bc
00000170: 0a55 1cbd 6ea4 ab3b 0ccb 753c 4ad2 dabc
00000180: 2cee 25bd 1b46 02bd 4685 613c 9f8b 5abc
00000190: 5200 143d 9e25 c43c 773c 963c fcd2 f63c
000001a0: ff23 0f3d 4e58 fdbc 4c20 46bb 0074 a9bb
000001b0: efae e53c 48ae 54bc 45cf 1ebd c128 f03c
000001c0: dff0 81bc cdbd 833b 3f24 c03c 6128 16bd
000001d0: 331e 2bbc 3f3e 223d 473b 343c afca 8cbc
000001e0: 5fee d4bb cb50 073d 37f4 d9bc 9439 f03c
000001f0: a4fc 02bd 4046 053d 2b70 a3bc ac3d 0cbd
-0.02361054 0.011951006 -0.024743687 0.010624267 -0.015843393 -0.036369324 -0.035206236 0.034980226
0.008129137 0.010188685 0.023392025 -0.0019870799 0.0400668 0.03461472 0.040404487 0.014868415
-0.0071963975 -0.037859138 0.01987474 -0.041203212 -0.037287258 0.012670748 -0.012092735 -0.015892025
0.007996537 -0.036148306 -0.038812194 0.011044135 -0.025868062 0.0105837975 -0.038614113 -0.040265113
0.00064181123 -0.034642246 -0.0058882157 0.016652446 0.004007945 0.033138473 0.021325717 -0.00970456
0.016682405 0.028685225 0.029674087 -0.02760481 -0.0375788 0.019957159 0.0042092665 -0.015221636
-0.01681717 0.027187984 0.02092924 0.027169079 -0.013900395 0.03969946 0.029232532 -0.013000782
0.0011748509 -0.03591968 0.009254042 -0.035943583 -0.026642907 0.018878074 0.011025428 -0.018653138
0.013227545 0.015175411 -0.026239634 -0.038723305 0.038494203 -0.030314414 0.03215335 -0.014816573
-0.03643347 0.038148038 -0.0016542012 -0.019271592 0.03391682 -0.012748343 0.027173938 0.03165883
-0.022346038 0.01582783 0.010256052 0.014400539 -0.012051226 -0.0066421153 -0.026856596 0.024438506
0.04119331 0.018650096 0.03533422 -0.018721713 -0.038167037 0.0052381074 0.015002023 -0.026711602
-0.04051034 -0.03180514 0.013764685 -0.013338952 0.036133118 0.023943719 0.018339379 0.030129902
0.034946438 -0.030925896 -0.0030231653 -0.005171299 0.028037516 -0.012981005 -0.038771886 0.029316308
-0.015861927 0.0040204288 0.023454783 -0.036659602 -0.010444212 0.039610144 0.011000461 -0.01718649
-0.0064981426 0.033036035 -0.026605709 0.02932433 -0.031979218 0.0325377 -0.019950947 -0.034238502

bn2.weight f4 [128]
00000000: 22b6 843f 71f6 763f b0d8 823f 68e9 8b3f
00000010: 3178 8a3f 657c 723f 04e7 803f 5127 813f
00000020: 7bc4 7b3f 66b0 763f 6ccb 873f 5baa 7f3f
00000030: 4ed2 8d3f ad53 803f 0452 7f3f 8ecc 7a3f
00000040: 8299 7a3f e540 6c3f 0033 743f a4c8 613f
00000050: 60cb 8a3f 3b4a 943f d711 803f f42f 813f
00000060: 909f 823f c83e 703f 03d2 603f 696b 8a3f
00000070: 31da 7f3f ab64 703f 725e 703f 48eb 833f
00000080: bbb6 803f 0613 8c3f daa1 783f 0a3c 7f3f
00000090: 2443 803f 49ea 813f ca60 873f 7c02 823f
000000a0: afc1 7a3f 680b 6f3f bfcb 793f f2ee 893f
000000b0: d017 693f 6cb1 813f b4fd 5e3f ead9 8a3f
000000c0: 61de 803f 5b2a 723f 7056 8e3f a32d 783f
000000d0: ca4d 5c3f 77b1 8c3f cadb 803f b5f6 823f
000000e0: 435e 783f 21fb 813f 7d0a 7c3f c8a3 8a3f
000000f0: f4f6 823f 106d 803f bbdd 893f e943 6a3f
00000100: 34d9 863f 976e 743f 8b36 7a3f c26c 8d3f
00000110: 179e 7c3f a6f3 823f 0125 643f 9b40 7a3f
00000120: 3100 6d3f 1e63 6b3f 9ddd 823f 82a1 803f
00000130: d53f 833f e9f5 833f 3530 903f ca19 793f
00000140: a117 843f 057f 8b3f 7810 7d3f 709c 7f3f
00000150: 607f 813f 6fdc 803f ef64 6a3f 9307 803f
00000160: 6c51 793f d870 7e3f c750 6e3f 84c1 633f
00000170: 0f8c 8e3f aeaf 7b3f 6a37 813f 1694 873f
00000180: 2afc 6f3f 935c 853f 8a27 763f 0b09 893f
00000190: 31de 8b3f 66cd 663f a20e 643f c5d4 803f
000001a0: 8f82 803f 089a 823f 640f 803f 6714 633f
000001b0: 1fb3 5d3f 9129 5f3f 78c3 793f c4a9 9f3f
000001c0: 459a 803f 1ab9 6b3f ccc9 843f c454 7d3f
000001d0: f994 7e3f 3f7d 7d3f 88ef 8d3f 1bd0 733f
000001e0: 1bfa 6f3f 3192 7c3f 5b67 823f e659 913f
000001f0: 4660 783f a94a 8a3f ed39 6b3f 9f02 553f
1.0368083 0.9646979 1.0222378 1.0930605 1.081793 0.9472106 1.00705 1.0090123
0.9834668 0.9636291 1.0608954 0.99869317 1.1079805 1.0025536 0.9973452 0.97968376
0.97890484 0.9228652 0.9539032 0.8819678 1.0843315 1.1585153 1.0005444 1.0092759
1.0204945 0.93845797 0.8782045 1.0814029 0.9994231 0.9390361 0.9389411 1.0306177
1.0055765 1.0943305 0.97121966 0.9970099 1.002049 1.0149623 1.0576413 1.0157008
0.9795179 0.9337678 0.97576517 1.0776045 0.9105196 1.013227 0.8710587 1.0847752
1.0067865 0.9459588 1.1120129 0.96944636 0.86056197 1.0991658 1.0067074 1.0231539
0.9701883 1.0154763 0.98453504 1.0831232 1.0231614 1.0033283 1.0770792 0.9150987
1.0535035 0.95481247 0.97739476 1.1048815 0.98678726 1.0230606 0.89118963 0.9775483
0.9257842 0.91948116 1.0223881 1.0049288 1.0253855 1.0309421 1.1264712 0.97304976
1.0319711 1.0898138 0.98853254 0.9984808 1.0116997 1.0067271 0.9156026 1.0002311
0.97389865 0.99390936 0.93092006 0.88967156 1.1136492 0.9831494 1.0095036 1.0592067
0.93744147 1.0418876 0.9615408 1.0705885 1.0927182 0.90157163 0.8908483 1.0064932
1.0039843 1.0203257 1.0004697 0.88703007 0.8660144 0.871728 0.97563887 1.2473683
1.0047079 0.9207932 1.0374084 0.9895747 0.99446064 0.99019235 1.1088724 0.9523942
0.93741006 0.9866057 1.0187792 1.135556 0.970219 1.0804034 0.9188526 0.83207124

bn2.bias f4 [128]
00000000: 1d86 8fbd f884 d1bd 9f32 cebd e77f bbbd
00000010: 78f9 72bd 2076 37bc 00bf b0bd 5e28 69bd
00000020: e23e 6ebd cdbb 18bd cd91 f4bd 446a 1ebd
00000030: 7715 6bbd d30b b2bd 17c4 71bd 73f6 66bd
00000040: e961 f1bc acf9 2ebc 38b6 30be d298 15be
00000050: 4b76 72bd 3d3d b8bd 63d5 79bd fdd8 89bd
00000060: 893d c5bd ece7 a4bd 0ba1 85bd a895 dfbd
00000070: 5167 2cbd 04bb dbbd 45b4 aabd 9b78 89bd
00000080: 5585 a5bd a6a2 81bd 2d87 c3bc 2284 26bd
00000090: aa81 51bd 102b 9bbd 3a04 d1bd 0d98 2abe
000000a0: 3fde 3bbd 684f 9dbd 3688 d0bd 1bce 26bd
000000b0: 3369 d3bd 6268 63bd 61a7 a5bd 7a4d 97bd
000000c0: a77c 6fbd 2cd7 85bd e089 86bd 7d93 0fbe
000000d0: 5a2b 93bc 7e9d 25bd 9163 c4bd a731 b3bd
000000e0: ac0c 2cbd ea15 82bd ea2e 0ebd bffe adbd
000000f0: de4a 5fbd 507c bdbd c10c 54bd 2fae 70bd
00000100: 7f5f 8bbc 61df 34be bf4d 87bd 08a7 54bd
00000110: e6b0 d7bc 4d67 30bd 045b 40bd e46e 1cbe
00000120: 8e8e cbbd 3a41 e1bc 0504 85bd 3e67 9ebc
00000130: 377e 76bd 813b bfbd 3e08 11be 4fd0 24bc
00000140: 0d31 82bd 3b95 aebd aa2e b8bd c070 b1bd
00000150: 94c5 1ebd 1816 e3bd 60f6 30be b028 a4bd
00000160: 2622 2fbc 962a acbd 8aea 9cbd eebc 5abd
00000170: f701 79bd 3571 2dbd cc74 8ebd effe 06be
00000180: e900 79bd 153d f6bd 61c3 a3bc b6a7 dbbd
00000190: 5425 9bbd 685e 29be 273d 96bd 055e 99bd
000001a0: 5a80 0ebe 7c32 8fbd b2da 5abd 9181 94bd
000001b0: 7e80 29bd f6f8 e5bd af8c 59bd facc e5bd
000001c0: 9bc2 3bbd edb1 19be d2a8 a8bd 743f 94bd
000001d0: 358d d1bb 5c34 abbd 8271 96bd 9968 c5bd
000001e0: c1d6 b9bd 0127 a1bd 3c7b 58bd 305c c0bd
000001f0: 9e27 2bbd 2fb0 80bd b4c9 6cbd 9daf d6bd
-0.07008002 -0.1023044 -0.10068249 -0.09155255 -0.059319943 -0.011197597 -0.0863018 -0.056923263
-0.05816544 -0.037288476 -0.11941872 -0.03867556 -0.057393517 -0.086936615 -0.059024896 -0.056387376
-0.029465633 -0.010679644 -0.17257011 -0.14609078 -0.059194844 -0.08996055 -0.060994517 -0.0673084
-0.096308775 -0.08052048 -0.06524857 -0.109172165 -0.042090718 -0.1072903 -0.08335165 -0.06712457
-0.08082072 -0.06329851 -0.023868168 -0.040653355 -0.051149048 -0.07576573 -0.10205884 -0.16659565
-0.045866247 -0.07681161 -0.1018223 -0.0407239 -0.103227995 -0.05551947 -0.080885656 -0.07387824
-0.058468487 -0.065351814 -0.06569266 -0.14021106 -0.017965008 -0.0404334 -0.09589303 -0.08749705
-0.042004272 -0.06351836 -0.03471271 -0.084958546 -0.05451476 -0.09252226 -0.051769976 -0.058759864
-0.01701331 -0.17663337 -0.06606626 -0.051917106 -0.026329469 -0.043067265 -0.0469618 -0.15276676
-0.099392995 -0.027496923 -0.06494907 -0.01933634 -0.06017896 -0.09337521 -0.141633 -0.01005943
-0.06357012 -0.08524557 -0.089932755 -0.086640835 -0.038762644 -0.110881984 -0.17281485 -0.08015573
-0.010689294 -0.0840656 -0.07661922 -0.053402834 -0.06079289 -0.04234429 -0.06955871 -0.13183187
-0.060791884 -0.12023369 -0.019990625 -0.10725348 -0.07575479 -0.1653992 -0.07335883 -0.07488636
-0.1391615 -0.06992051 -0.05343122 -0.07251275 -0.041382305 -0.11229126 -0.053112682 -0.11220737
-0.045839887 -0.1500928 -0.08235325 -0.07238665 -0.006395007 -0.08359596 -0.07345869 -0.09639091
-0.09074164 -0.078687675 -0.0528519 -0.09392583 -0.04178583 -0.06283604 -0.057809547 -0.10482714

bn2.running_mean f4 [128]
00000000: 49a3 adbe 4b68 a8be ce3a 3ebf 48a3 c3bf
00000010: 68c5 58bf 565b cebe 68da b2bf 8c4c 95bd
00000020: 3673 3dbf 6372 8ebf b7cd 00bf eae4 37bf
00000030: da1e b2bf 6534 e9be e835 dbbe 4ae5 e9be
00000040: a278 0ebf 422f 2dbf f2f6 3dbf 22e6 02bf
00000050: a0e1 5bbf 3276 9ebf 1811 88bf eb91 e0be
00000060: 540f 12bf fb59 34be 28e5 34bf 0078 23bf
00000070: fa92 3abf 93c6 51bf 7e29 97bd bdc6 d8be
00000080: 2937 1ebf e584 6fbf 61a4 33bf 21fd d43e
00000090: a60a 5fbf 5c62 47bf 11e2 63bf feb7 18bf
000000a0: 5fa3 713d 8c51 fabe ed2c 64bf e9f3 51bf
000000b0: aac6 a2be ab5c 63bf 99b6 a53f 5247 92bf
000000c0: 7cf6 57be 6a14 82bf 106b 96bf 6e5c a7bf
000000d0: eca4 663d b8d8 e5bf dd09 ebbe ae48 97bf
000000e0: 7638 27bf 6248 963d e955 2abe bc5d c83e
000000f0: 7b1e 28bf 2902 f43d 8d20 86bf a573 d3bc
00000100: 19ca 62bf e9e3 7a3c 9275 56bf 8bac 8abf
00000110: 86b8 d3be 8b43 c1be 7c50 58be a3c7 a8be
00000120: f9ea 1cbf 3cfc adbe 7312 47bf 5c6d 1fbf
00000130: e53a 52be 4809 d0be eac8 88bf 204c 0bbf
00000140: 5022 47bf 3027 46bf 8705 7bbf 92e9 00bf
00000150: 45a2 5abf 8480 3cbf 3e5d c9be 7a78 3c3c
00000160: d5c5 3bbf 9697 833d c70c a03d bacd 82be
00000170: ccc5 a3bf 49a1 e3be 44e4 33bf de86 57bf
00000180: 048e 49bf ff52 87bf 2b6a 82be d3f2 80bf
00000190: 0cb2 97bf b504 e7be 850d f03e 3872 873c
000001a0: 6460 34bf 76c2 8ebf 4f6a 3ebf 4b83 343f
000001b0: 7874 f33e 520e a43f 6774 0cbf 98a2 5cbf
000001c0: 4cff bebe 04d7 58bf 66ef 4cbf a30c 4dbe
000001d0: 9aec a5bf 9e60 19bf 0327 aebf c039 78be
000001e0: 593a 08bf 81a3 72bf 274e 09bf 9afe 63bf
000001f0: cbda 80bf 7872 54bf 62bf 2ebe 165e 9a3e
-0.3391364 -0.3289207 -0.7430848 -1.5284204 -0.8467622 -0.4030406 -1.3972902 -0.07289991
-0.7400392 -1.1128658 -0.50313896 -0.7183367 -1.3915665 -0.45547786 -0.42814565 -0.45682746
-0.5565282 -0.67650235 -0.74204934 -0.51132405 -0.8589115 -1.237982 -1.0630217 -0.43861327
-0.5705464 -0.1761245 -0.70662165 -0.6385498 -0.7288052 -0.81943625 -0.07380961 -0.42339125
-0.6180292 -0.93562156 -0.701727 0.41599372 -0.87125623 -0.7788446 -0.89016825 -0.5965575
0.058993693 -0.4889034 -0.8913105 -0.820128 -0.31792194 -0.88813275 1.2946349 -1.1428015
-0.2109012 -1.016248 -1.1751423 -1.3075082 0.056309626 -1.7956762 -0.45905963 -1.1819055
-0.6532053 0.07338025 -0.16634335 0.39134014 -0.6567151 0.119144745 -1.0478684 -0.02581198
-0.88589627 0.015313127 -0.8377315 -1.0833906 -0.41351718 -0.37746844 -0.21124452 -0.3296481
-0.6129604 -0.33981502 -0.77762526 -0.62276244 -0.20530279 -0.4063208 -1.0686314 -0.5441303
-0.7778673 -0.77403545 -0.9805531 -0.503564 -0.85403854 -0.736336 -0.3932895 0.011503333
-0.7334874 0.06425397 0.07814937 -0.25547582 -1.2794738 -0.44458988 -0.7027018 -0.84190166
-0.78732324 -1.0572203 -0.25471625 -1.0074104 -1.185121 -0.4512078 0.46885315 0.016533956
-0.7045958 -1.1153095 -0.74380964 0.7051284 0.47549796 1.281687 -0.54865116 -0.861856
-0.3730415 -0.8470309 -0.80052793 -0.20024352 -1.296283 -0.5991305 -1.3605655 -0.2424078
-0.5321403 -0.9478074 -0.53634876 -0.89060366 -1.006677 -0.82987165 -0.17065194 0.30149907

bn2.running_var f4 [128]
00000000: ad95 2a3f 9b12 363f 3f60 423f 1c08 fc3f
00000010: f369 593f b47f b03e af73 7d3f d6e4 dc3e
00000020: 234d 153f c26b 673f ca0c 1f3f 58d0 2a3f
00000030: c2e0 633f a07a 1e3f 0e81 173f 64d2 e03e
00000040: dea8 fb3e f5df 233f f578 2d3f e7f5 013f
00000050: acd2 983f aa93 703f a884 353f 1c36 003f
00000060: 19ce 1f3f 3674 0b3f 2d92 0e3f e9d0 d43e
00000070: 885f 533f 4075 2f3f d616 d03e 3f4d 053f
00000080: 6969 3f3f ac21 953f f88f 0b3f d6bf 1d3f
00000090: 90bd 4c3f 0a18 593f d7a3 0e3f f4e8 0b3f
000000a0: fb9b 253f 2042 083f 63bb 853f b0e0 4d3f
000000b0: 8439 ff3e 9c9a 4b3f bc22 273f 866a b73f
000000c0: c62b 2b3f 346d 383f 85fb d53f d790 f63e
000000d0: ed6c 273f ca46 fa3f 3527 313f da73 7c3f
000000e0: 07bd e23e bd8b 423f 1e96 cb3e e22e 373f
000000f0: 68c0 2c3f e5db 2d3f 937b 883f 95fe 043f
00000100: 157a 463f e3e2 df3e 112b 523f 27b1 e33f
00000110: 424c fb3e f25e e83e 6c5e e33e 075f 033f
00000120: 7590 ea3e 194b 073f 5e71 193f b50f f43e
00000130: 8f0a 423f 9e0e 173f 9e2b 373f d292 063f
00000140: aa2e 233f ddea 1a3f 9b83 533f ddda d43e
00000150: bfe1 4e3f 154f 3a3f 3e75 1d3f e7bc 023f
00000160: 21d8 023f 5e63 393f 84de 473f cb9a a03e
00000170: a633 bd3f f1e3 ec3e b18c 3d3f 7822 263f
00000180: 7dd9 573f ec3c 153f fa8e 183f 66dc 6a3f
00000190: f639 7c3f 69ab a73e dcdd 533f 4e88 293f
000001a0: 8d3b 393f 465c 0b3f f998 283f c3bc 013f
000001b0: b637 093f 0c1a 783f b0f3 203f 04bc 593f
000001c0: 9bfd 833f 363d 1f3f 7b33 303f d77a 2c3f
000001d0: a052 253f ecdf 3b3f 43f6 a83f 7020 113f
000001e0: 59d8 263f 3deb 6b3f ae8d 223f 0a38 543f
000001f0: d82c 1e3f 2e71 813f b17c 153f 5cee 413f
0.6663464 0.7112214 0.7592811 1.9689975 0.8492729 0.3447243 0.99004644 0.43143338
0.58320826 0.903988 0.6212889 0.6672416 0.8901483 0.6190586 0.59181297 0.43910515
0.49152273 0.64013606 0.6776269 0.5076584 1.1939292 0.9397532 0.7090554 0.50082564
0.62423855 0.544742 0.55691797 0.41565636 0.82567644 0.68538284 0.40642422 0.52070993
0.7477022 1.1650901 0.54516554 0.61620843 0.7997675 0.84802306 0.5571875 0.54652333
0.6469113 0.532259 1.0447811 0.8042097 0.49848568 0.7953279 0.65287375 1.4329383
0.6686367 0.7204163 1.6717383 0.4815738 0.6540058 1.9552853 0.6920045 0.98614275
0.4428484 0.75994474 0.39762968 0.7155591 0.6748109 0.6791366 1.0662712 0.5195096
0.7753003 0.43727788 0.82096964 1.7788438 0.49081618 0.45384938 0.44407976 0.51316875
0.45813337 0.52848965 0.5993861 0.47668234 0.7579736 0.5900668 0.7155093 0.5256778
0.6374308 0.6051462 0.8262269 0.4157323 0.8081321 0.7277692 0.6150702 0.5106949
0.51111037 0.7241725 0.78073907 0.31368098 1.4781387 0.46267655 0.74042803 0.64896345
0.84316236 0.58296084 0.59593165 0.9174255 0.9852594 0.32747963 0.82760406 0.6622361
0.7235649 0.54437673 0.6585842 0.5067865 0.53600633 0.96914744 0.6287184 0.85052514
1.0311769 0.62202775 0.6882855 0.6737494 0.645792 0.7338855 1.3200153 0.5669012
0.6517387 0.9215582 0.63497436 0.8289801 0.61787176 1.0112665 0.5839339 0.7575433

conv3.weight f4 [128, 128, 3, 3]
00000000: 6599 05ba 2408 2f3b da03 69bc fc22 443d
00000010: da96 d13b d026 863d a829 89bc 98d1 ea3c
00000020: 8d58 35bd cd28 733c 19e6 82bc 7ade 0d3d
00000030: 9370 57bd 7057 edbb 18ce 49bd 4721 703c
00000040: cb17 013c 09e8 043d 2239 06bc b579 403d
00000050: c39b 3bbc 56dd 0ebe 10db 9fbd e420 47bd
00000060: aebe 23bc ee12 8dbd 08cc 073d 7fac 3e3c
00000070: 9763 28bd b41e 29bc 079b 693c 718f 5cbd
00000080: 8343 ab3a bd91 b63c 0e97 ccbc 4d69 9fbb
00000090: 2cb4 5bbc d951 d6bc 10a5 383a 324e 8ebc
000000a0: a28c 55bc 166e f3ba e54f 13bc c957 19bd
000000b0: ca0e 273c 5bb5 1a3c 2fb0 d63b 514d ce3b
000000c0: d566 b53c 7c91 dabc 957f 263d b4c0 963c
000000d0: 348b 89b7 05aa 733c 6a8e ec3c 8452 873d
000000e0: 7b3e 563b c55e 4d3d ad2d 1a3d fd71 973c
000000f0: 9a85 633c a6d5 cb3b 0bcc 05bd e85e 24bd
00000100: 50f6 6ebb d5a5 333d 5d6f 06bd be40 593c
00000110: 2e68 4abc 7cd9 14bd 5b50 bc3c 8ab8 09bd
00000120: 14b9 babd ef00 1abd c11b 773c ba55 46bd
00000130: 00f2 e53b 61c8 9dbc 5442 3b3d 11bd d2bc
00000140: d4f4 153a 27fa 8f3b e4ca c5bb 9ccf 8b3c
00000150: 2ef0 473c 7c43 043d ebf6 793d a8a1 913d
00000160: 5134 45bd c10a 2fbd 0d3c d1bc 4dc6 283d
00000170: e4dc 3f3d 603b c2bc 10cb b23b 8311 3c3d
00000180: 5ea4 44bd 897f 10bd e54e 913b 9861 0ebd
00000190: aa9f 013d 4abf 93bc 1507 5d3c c301 113c
000001a0: 2f35 2f3d 2202 8cbc a632 043d 4599 633c
000001b0: cb58 fbbc 3f03 d4bd 9e83 d23d 6b87 493d
000001c0: ba99 b33d 6c79 943d 4467 383d a034 0abc
000001d0: b97a 623b b7e0 1dbd 54d8 1d3d cf5e c2ba
000001e0: 19a7 4d3d d579 153d 0bd8 80bd 694b 0abd
000001f0: 8b04 ab3d e17f f13c 452c 473d ab75 fcbc
00000200: ffa5 9e3c 093c d5bc 1dca 1ebd 9a7e 98bb
00000210: c3c4 54bc be1b 013d 3674 30bd 0ead 163d
00000220: d8b4 c13c ef15 683d ed27 043d ad00 ff3c
00000230: 9160 b1bc 5947 143d c0b8 c139 4e09 12be
00000240: 32da 9f3c 4de5 1c3d 393c e9bb 224c 9cba
00000250: 2a53 c73a 08a8 5fbb 8842 5cbd 965e 2abd
00000260: 5df7 1b3d c094 4f3d 0a16 e43c 2bd9 673c
00000270: 7ba7 e93b 3945 053d 01a3 943d e504 73bc
00000280: 73e8 943c 9224 9c3c d57a ac3b 8858 6bbd
00000290: 6858 88bc c48f 463c e7cd 0a3c 410b 26bd
000002a0: e0ec efbd 3365 1e3d 0756 37bc ffb3 f1bc
000002b0: 8cd4 0e3d e187 22bd c9c3 dabb 2276 eb3c
000002c0: aac4 babd 2c5d b13c 7567 68bd 1a6f a53a
000002d0: 3a44 85bc 569a 483c cca6 663c 1f49 fbbb
000002e0: 8fda 2b3d 649e 63bc a225 4d3b 6807 2e3d
000002f0: a47b 273c 7a71 d8bc f69a d2bc da3b 183c
00000300: 0d25 bc3c d20a 3b3d b642 aa3c f1a4 3bbd
00000310: 7316 4ebc aba1 bc3c 2a09 3c3d 77ba cfbc
00000320: fb5b 233d 8efb 983d 8427 6bbc 44d2 24bd
00000330: d8fb 3d3b 1c68 62bb 545b 21bc 553b 153d
00000340: 7aed 4dbd f925 c0bd e95a 8bbc a38f 83bd
00000350: 8f23 ed3c abeb 89bd 70f7 5f3d e5fc de3b
00000360: 049c 9a3d a99d 013d ec53 77bc 4a23 a0bd
00000370: 28d9 81bd 5a2e 1fbe fb0a 473c aaa3 92bc
00000380: 130b 39bc f263 d6bc 5fc0 753c 8610 9cbb
00000390: 8871 93bc 9c0b 54bc 8683 803c b40a 82bc
000003a0: f26c 21bc a7db 06bd d8b1 a7bb ad4c f4ba
000003b0: 2553 18bd bd7d febc faaf 643c 4b06 4e3d
000003c0: 14e1 3d3d 07bd 26bb ade9 7cbd 4e1c 753d
000003d0: 238a 26bd bd6a 153d 4156 263d 2fec 2cbe
000003e0: f4b3 dcbc dc25 05bd b477 cbbc 06ce 34bd
000003f0: de0c 57bd db09 46bd 1240 b43b cf78 07bc
-0.0005096405 0.0026707733 -0.01422211 0.047884926 0.0063961567 0.06550372 -0.016743496 0.028664395
-0.0442739 0.014841271 -0.01597886 0.034636 -0.052597594 -0.0072430894 -0.049268812 0.014656371
0.007879208 0.03244785 -0.008192332 0.04699107 -0.011450711 -0.1395162 -0.07805455 -0.04861535
-0.009994192 -0.06888376 0.033153564 0.011637806 -0.0411106 -0.010322262 0.014258153 -0.053847734
0.0013066385 0.02228629 -0.024974372 -0.0048648478 -0.013409656 -0.026162075 0.0007043639 -0.01737127
-0.013034018 -0.0018572237 -0.008991216 -0.037437234 0.010196397 0.009442653 0.0065517644 0.006295838
0.02214376 -0.0266807 0.040649015 0.018402435 -1.6396494e-05 0.014872079 0.028876502 0.066075355
0.003269105 0.050139207 0.037641216 0.018486971 0.013886834 0.0062205372 -0.032665294 -0.040129572
-0.0036462732 0.04385932 -0.032821048 0.013260065 -0.01235394 -0.03634022 0.022987535 -0.033623256
-0.09117332 -0.037598547 0.015082301 -0.0484216 0.007017374 -0.019260587 0.045717552 -0.02572492
0.0005720381 0.004393834 -0.0060361493 0.01706677 0.012203259 0.03229092 0.061026495 0.071109116
-0.048145596 -0.042734865 -0.02554133 0.04120474 0.046841517 -0.023709953 0.005456336 0.045915138
-0.048008315 -0.035277877 0.004434454 -0.03476104 0.03164641 -0.01803555 0.013490458 0.008850518
0.04277533 -0.01709086 0.032274865 0.013891523 -0.030681988 -0.10352182 0.1027901 0.04920141
0.087695554 0.07249722 0.045020357 -0.008435398 0.0034558012 -0.038544383 0.038536385 -0.001482928
0.050208185 0.03649314 -0.06291207 -0.033763323 0.08350476 0.029479923 0.048626203 -0.030817827
0.019366262 -0.026029604 -0.03876697 -0.004653764 -0.012986365 0.031520598 -0.043079577 0.03678613
0.023645803 0.056661543 0.03226464 0.031128252 -0.021652492 0.036200855 0.00036949478 -0.14261362
0.019513223 0.038304616 -0.007117775 -0.0011924545 0.001520728 -0.0034127254 -0.053774387 -0.04159411
0.0380777 0.05067897 0.02784254 0.014150898 0.007130561 0.03253672 0.07257653 -0.01483271
0.018177247 0.019060407 0.005263666 -0.057457477 -0.016643718 0.012119237 0.0084719425 -0.040538076
-0.11715102 0.03867073 -0.011189944 -0.029504774 0.03487067 -0.039680365 -0.0066761714 0.028742854
-0.09119542 0.021650873 -0.05673929 0.0012621612 -0.016267885 0.012243828 0.014077853 -0.007668629
0.04195648 -0.013892744 0.0031302948 0.042487532 0.010222349 -0.026421297 -0.025708657 0.0092916135
0.022966886 0.045664616 0.020783763 -0.045811597 -0.0125785945 0.023026308 0.045907177 -0.025357468
0.03988264 0.07469855 -0.014352683 -0.040239587 0.0028989222 -0.0034546917 -0.0098484345 0.036433537
-0.050275303 -0.09382243 -0.017011123 -0.06423881 0.02894762 -0.06734403 0.054679334 0.0068050497
0.07549289 0.031644497 -0.015095692 -0.07819231 -0.063402474 -0.15545025 0.012148614 -0.017900307
-0.011294144 -0.026170705 0.014999478 -0.004762712 -0.017998472 -0.012942221 0.015687715 -0.015874244
-0.009852635 -0.03292432 -0.005117636 -0.0018638574 -0.037188668 -0.031065816 0.013957972 0.05029897
0.04635723 -0.002544226 -0.061746288 0.059841447 -0.04065908 0.036478747 0.040609602 -0.16886972
-0.026941277 -0.03250681 -0.024837352 -0.04414179 -0.052502505 -0.048349243 0.005500802 -0.008268549

conv3.bias f4 [128]
00000000: 3e70 923b 4d8d dbbc 4c64 15bc 6227 bfbc
00000010: 323f f43c 746b 323c 99d0 003c d604 803b
00000020: 28d2 513c 7ba1 81bc 4ffa 3f3c 8696 663c
00000030: 001c d13c 11b2 a03c 03f6 a6bb 126b c13c
00000040: 21eb 01ba 5580 573c 1e8b 823c cfa2 13bc
00000050: 7a8b 4bbc 4d35 613c 5212 35bc 2124 c43c
00000060: 7d87 8cbc 86de f63b b672 67bc 07b4 703c
00000070: 53a9 37bc 372c 95bc f262 d5bb 2d7d c5bc
00000080: d3d2 99bc 6d5c 4c3c 072f 1c39 b1cd 853c
00000090: 2887 533c f34f 003c de18 543b f0a0 cebc
000000a0: 255f 993c f67a bcbc e3c9 e3bc 0117 b73c
000000b0: 7e5e 7abc 1e95 be3c cddc e3bc a866 c33b
000000c0: f383 b83c 5ca6 753c 565b 223b d2bc 9e3c
000000d0: 6a3c ed3c cb82 d9bc 201d cd3c 8156 9cbc
000000e0: ba0a eabc aa46 12bc 0dff d93c db15 abbc
000000f0: b351 dfbc 65a2 853c dafd 443c 9b1d 8f3c
00000100: 7249 8e3c 3559 4d3c 7658 c43c 960f 2dbc
00000110: 1973 afbc 2383 633c a2aa 163b 3d7f cdbb
00000120: 2fea 2c3a 96b2 d0bc da43 e7bc f433 f33b
00000130: 8385 9abc 77e7 d1bc 8d9c ea3c 56b8 01bc
00000140: 5d13 9fbc 8b22 b7bc ceb3 8abc 60c1 bfbc
00000150: c5e7 d1bb a8e2 aabc fe81 c03c c3f2 d4bc
00000160: bcd9 333b e6a3 17bc a7e6 993c 2340 58bc
00000170: 5689 57bc 368c bb39 5342 ab3c 1cdc e33c
00000180: 3517 9dbb a999 223c 67ff d53c 406f a83b
00000190: cc52 cd3a 44b4 693c d199 ca3c 509c 753c
000001a0: ba14 953b 212d 0ebc 55c7 0abc 83ce 81bc
000001b0: a860 b9bc 346e 34bb 4c61 393c 7f62 2e3c
000001c0: 08cd 0c3c 5b73 833a b878 02bc fdde 45bc
000001d0: 16a8 923c 1458 afbc bd6c 07bc 5835 eb3c
000001e0: 6007 a83c 6d74 2bb9 7def c3bc 3e41 b53c
000001f0: 4f56 a4bc 0320 c4ba 4caa b23c 5a59 a8bb
0.0044689467 -0.026800776 -0.009118151 -0.023334209 0.02981529 0.010889877 0.007862234 0.0039068265
0.012806453 -0.01582407 0.011717393 0.0140739735 0.025526047 0.019616159 -0.005095245 0.023610625
-0.00049559964 0.013153155 0.015935477 -0.009010985 -0.0124233905 0.013745618 -0.011051731 0.023943009
-0.01715445 0.007533851 -0.01412647 0.014691359 -0.011209804 -0.01820956 -0.0065120393 -0.02410754
-0.018777287 0.012473208 0.00014894838 0.016333433 0.012910642 0.007831561 0.0032363455 -0.025223225
0.018722126 -0.023007851 -0.027806228 0.022349836 -0.015281318 0.023264464 -0.027815247 0.0059631653
0.022523856 0.014993276 0.0024773679 0.019377146 0.028959472 -0.026551625 0.025038302 -0.019084217
-0.028569568 -0.00892798 0.026610876 -0.020884445 -0.027260637 0.016312787 0.012023414 0.017470172
0.017369006 0.012533476 0.023967963 -0.010562798 -0.021417188 0.013886246 0.0022989889 -0.0062712715
0.00065961754 -0.025475781 -0.028230596 0.007421965 -0.018862491 -0.025623066 0.028639102 -0.007917484
-0.019418413 -0.022355339 -0.01693144 -0.023407638 -0.006405803 -0.020860031 0.023499485 -0.025994664
0.0027443012 -0.009255385 0.018786741 -0.013198885 -0.013155302 0.00035771885 0.02090565 0.027814917
-0.0047940263 0.009924331 0.026122762 0.005140215 0.0015664934 0.01426417 0.024731549 0.014990881
0.00454959 -0.008677752 -0.008470376 -0.015845543 -0.022629097 -0.0027531506 0.011314701 0.0106436005
0.008593805 0.0010028885 -0.007963352 -0.01207709 0.017902415 -0.021404304 -0.008265671 0.02871196
0.02051133 -0.00016351203 -0.023917908 0.022125836 -0.020060686 -0.0014963154 0.02180972 -0.0051376047

bn3.weight f4 [128]
00000000: d934 ac3f 0b0d a43f a374 993f b30b ac3f
00000010: 9e69 9f3f e65c 9c3f a489 9d3f e57c b23f
00000020: a2b0 aa3f 156a b33f 7606 a93f fe5b 9e3f
00000030: 86c7 a23f d31f a73f 5c64 a63f 93d8 953f
00000040: 5ac2 9a3f f981 a33f c841 9f3f 978f af3f
00000050: 9868 a03f b85f a53f f0a8 9b3f 9419 a53f
00000060: cce0 a43f 0c6b 9c3f 1a22 923f 07f1 ac3f
00000070: 301b 9b3f 319f a13f fd5b a63f 62d5 9c3f
00000080: d54e 9e3f ab00 a53f e482 9f3f 8b21 9f3f
00000090: e118 ac3f aa20 9e3f 08c3 a73f f1c1 a53f
000000a0: 7ca2 a63f c072 963f e490 ad3f ca7e a53f
000000b0: 0b3d ae3f 32fb a53f 5644 993f 806a 9a3f
000000c0: a08b 973f 5890 a23f de19 a93f 9218 9f3f
000000d0: d69a a43f af9c 9f3f 6e8a 9c3f 9aaf a53f
000000e0: d9a6 8e3f a4c1 ac3f 2b69 a43f 85d2 983f
000000f0: e9be a23f 1fda a23f 3c8b 9c3f 63e5 ab3f
00000100: 7edf af3f 4b58 b33f 1a05 b23f b48b a13f
00000110: 7ed4 9f3f 7c1b a13f c8b4 9d3f badc b23f
00000120: 8e24 9d3f 2f24 b13f e024 9a3f ce9c 9a3f
00000130: 6e4c 983f 624d b03f 2622 aa3f f484 a83f
00000140: e0a0 a23f 7ab6 ab3f 6a92 9d3f 7d5d b83f
00000150: 3f7b a03f eb35 a53f 55bf a03f 41ad a23f
00000160: ab02 a03f f55f 9d3f 2c51 b43f b54c 9b3f
00000170: fa67 9d3f d02a a93f a34a a53f 147e a73f
00000180: 4ef9 ae3f 35f2 a73f 3489 a53f 0637 ac3f
00000190: be83 9e3f 88c0 9a3f 7099 9c3f 102e a23f
000001a0: f6d8 963f 3c3a 953f 699e b33f a665 b33f
000001b0: 9ccf a03f 38c3 9d3f 860d ac3f 0c53 9f3f
000001c0: 76d5 9e3f 32c8 a53f 5251 a13f c835 a03f
000001d0: 3cb2 9a3f 2999 973f 4911 a63f 6cf5 a63f
000001e0: e02e a43f 5680 a23f 46cc b53f 589c a13f
000001f0: 1bc8 ae3f 7665 a03f b492 a43f e3e7 b03f
1.3453628 1.281648 1.198872 1.344107 1.2454107 1.221585 1.230763 1.3944365
1.3335154 1.4016749 1.3205097 1.2371824 1.271714 1.3056587 1.2999377 1.1706718
1.2090561 1.277404 1.244195 1.3715695 1.253192 1.2919836 1.2160931 1.2898431
1.2881103 1.2220168 1.1416657 1.3511056 1.2117672 1.2626706 1.2996823 1.2252619
1.2367808 1.2890829 1.246182 1.2432112 1.3445092 1.2353718 1.3106394 1.2949811
1.3018336 1.1753769 1.3559842 1.2929318 1.3612379 1.2967284 1.197398 1.2063751
1.1839485 1.27003 1.3211019 1.2429373 1.2859752 1.2469691 1.2229745 1.2944214
1.1144668 1.3496594 1.2844595 1.1939245 1.2714511 1.2722815 1.2229991 1.3429378
1.3740079 1.401132 1.3907807 1.2620759 1.2486722 1.2586513 1.2320795 1.397361
1.2276781 1.3839167 1.2042503 1.2079103 1.1898324 1.3773615 1.3291671 1.3165574
1.2705345 1.3415062 1.2310307 1.440353 1.2537612 1.290708 1.255839 1.2709123
1.2500814 1.2294909 1.4087272 1.2132784 1.2297356 1.321619 1.2913402 1.3085351
1.3669832 1.3120791 1.2932496 1.3454292 1.2383955 1.2090006 1.2234325 1.2670307
1.1784961 1.1658397 1.4032718 1.4015396 1.2563357 1.2325201 1.3441627 1.2447219
1.2408893 1.295172 1.2602942 1.2516413 1.2085643 1.1843616 1.2974025 1.3043647
1.2826805 1.2695415 1.4202964 1.2625837 1.3654817 1.2530963 1.285727 1.3820766
