models/binary_model.pt (torch, 984598 bytes, 19 tensors)

cnn.cnn.0.weight f4 [32, 21, 1, 1]
-0.09444128 0.11934521 0.0025157135 0.10544648 -0.057001468 0.14033316 0.17625862 -0.19180192
0.055353478 0.0028448403 0.20844205 -0.19005084 0.12687479 -0.14700732 -0.01647799 0.19057396
0.012090795 0.22351035 -0.2678233 0.051910147 -0.117803596 -0.15822479 0.17027439 0.17332439
0.46286502 0.18238659 0.16227596 -0.18711871 -0.16258204 -0.08123469 -0.21442704 -0.01382345
-0.13044187 -0.08409575 0.015869046 0.095919 -0.25046745 -0.09977985 -0.116217576 0.009941239
0.09627791 0.27867553 -0.13490832 -0.18309668 0.13674612 -0.08060536 -0.043769237 -0.09964502
0.096084 0.009107649 -0.19524622 -0.14288516 0.09466212 0.23448461 -0.13689706 0.1816035
0.042988133 0.26858494 -0.15474056 -0.2175975 0.18674496 0.15676104 -0.1979286 0.080394186
-0.059379656 -0.07238688 0.3763389 -0.06828791 -0.010129228 0.14938793 -0.1090809 -0.14538188
-0.18999241 0.004943903 -0.054173235 -0.14093867 0.08683332 0.22863239 0.09875895 -0.034092255
-0.111732 0.23000921 -0.10007265 -0.07630126 0.11231956 -0.07357099 0.17502671 0.17004448
0.16339506 -0.18689963 -0.027295548 0.11762293 0.01926128 0.0056229234 0.111583814 -0.13548046
-0.14417806 -0.20573853 0.46693912 -0.37966758 0.06640499 0.03419213 0.25956732 -0.13149022
0.029309765 0.0077579487 0.16190588 -0.17288467 0.08735436 0.25255302 0.051350757 -0.12110608
0.082067266 -0.0058367536 -0.049719527 0.005301891 0.01072203 -0.1306287 -0.21057042 -0.10065299
0.12049086 -0.08938183 0.2747845 0.16734827 -0.086897865 -0.0037177918 0.0065554553 0.08141235
0.19531523 -0.1198317 0.04855585 0.21412508 -0.034339912 0.0042600334 -0.17261767 0.1844914
0.13600528 -0.098485984 -0.045385256 -0.17888598 -0.26244766 0.42176625 -0.0020712514 -0.006812512
0.43041682 0.08291592 -0.1804679 0.002703971 -0.09088082 -0.20583165 -0.21837439 0.14410914
-0.035739228 0.14132755 0.020344928 0.108577184 0.10827883 -0.20842044 0.191546 -0.078316644
0.13499506 0.060623825 -0.16344713 0.03604824 0.027233327 0.17844968 0.031625614 -0.16287827
-0.07204234 0.035898834 0.06563266 0.21451916 -0.1607659 -0.069637865 -0.24715245 0.01267226
-0.11272144 0.08821824 0.01856043 -0.13494389 -0.13911527 0.14744446 -0.25458032 -0.21575862
-0.24917138 0.088078775 0.27032664 -0.09990786 -0.014035798 -0.16346754 0.15502734 0.008758869
0.35381672 0.055792708 0.080630526 0.20269793 -0.15354514 -0.11330177 0.21704374 -0.1724904
0.05517824 0.15831764 -0.20902012 0.28674597 0.138454 -0.024970096 0.21212779 0.34295037
-0.2173365 0.39895546 0.22572848 0.116120644 -0.010443377 -0.056543186 0.13793029 -0.050502643
0.11153107 -0.09216918 0.042030845 -0.06995174 0.1420395 -0.08779882 -0.047476694 -0.1534941
-0.15090774 -0.20997311 -0.097681746 -0.11045009 0.74984324 -0.0018778741 0.04002208 -0.14846016
-0.24176343 0.056876786 -0.16061145 -0.103172004 -0.03632164 -0.042079974 -0.120206036 0.07245964
-0.15357858 -0.20439565 -0.14774647 -0.07447541 0.17166702 -0.157769 0.05437147 0.11091963
-0.09946909 -0.16306977 -0.18561652 -0.06840424 0.16409402 0.007342807 0.093666546 -0.0018429309
00000000: 6e6a c1bd 436b f43d abde 243b 53f4 d73d
00000010: 5f7a 69bd 7fb3 0f3e 247d 343e b967 44be
00000020: 54ba 623d 8070 3a3b d571 553e b09c 42be
00000030: 77eb 013e 1689 16be dafc 86bc d225 433e
00000040: 7818 463c e6df 643e 2320 89be bc9f 543d
00000050: 0343 f1bd ae05 22be 695c 2e3e f37b 313e
00000060: a5fc ec3e 8dc3 3a3e ab2b 263e 0c9c 3fbe
00000070: e87b 26be 605e a6bd c392 5bbe c07b 62bc
00000080: 8e92 05be 643a acbd cdff 813c 2e71 c43d
00000090: 453d 80be 6159 ccbd 7b03 eebd 94e0 223c
000000a0: 5a2d c53d 8fae 8e3e 6825 0abe b27d 3bbe
000000b0: 2d07 0c3e 6c14 a5bd 5f47 33bd b012 ccbd
000000c0: b0c7 c43d 4038 153c a0ee 47be 7d50 12be
000000d0: 37de c13d bc1c 703e be2e 0cbe 45f6 393e
000000e0: 5314 303d f783 893e 4f74 1ebe e1d1 5ebe
000000f0: 123a 3f3e f785 203e cbad 4abe b5a5 a43d
00000100: 1538 73bd 933f 94bd 7eaf c03e 88da 8bbd
00000110: 10f5 25bc 26f9 183e cf65 dfbd fdde 14be
00000120: 5f8d 42be 7700 a23b c1e4 5dbd 3a52 10be
00000130: abd5 b13d 9c1e 6a3e 2242 ca3d 52a4 0bbd
00000140: bfd3 e4bd 8987 6b3e e4f2 ccbd d643 9cbd
00000150: cc07 e63d 63ac 96bd 343a 333e 2420 2e3e
00000160: 0951 273e 9e62 3fbe ea9a dfbc 4ae4 f03d
00000170: d5c9 9d3c 8040 b83b 0e86 e43d 64bb 0abe
00000180: 6aa3 13be 1fad 52be a512 ef3e ca63 c2be
00000190: 57ff 873d 0c0d 0c3d 02e6 843e 5fa5 06be
000001a0: 081b f03c 6436 fe3b a8ca 253e ae08 31be
000001b0: d8e6 b23d a14e 813e 2c55 523d 7706 f8bd
000001c0: e212 a83d 3d42 bfbb b4a6 4bbd 7cbb ad3b
000001d0: 74ab 2f3c 88c3 05be c69f 57be 2823 cebd
000001e0: e9c3 f63d d20d b7bd 8eb0 8c3e 585d 2b3e
000001f0: 82f7 b1bd 32a6 73bb 25cf d63b 85bb a63d
00000200: b700 483e 536a f5bd 80e2 463d 9b43 5b3e
00000210: 02a8 0cbd c097 8b3b b0c2 30be 50eb 3c3e
00000220: f844 0b3e 05b3 c9bd e4e5 39bd e32d 37be
00000230: 8a5f 86be bff1 d73e d5bd 07bb 7e3b dfbb
00000240: 985f dc3e d2cf a93d 94cc 38be 1b35 313b
00000250: b91f babd 88c5 52be 899d 5fbe 5991 133e
00000260: 4c63 12bd 2bb8 103e 68aa a63c b75d de3d
00000270: 4bc1 dd3d 2b6c 55be a224 443e 7a64 a0bd
00000280: 253c 0a3e b050 783d af5e 27be 52a7 133d
00000290: 6d18 df3c 83bb 363e dc89 013d 90c9 26be
000002a0: ef8a 93bd a80a 133d 6b6a 863d e9aa 5b3e
000002b0: d19f 24be 4c9e 8ebd 8815 7dbe 509f 4f3c
000002c0: 80da e6bd c4ab b43d 0b0c 983c bb2e 0abe
000002d0: 3c74 0ebe aefb 163e 5a58 82be d4ef 5cbe
000002e0: c826 7fbe a562 b43d 4168 8a3e 7e9c ccbd
000002f0: 67f6 65bc 0964 27be 7dbf 1e3e 5c81 0f3c
00000300: 7727 b53e e586 643d 9e21 a53d 0c90 4f3e
00000310: f03a 1dbe c20a e8bd b740 5e3e 53a1 30be
00000320: 9402 623d 051e 223e 5f09 56be 5ed0 923e
00000330: e3c6 0d3e 168e ccbc 0738 593e 3197 af3e
00000340: 768d 5ebe e443 cc3e 5e25 673e a9d0 ed3d
00000350: b31a 2bbc d499 67bd 993d 0d3e dcdb 4ebd
00000360: 676a e43d 32c3 bcbd 8928 2c3d dc42 8fbd
00000370: cd72 113e decf b3bd ec76 42bd 8f2d 1dbe
00000380: 8f87 1abe 3103 57be 5e0d c8bd a833 e2bd
00000390: baf5 3f3f 0023 f6ba 31ee 233d f105 18be
000003a0: d590 77be a2f7 683d 5477 24be d84b d3bd
000003b0: 00c6 14bd 0d5c 2cbd 952e f6bd b865 943d
000003c0: b443 1dbe 184d 51be da4a 17be 9086 98bd
000003d0: 7bc9 2f3e 328e 21be 9eb4 5e3d d529 e33d
000003e0: 73b6 cbbd c3fb 26be 4212 3ebe 8617 8cbd
000003f0: 4308 283e ee9b f03b 3fd4 bf3d 808e f1ba

cnn.cnn.0.bias f4 [32]
0.06132104 -0.030081728 0.14135788 0.039236084 0.034693155 0.11691982 0.01338661 0.16978213
0.031530146 -0.15055397 -0.0272954 0.07868968 0.11450902 0.075340234 -0.07231043 0.012723177
-0.105594225 -0.13098907 0.014716381 0.05811394 -0.053381298 -0.046043698 -0.1892267 0.043134306
0.16415855 0.034970116 -0.12714715 -0.20428199 0.09293748 -0.19520977 -0.09089746 0.16027716
00000000: c52b 7b3d f56d f6bc 1fc0 103e 04b6 203d
00000010: 691a 0e3d a973 ef3d 8353 5b3c 5edb 2d3e
00000020: c125 013d d22a 1abe 9a9a dfbc 0e28 a13d
00000030: b483 ea3d fb4b 9a3d 7e17 94bd df74 503c
00000040: c941 d8bd 0022 06be fa1c 713c e208 6e3d
00000050: 59a6 5abd 5198 3cbd a5c4 41be 99ad 303d
00000060: 2e19 283e d33c 0f3d dd32 02be 4c2f 51be
00000070: 0156 be3d 12e5 47be 7328 babd b21f 243e

conv1.weight f4 [64, 32, 3, 3]
0.022372039 -0.010877078 -0.0001294593 0.050162595 0.013598346 -0.07689213 -0.03602607 0.030332763
0.038371596 -0.026165964 -0.0063257706 0.041949764 0.0222973 -0.09318346 0.10948769 -0.047124594
0.0015296827 -0.03313339 -0.040416084 -0.045045856 0.013871192 0.07358527 -0.05288998 0.010885095
0.012943993 0.057337377 -0.032784615 -0.0076695425 0.009161456 -0.02289693 0.010956389 -0.05326192
0.045515236 -0.071706034 -0.076760285 -0.021048 0.043531522 -0.15975186 -0.011592447 -0.014431019
-0.033284955 0.09915585 0.053635653 -0.03679495 0.11175478 0.012827421 0.09905486 0.14372422
0.051836092 0.08962287 -0.11340839 0.03286508 -0.037544362 0.053732093 0.026752904 0.008288873
0.18707223 0.05524558 -0.031393822 0.093628615 0.07502958 0.047489047 0.14889072 0.04136564
0.049293775 -0.08882189 -0.1113161 -0.092017286 0.07437408 0.06788346 0.056667965 -0.024966802
-0.07427995 -0.02000972 0.050632965 0.0021883948 -0.03626494 0.06935272 0.12789656 -0.004968412
-0.023335462 0.055005334 0.024770567 0.12508458 -0.03855903 -0.14103028 0.06754726 0.04179146
-0.0670852 0.02880559 0.15387236 -0.053721417 0.077104405 0.055946983 -0.09293939 0.22646764
0.0070735575 -0.029717356 0.012534437 0.002591547 0.018456042 -0.045448765 0.03928274 -0.047490522
0.035967715 -0.06811905 0.076254055 -0.048968848 0.046113085 0.058871627 -0.045595184 0.042324662
0.03984042 0.0024353217 -0.12702024 0.06366768 0.019435797 -0.08484004 0.066335544 0.06286887
0.06926342 0.0809653 -0.053194705 0.032985467 -0.025018305 -0.012512119 0.046293017 0.049125787
-0.0782831 -0.04756225 0.0067736227 0.06882171 -0.02635625 -0.038456615 0.0010137614 -0.031716906
0.029253546 -0.095015384 -0.098178595 -0.033321463 0.07211263 -0.018686768 0.010895089 0.02137697
0.0359233 0.064840876 -0.03652353 0.039382562 -0.055305604 0.044924114 -0.0515789 0.03656869
0.00094432454 -0.041885734 -0.040638864 -0.029403018 0.03732871 -0.027352273 -0.014642533 0.042121124
0.02555279 -0.012887254 -0.13219991 -0.01214338 -0.10682278 -0.046484422 -0.08290663 0.009504142
-0.03991117 -0.024219053 -0.069280565 -0.03666532 -0.047287706 -0.039127592 0.015509293 -0.052006315
0.002657506 0.05648303 -0.0493603 -0.080584064 0.04259979 0.07050976 -0.12825152 0.02544533
-0.015819125 0.109062 -0.044458237 -0.028479245 0.008141556 -0.033262104 -0.03495475 0.1473292
-0.036838323 -0.2328857 0.0033039362 0.11213765 -0.13332397 0.046143103 0.03732272 -0.05452101
-0.009675469 -0.0405965 0.027156863 0.025820274 0.04199001 -0.0587591 -0.019774642 0.019536566
-0.029727604 -0.02943791 -0.044081558 0.006344629 -0.019177863 0.15331487 0.0905658 -0.012260828
0.09569099 0.045011546 -0.034572292 -0.056895234 0.019187713 0.06299791 0.03140982 0.0021174024
-0.010512226 -0.0015446186 0.011236158 -0.012726319 -0.003420552 -0.0355609 0.018999731 -0.081258856
-0.089206405 -0.086184256 -0.07773064 -0.0149807725 -0.14883482 -0.06707941 -0.06430148 -0.0019256884
0.09505365 0.047700003 -0.020341726 -0.013256203 0.0101960115 -0.039368473 0.05796397 -0.007250719
0.028568696 0.015373308 0.0007177107 0.04748415 -0.014409956 0.05971152 0.004952435 0.071465194
00000000: 9145 b73c c635 32bc 77bf 07b9 4b77 4d3d
00000010: 99cb 5e3c 9f79 9dbd 1390 13bd 6a7c f83c
00000020: 892b 1d3d 015a d6bc 6948 cfbb 84d3 2b3d
00000030: d4a8 b63c f8d6 bebd 153b e03d b805 41bd
00000040: a27f c83a e1b6 07bd 568b 25bd 0182 38bd
00000050: ff43 633c e0b3 963d 2aa3 58bd 6657 323c
00000060: 0b13 543c 99da 6a3d 2949 06bd c950 fbbb
00000070: ee19 163c 5892 bbbc 6d82 333c 2c29 5abd
00000080: 2f6e 3a3d 9dda 92bd 7f34 9dbd db6c acbc
00000090: 1c4e 323d fe95 23be 3fee 3dbc 1570 6cbc
000000a0: ce55 08bd 3912 cb3d 0fb1 5b3d 4db6 16bd
000000b0: b1df e43d 1a2a 523c 46dd ca3d 712c 133e
000000c0: 1552 543d 328c b73d a842 e8bd 899d 063d
000000d0: 1ec8 19bd 2f16 5c3d e828 db3c 0ece 073c
000000e0: dd8f 3f3e 3049 623d cf96 00bd 5cc0 bf3d
000000f0: 1ca9 993d e083 423d cf76 183e 046f 293d
00000100: 45e8 493d 40e8 b5bd b2f9 e3bd 8f73 bcbd
00000110: 7051 983d 7c06 8b3d ab1c 683d 2e87 ccbc
00000120: 1620 98bd 6deb a3bc 8364 4f3d 2c6b 0f3b
00000130: 8c8a 14bd cd08 8e3d 51f7 023e 10ce a2bb
00000140: 032a bfbc 464d 613d a5eb ca3c 2c16 003e
00000150: 13f0 1dbd 3e6a 10be 3856 8a3d 862d 2b3d
00000160: f763 89bd b3f9 eb3c b790 1d3e fd0a 5cbd
00000170: eae8 9d3d aa28 653d 0257 bebd 22e7 673e
00000180: 4dc9 e73b d071 f3bc 3d5d 4d3c f2d6 293b
00000190: 2031 973c 7c28 3abd f0e6 203d 6c85 42bd
000001a0: e252 133d 0082 8bbd 162b 9c3d 8f93 48bd
000001b0: 13e1 3c3d 6023 713d 04c2 3abd a05c 2d3d
000001c0: b52f 233d eb99 1f3b 9811 02be 3364 823d
000001d0: d237 9f3c 9dc0 adbd eeda 873d 65c1 803d
000001e0: fbd9 8d3d 23d1 a53d b1e2 59bd c51b 073d
000001f0: 30f3 ccbc a1ff 4cbc bf9d 3d3d 1f38 493d
00000200: e452 a0bd a2d0 42bd 44f5 dd3b 66f2 8c3d
00000210: 10e9 d7bc af84 1dbd 30e0 843a 96e9 01bd
00000220: 22a5 ef3c 6d97 c2bd dc11 c9bd 167c 08bd
00000230: c9af 933d fe14 99bc 5181 323c c11e af3c
00000240: 4f24 133d 4bcb 843d b299 15bd 9c4f 213d
00000250: 2188 62bd 5902 383d 6644 53bd 0dc9 153d
00000260: 8c8c 773a 6090 2bbd f074 26bd 99de f0bc
00000270: fde5 183d e011 e0bc 3ce7 6fbc 3387 2c3d
00000280: 1654 d13c 1025 53bc 6a5f 07be 07f5 46bc
00000290: e7c5 dabd 7366 3ebd f4ca a9bd 43b7 1b3c
000002a0: e579 23bd 0967 c6bc f8e2 8dbd 602e 16bd
000002b0: c1b0 41bd 4144 20bd b11a 7e3c 9304 55bd
000002c0: 8d29 2e3b c05a 673d 072e 4abd 4209 a5bd
000002d0: 1e7d 2e3d 6c67 903d 5e54 03be ba72 d03c
000002e0: 1c97 81bc e65b df3d d719 36bd 4e4d e9bc
000002f0: 2964 053c d83d 08bd b62c 0fbd 77dd 163e
00000300: c8e3 16bd 9779 6ebe da86 583b 6da8 e53d
00000310: 1486 08be 8d00 3d3d b5df 183d 6c51 5fbd
00000320: dc85 1ebc 8448 26bd 1278 de3c 0a85 d33c
00000330: b7fd 2b3d 62ad 70bd 6efe a1bc 260b a03c
00000340: 4e87 f3bc c627 f1bc dd8e 34bd 9be6 cf3b
00000350: e51a 9dbc 93fe 1c3e 907a b93d a4e1 48bc
00000360: a3f9 c33d 075e 383d ad9b 0dbd fa0a 69bd
00000370: 8d2f 9d3c 0c05 813d 95a7 003d 1ec4 0a3b
00000380: 793b 2cbc cd74 caba dd17 383c 0d82 50bc
00000390: 572b 60bb 4ea8 11bd 53a5 9b3c 0b6b a6bd
000003a0: d9b1 b6bd 5f81 b0bd 3e31 9fbd ea71 75bc
000003b0: 2868 18be ee60 89bd 7fb0 83bd 6167 fcba
000003c0: 7dab c23d 1461 433d b1a3 a6bc 8c30 59bc
000003d0: 2c0d 273c d640 21bd a16b 6d3d 7097 edbb
000003e0: e608 ea3c 54e0 7b3c c024 3c3a bd7e 423d
000003f0: bc17 6cbc 1194 743d 0948 a23b 585c 923d

bn1.weight f4 [64]
1.0848913 1.1340755 0.94364876 1.1486266 0.9579649 1.0978068 0.9663883 0.9407521
1.0361681 1.0090244 0.86902183 1.001042 0.95537245 1.1511648 1.0293033 0.9742782
1.100604 1.029025 1.1629959 0.8636758 0.98195124 1.048383 0.9065743 1.0905083
1.119801 1.041222 1.0259631 0.9650905 0.89939404 0.9893139 1.0461799 0.9214219
1.034961 0.85904574 1.0502039 1.0300986 0.9927987 0.9919 1.0566763 1.0463598
0.99953 1.0031606 0.9496569 0.9256557 1.1459854 1.1023809 0.91304266 1.0672154
0.8692564 1.0467398 1.0452272 0.959579 1.0598001 1.064196 1.0701691 0.9905419
0.97433585 1.1629125 1.0604634 1.1037551 0.99766254 1.0049204 1.068237 0.9821812
00000000: b8dd 8a3f 6329 913f f792 713f 3206 933f
00000010: 303d 753f ef84 8c3f 3965 773f 21d5 703f
00000020: 28a1 843f b627 813f 3778 5e3f 2522 803f
00000030: 4a93 743f 5e59 933f 36c0 833f 4c6a 793f
00000040: 98e0 8c3f 17b7 833f 0ddd 943f db19 5d3f
00000050: 2861 7b3f 6a31 863f 4115 683f c795 8b3f
00000060: a455 8f3f c346 853f c252 833f 2c10 773f
00000070: b03e 663f ad43 7d3f 39e9 853f 4ee2 6b3f
00000080: 9a79 843f 6cea 5b3f 156d 863f 45da 833f
00000090: 0e28 7e3f 29ed 7d3f 2b41 873f 1eef 853f
000000a0: 33e1 7f3f 9167 803f b71c 733f c6f7 6c3f
000000b0: a6af 923f d11a 8d3f 2abd 693f 849a 883f
000000c0: 9687 5e3f 92fb 853f 01ca 853f f8a6 753f
000000d0: 88a7 873f 9337 883f 4dfb 883f 2794 7d3f
000000e0: 136e 793f 51da 943f 44bd 873f d947 8d3f
000000f0: d066 7f3f 3ba1 803f fdbb 883f 3a70 7b3f

bn1.bias f4 [64]
-0.04206221 -0.060925942 -0.0075012995 -0.07811704 -0.08209487 -0.10806958 -0.09900989 -0.10876531
-0.058851957 -0.06931451 -0.21523182 -0.025112774 -0.10577677 -0.1700043 -0.037910085 -0.06704832
0.032114495 -0.10494881 -0.00014062754 -0.17118748 -0.09070011 -0.15356816 -0.1633977 -0.08998263
0.004110802 0.027833601 -0.14690763 -0.13396868 -0.049892265 -0.14121304 -0.26201752 -0.14502805
0.0046251593 -0.216621 -0.07648506 -0.17127359 0.050167933 -0.1268051 -0.18172333 -0.074489616
-0.028556474 -0.18555836 -0.14734721 -0.07826433 -0.03921228 0.014878999 -0.033425443 0.06368602
-0.14805815 -0.01740622 -0.09477676 -0.17526495 -0.12928377 -0.19372866 -0.019299475 -0.068875335
0.050494958 -0.0749437 0.0014234311 -0.051350657 -0.11633518 -0.06913096 -0.06245575 -0.14429514
00000000: 6d49 2cbd 7b8d 79bd 76cd f5bb d4fb 9fbd
00000010: 5b21 a8bd 9553 ddbd b2c5 cabd 59c0 debd
00000020: c00e 71bd c4f4 8dbd bb65 5cbe 4eb9 cdbc
00000030: 7ea1 d8bd 9b15 2ebe 9b47 1bbd a150 89bd
00000040: 7d8a 033d 67ef d6bd 6b75 13b9 c54b 2fbe
00000050: fbc0 b9bd f940 1dbe ba51 27be d048 b8bd
00000060: e8b3 863b 4b03 e43c f46e 16be 162f 09be
00000070: d55b 4cbd 279a 10be 2927 86be 3c82 14be
00000080: a68e 973b e5d1 5dbe 33a4 9cbd 5862 2fbe
00000090: e47c 4d3d 32d9 01be ae15 3abe 038e 98bd
000000a0: 44ef e9bc 0303 3ebe 30e2 16be 0d49 a0bd
000000b0: 0e9d 20bd 0cc7 733c 1ee9 08bd d16d 823d
000000c0: 8e9c 17be 7d97 8ebc 511a c2bd a878 33be
000000d0: f762 04be ce60 46be ef19 9ebc 830e 8dbd
000000e0: cdd3 4e3d 157c 99bd 6c92 ba3a 1155 52bd
000000f0: 2441 eebd 8894 8dbd 9ad1 7fbd 1bc2 13be

bn1.running_mean f4 [64]
0.017002339 0.041969646 0.09841707 -0.013789091 -0.039494775 -0.18621668 -0.028088143 -0.10344744
0.04174818 -0.113607146 -0.030806014 -0.014572815 -0.11695899 -0.047439944 -0.04927914 -0.08540319
0.09473252 -0.08688316 -0.074619964 0.18208359 -0.06219231 -0.102575906 -0.10358059 -0.0096652815
-0.04108956 -0.006715584 -0.19518195 -0.041923214 -0.071727894 -0.08671394 -0.16555303 -0.12110662
0.07469963 -0.18986534 -0.0024273628 -0.0590257 0.2113047 -0.008801601 -0.17115085 -0.17130831
0.054204326 -0.22340088 -0.107486345 -0.13787156 -0.20417784 0.0005622145 -0.094740644 -0.031497475
-0.11478848 -0.21557541 0.005440184 -0.008138559 -0.060677726 -0.11019315 -0.006236466 -0.02761475
0.18467015 -0.027157616 -0.09853134 -0.094435416 -0.20243667 -0.14148778 -0.03250787 -0.07199492
00000000: 7d48 8b3c 5de8 2b3d e48e c93d a4eb 61bc
00000010: 46c5 21bd 96af 3ebe 1b19 e6bc 40dc d3bd
00000020: 2400 2b3d ddaa e8bd e55c fcbc d1c2 6ebc
00000030: 3288 efbd 6350 42bd ecd8 49bd dee7 aebd
00000040: 2003 c23d ccef b1bd 5ad2 98bd 1f74 3a3e
00000050: 5dbd 7ebd 5113 d2bd 0f22 d4bd 215b 1ebc
00000060: 874d 28bd 670e dcbb c7dd 47be adb7 2bbd
00000070: 13e6 92bd 1497 b1bd bc86 29be bf06 f8bd
00000080: 1ffc 983d 0f6c 42be 6414 1fbb efc4 71bd
00000090: 4260 583e 9734 10bc 2b42 2fbe 726b 2fbe
000000a0: 5b05 5e3d 33c3 64be cd21 dcbd 342e 0dbe
000000b0: ff13 51be 9461 133a 6207 c2bd 7f03 01bd
000000c0: 3916 ebbd cdbf 5cbe 9243 b23b 9757 05bc
000000d0: 3589 78bd f2ac e1bd 455b ccbb 5438 e2bc
000000e0: 2c1a 3d3e a679 debc cdca c9bd 5b67 c1bd
000000f0: 8f4b 4fbe 2ce2 10be f926 05bd 1372 93bd

bn1.running_var f4 [64]
0.0037649127 0.0051897173 0.0043225894 0.0046895016 0.0064156456 0.003564378 0.0035949585 0.0036364794
0.004983609 0.005395657 0.0033598978 0.0030414304 0.004212619 0.0064509213 0.003511701 0.0032685474
0.006773405 0.0030023607 0.003513471 0.006220767 0.0038197625 0.0050708973 0.005888038 0.0043506077
0.00498539 0.0032533063 0.0060253185 0.005428215 0.0036887168 0.005427814 0.0043556415 0.0027864268
0.0052501913 0.0049200905 0.0035613228 0.0037513515 0.0064237765 0.0037112192 0.0037800777 0.0051826774
0.0030916792 0.005387586 0.0036462382 0.0065588932 0.008122743 0.005526375 0.0045543453 0.0043881014
0.0029706869 0.02150857 0.005392303 0.0036943282 0.0030745517 0.004316404 0.004434907 0.0049252305
0.004383109 0.0059838085 0.004131311 0.0064059696 0.0042537334 0.0041544796 0.005650774 0.0031256357
00000000: c1bc 763b 810e aa3b 82a4 8d3b 64aa 993b
00000010: 563a d23b 5798 693b 6599 6b3b 0052 6e3b
00000020: 8b4d a33b 0dce b03b bb31 5c3b bc52 473b
00000030: 020a 8a3b 4062 d33b 9124 663b 2035 563b
00000040: 70f3 dd3b 41c3 443b 4342 663b 93d7 cb3b
00000050: fb54 7a3b c529 a63b 71f0 c03b 8b8f 8e3b
00000060: 7c5c a33b 6c35 553b 0970 c53b 2bdf b13b
00000070: 66be 713b cedb b13b c5b9 8e3b 7c9c 363b
00000080: cc09 ac3b b638 a13b 1565 693b 3cd9 753b
00000090: 8b7e d23b ed37 733b 2ebb 773b 73d3 a93b
000000a0: c59d 4a3b 598a b03b baf5 6e3b fceb d63b
000000b0: 4115 053c 9816 b53b 9e3c 953b 10ca 8f3b
000000c0: dbaf 423b be32 b03c ebb1 b03b 8b1c 723b
000000d0: 6b7e 493b 9f70 8d3b b252 913b d463 a13b
000000e0: 2fa0 8f3b d313 c43b f35f 873b 2be9 d13b
000000f0: e762 8b3b 4d22 883b 212a b93b 77d7 4c3b

conv2.weight f4 [128, 64, 3, 3]
-0.07998351 -0.01841241 -0.14639817 0.0648368 -0.08489271 -0.08094965 0.008365598 -0.06606833
-0.078408204 0.11444556 0.08693794 0.045095343 -0.017471895 -0.05008587 -0.020377964 -0.0017707776
-0.0030390865 -0.12306607 0.02371059 0.0013464973 -0.01315502 -0.027326899 0.09224241 -0.106955364
0.0119769545 -0.012872064 0.047388516 0.034033123 0.014378902 0.050277904 0.10482335 0.022079913
-0.0071953763 -0.04777488 0.023865616 0.044774987 -0.049674124 0.033802934 0.0721263 -0.006408918
0.033579092 0.016302282 -0.03650591 -0.013392401 -0.07130209 -0.024138145 0.024945319 0.04715002
-0.011825652 0.036413252 -0.002045551 -0.05865102 -0.033060815 -0.044672895 -0.039772462 -0.045506597
-0.03061084 0.030801378 0.05174119 0.056601357 0.010050301 0.020627467 0.025200011 -0.04520958
0.05705461 -0.004874973 0.048720475 -0.0522346 0.10099009 -0.026372232 -0.0007807908 0.012916307
-0.0043069716 0.026967708 0.010488863 4.073612e-05 -0.00893423 0.064054325 -0.120844536 0.023092344
0.011917649 0.050835744 0.016415576 0.055334356 0.05423416 -0.036327146 0.009947063 -0.049980514
0.0055998764 0.026780408 -0.00238927 0.039701357 0.008573097 0.0073495805 0.048251394 -0.0013147161
-0.07327152 0.0023701864 -0.011593025 0.04356637 -0.045936488 0.010680761 -0.04204242 -0.008895746
-0.038252033 -0.03801199 -0.050644543 0.07742353 0.0025299871 -0.035528682 -0.07158706 0.013307916
-0.082144596 -0.10226119 -0.022816263 -0.016679825 -0.023924211 0.09289332 0.013048971 0.059196424
0.10936811 0.09862538 -0.046108697 -0.10564967 -0.14598043 -0.078883074 0.05743465 0.011245324
0.022962056 -0.03226895 0.053470537 -0.022710796 0.008657377 0.14424735 -0.022741616 0.027151685
-0.05265201 0.08720606 -0.010052533 -0.017559009 0.02856745 0.07099665 -0.010237311 0.011242547
-0.053143222 0.037231732 0.027108867 -0.034757648 -0.06462008 -0.026635943 -0.06071779 -0.053600393
0.06695223 -0.021008391 -0.008014239 0.043169662 0.04627915 0.0125721125 0.02946072 -0.019104622
-0.15021048 0.032394134 0.02547356 0.065344654 0.015225363 -0.012008516 -0.033904806 -0.04039027
-0.006069214 0.11339237 -0.020145928 -0.034640327 0.033445433 -0.017131323 0.05122405 0.009942485
-0.017864166 0.047942482 0.054230534 -0.0010620891 -0.0068737515 0.0017138565 0.008410988 0.016785568
0.09284904 -0.02359733 -0.02671778 0.043343097 0.037939113 0.028621698 -0.061761472 -0.11010381
0.110832214 0.019144112 -0.055118952 -0.03333454 -0.03566829 -0.056429595 -0.04414373 -0.011629792
-0.071859345 0.010136044 0.039982546 -0.07886071 -0.029906007 0.10310992 -0.03159004 -0.028937561
0.019906335 -0.069325104 0.045913447 0.075468406 0.005482905 -0.043487567 0.0369986 0.032307338
0.014738662 0.1003783 -0.014766744 0.04066495 0.027663454 0.104753606 0.07217307 0.027283674
-0.031757534 -0.050716497 -0.009969494 0.115872994 0.025173213 0.024952954 0.02317214 0.08596699
0.017236724 0.05580025 -0.025637284 -0.009601944 -0.047639605 0.08305701 -0.039064687 -0.016501268
-0.052044738 -0.0208016 0.011856594 -0.06593347 -0.010602062 0.01708526 -0.06345081 -0.043696996
-0.031367615 0.008407341 -0.036327895 -0.061057657 -0.04401518 0.0362153 -0.07355512 -0.015447053
00000000: 65ce a3bd 9fd5 96bc 67e9 15be 28c9 843d
00000010: 3bdc adbd eec8 a5bd dc0f 093c d54e 87bd
00000020: 7b94 a0bd 6f62 ea3d 850c b23d e5b5 383d
00000030: 3821 8fbc d726 4dbd b0ef a6bc 7019 e8ba
00000040: 692b 47bb 100a fcbd b63c c23c f47c b03a
00000050: 2788 57bc a9dc dfbc 97e9 bc3d 6a0b dbbd
00000060: fd3a 443c 59e5 52bc 761a 423d 5166 0b3d
00000070: 7c95 6b3c 34f0 4d3d a0ad d63d efe0 b43c
00000080: 31c7 ebbb 98af 43bd d381 c33c fa65 373d
00000090: 1877 4bbd f274 0a3d f4b6 933d e701 d2bb
000000a0: 3b8a 093d 5d8c 853c 3987 15bd cd6b 5bbc
000000b0: d506 92bd 5cbd c5bc 205a cc3c 6120 413d
000000c0: 61c0 41bc 1026 153d a70e 06bb 0d3c 70bd
000000d0: c76a 07bd edfa 36bd 73e8 22bd 2065 3abd
000000e0: 96c3 fabc 2c53 fc3c 92ee 533d d3d6 673d
000000f0: 05aa 243c effa a83c 4170 ce3c ae2d 39bd
00000100: 18b2 693d 3dbe 9fbb 1f8f 473d f3f3 55bd
00000110: e4d3 ce3d 940a d8bc fcad 4cba eb9e 533c
00000120: 7f21 8dbb 62eb dc3c 7bd9 2b3c 13dc 2a38
00000130: e060 12bc ea2e 833d 577d f7bd 282c bd3c
00000140: 3e42 433c 2439 503d f579 863c 47a6 623d
00000150: a324 5e3d c6cb 14bd 02f9 223c 5eb8 4cbd
00000160: 2b7f b73b 9662 db3c 4d95 1cbb e49d 223d
00000170: 2d76 0c3c c0d4 f03b 41a3 453d 8d52 acba
00000180: 610f 96bd 2155 1b3b acf0 3dbc a672 323d
00000190: e627 3cbd 5cfe 2e3c ac34 2cbd 77bf 11bc
000001a0: 2aae 1cbd 76b2 1bbd a770 4fbd 3a90 9e3d
000001b0: 24ce 253b 8686 11bd 3d9c 92bd 7209 5a3c
000001c0: 6d3b a8bd 516e d1bd 2ce9 babc 21a4 88bc
000001d0: b5fc c3bc da3e be3d 5acb 553c f377 723d
000001e0: 63fc df3d 1afc c93d 79dc 3cbd db5e d8bd
000001f0: e57b 15be 738d a1bd 9840 6b3d 4f3e 383c
00000200: ec1a bc3c 722c 04bd ec03 5b3d fe0b babc
00000210: acd7 0d3c 94b5 133e a04c babc 366d de3c
00000220: a2a9 57bd 1799 b23d 61b3 24bc e9d7 8fbc
00000230: 4906 ea3c b166 913d 65ba 27bc a932 383c
00000240: b5ac 59bd 4d80 183d 6a13 de3c 095e 0ebd
00000250: 8857 84bd 9f33 dabc 38b3 78bd 168c 5bbd
00000260: 401e 893d ca19 acbc 284e 03bc acd2 303d
00000270: 358f 3d3d 43fb 4d3c 9c57 f13c 4c81 9cbc
00000280: c7d0 19be b6af 043d edad d03c 6bd3 853d
00000290: cd73 793c 5ebf 44bc c4df 0abd 4570 25bd
000002a0: 42e0 c6bb 423a e83d 1309 a5bc 04e3 0dbd
000002b0: 14fe 083d fd56 8cbc 4fd0 513d cee5 223c
000002c0: df57 92bc 565f 443d d620 5e3d cc35 8bba
000002d0: 353d e1bb 7ba3 e03a 3ece 093c e381 893c
000002e0: a327 be3d 304f c1bc 3fdf dabc 8888 313d
000002f0: 0b66 1b3d 0d78 ea3c 99f9 7cbd 1b7e e1bd
00000300: 00fc e23d 1dd4 9c3c 69c4 61bd cc89 08bd
00000310: ea18 12bd b822 67bd 0ed0 34bd e28a 3ebc
00000320: fe2a 93bd a611 263c bdc4 233d b981 a1bd
00000330: 71fd f4bc 4b2b d33d 8f64 01bd 770e edbc
00000340: 9c12 a33c 52fa 8dbd bd0f 3c3d 2e8f 9a3d
00000350: f1a9 b33b 0520 32bd d88b 173d b354 043d
00000360: 6e7a 713c 2393 cd3d 37f0 71bc 4a90 263d
00000370: 789e e23c 0f89 d63d 79cf 933d 0382 df3c
00000380: 3014 02bd 1abc 4fbd 1757 23bc d24e ed3d
00000390: 0e38 ce3c 236a cc3c 80d3 bd3c 760f b03d
000003a0: 0834 8d3c ce8e 643d 4805 d2bc 7951 1dbc
000003b0: bf21 43bd cb19 aa3d 4b02 20bd ab2d 87bc
000003c0: dd2c 55bd 1e68 aabc 2942 423c 2108 87bd
000003d0: 45b4 2dbc 63f6 8b3c 80f2 81bd 9ffb 32bd
000003e0: 547b 00bd f2be 093c 8fcc 14bd 9817 7abd
000003f0: 4349 34bd 7f56 143d 11a4 96bd a315 7dbc

bn2.weight f4 [128]
0.9148052 1.1311866 1.1040859 1.0009085 1.049938 1.0857942 0.9513677 0.9183756
0.93907636 1.0485965 1.0167013 1.1581705 0.89031893 1.0583886 1.0459561 0.9502811
1.1496891 0.92191285 1.0967494 1.0456715 0.9819091 0.9429262 0.94707173 0.953193
1.0122102 1.0429132 1.079173 0.9298544 1.1061178 1.0676378 0.9949766 0.9016438
0.91680896 1.039597 0.92121184 0.89639455 0.8866046 1.0907379 0.91684616 1.0130606
0.99977463 1.0455201 0.9969782 1.135761 1.0781528 1.0350679 1.109216 0.9923574
1.0331275 0.955501 1.0969987 1.0014837 1.074922 1.0146852 1.026735 0.9027316
1.2303429 1.0597427 1.0893024 1.0180019 1.0139482 0.97543305 0.99766344 0.9389614
0.9177704 0.8930377 0.92621773 1.0755266 0.9251222 1.0174681 1.0845119 1.0937427
1.0073745 0.8964324 1.0709417 0.95494527 0.9763823 1.0476096 0.95208377 1.0444837
1.0193684 1.126196 1.1058713 1.0680577 0.9576559 1.0978372 0.92000294 0.94113636
1.2091725 0.9934594 1.0623329 1.0155237 0.91065454 1.0583409 1.0149578 1.0253799
1.0634279 1.0843495 1.08318 1.0957844 1.0838215 1.0358495 1.1386554 0.9354969
1.081046 1.0148023 0.94156945 0.887661 0.9900183 1.0574036 1.0359026 1.0205793
0.90757513 1.1446434 0.9165334 1.0620296 0.94850576 0.9975764 1.0657406 0.95218885
0.85325336 1.1321694 0.9849433 0.95846695 1.090865 1.0165988 0.9303997 1.0062829
00000000: ac30 6a3f b9ca 903f b052 8d3f c51d 803f
00000010: 5e64 863f 4efb 8a3f d58c 733f aa1a 6b3f
00000020: 4f67 703f 6938 863f 4523 823f ee3e 943f
00000030: f1eb 633f 4779 873f e4e1 853f 9f45 733f
00000040: 0329 933f 7b02 6c3f 4962 8c3f 90d8 853f
00000050: 655e 7b3f 9d63 713f 4b73 723f 7504 743f
00000060: 1b90 813f 2e7e 853f 5722 8a3f f00a 6e3f
00000070: 4595 8d3f 5ba8 883f c9b6 7e3f 21d2 663f
00000080: feb3 6a3f 8411 853f 8ad4 6b3f 1d7a 653f
00000090: 85f8 623f 4d9d 8b3f 6eb6 6a3f f8ab 813f
000000a0: 3bf1 7f3f 9ad3 853f f739 7f3f 9e60 913f
000000b0: e900 8a3f 1b7d 843f cafa 8d3f 220b 7e3f
000000c0: 863d 843f b79b 743f 746a 8c3f 9e30 803f
000000d0: 0b97 893f 34e1 813f 0d6c 833f 6b19 673f
000000e0: e07b 9d3f a6a5 873f 436e 8b3f e34d 823f
000000f0: 0ec9 813f fbb5 793f df66 7f3f c65f 703f
00000100: 00f3 6a3f 1e9e 643f 9b1c 6d3f dbaa 893f
00000110: cfd4 6c3f 653c 823f 49d1 8a3f c3ff 8b3f
00000120: a6f1 803f 987c 653f 9e14 893f 4b77 743f
00000130: 31f4 793f 1218 863f c3bb 733f a4b1 853f
00000140: aa7a 823f 3127 903f 318d 8d3f 1db6 883f
00000150: f028 753f ee85 8c3f 5085 6b3f 50ee 703f
00000160: 2ac6 9a3f 5b53 7e3f 86fa 873f aefc 813f
00000170: a820 693f b777 873f 23ea 813f a63f 833f
00000180: 681e 883f f7cb 8a3f a4a5 8a3f aa42 8c3f
00000190: aaba 8a3f b796 843f 76bf 913f ba7c 6f3f
000001a0: b75f 8a3f 0be5 813f b20a 713f c03d 633f
000001b0: d771 7d3f 0059 873f 7598 843f 58a2 823f
000001c0: d856 683f ad83 923f efa1 6a3f 96f0 873f
000001d0: 46d1 723f 2b61 7f3f 306a 883f a6c2 733f
000001e0: d06e 5a3f edea 903f 3e25 7c3f 175e 753f
000001f0: 77a1 8b3f e91f 823f ad2e 6e3f e1cd 803f

bn2.bias f4 [128]
-0.14670381 -0.145927 -0.1254064 -0.095227346 -0.10341515 -0.13648231 -0.12514286 -0.205345
-0.12969394 -0.19694588 -0.16331533 -0.15606852 -0.16692899 -0.19318804 -0.16057347 -0.19808026
-0.2200941 -0.18203472 -0.18586746 -0.16075829 -0.1703674 -0.14984195 -0.15863997 -0.14911202
-0.20505494 -0.1907632 -0.109116144 -0.09974156 -0.06764666 -0.12948509 -0.10467537 -0.2126402
-0.05413119 -0.1621271 -0.123732276 -0.14791515 -0.059885144 -0.13353059 -0.11668476 -0.132094
-0.14726725 -0.09914271 -0.18850118 -0.21677522 -0.07530605 -0.1288601 -0.1461469 -0.12838234
-0.25801244 -0.1833385 -0.1853349 -0.12533095 -0.12431584 -0.10277199 -0.17501417 -0.1128873
-0.22575636 -0.12874234 -0.10650533 -0.15462095 -0.10362632 -0.19805048 -0.17309149 -0.07971084
-0.12651406 -0.16556855 -0.2037746 -0.156903 -0.0687372 -0.19410585 -0.09490826 -0.082634695
-0.14975876 -0.1716013 -0.15073095 -0.16419016 -0.061658636 -0.15362877 -0.25714692 -0.06910086
-0.10670242 -0.17587505 -0.19161992 -0.16535385 -0.11054 -0.1678697 -0.21647173 -0.06346846
-0.2141786 -0.07217322 -0.22311197 -0.22068197 -0.19451304 -0.098106585 -0.14320436 -0.15137342
-0.26373136 -0.13013673 -0.11384055 -0.17898685 -0.13022594 -0.05311385 -0.20316678 -0.16211417
-0.15619771 -0.14114471 -0.16950104 -0.14941233 -0.17871739 -0.27060854 -0.12538268 -0.16217165
-0.19742945 -0.14256679 -0.09448114 -0.16921408 -0.23968942 -0.10207831 -0.2085737 -0.05660992
-0.19920032 -0.22544156 -0.076534316 -0.14771304 -0.20008306 -0.1543717 -0.1385203 -0.16214801
00000000: 8639 16be e36d 15be 896a 00be 8e06 c3bd
00000010: 52cb d3bd 05c2 0bbe 7325 00be f645 52be
00000020: 7dce 04be 2eac 49be 223c 27be 6dd0 1fbe
00000030: 6fef 2abe 16d3 45be 5f6d 24be 8dd5 4abe
00000040: 5960 61be 4f67 3abe 0a54 3ebe d29d 24be
00000050: cb74 2ebe 2b70 19be 8472 22be d2b0 18be
00000060: ecf9 51be 6e57 43be 4978 dfbd 4e45 ccbd
00000070: 558a 8abd bd97 04be 0a60 d6bd 5abe 59be
00000080: abb8 5dbd a604 26be 5967 fdbd 1277 17be
00000090: 204a 75bd 3ebc 08be 6bf8 eebd a643 07be
000000a0: 3acd 16be 550b cbbd 7406 41be 53fa 5dbe
000000b0: 0f3a 9abd e7f3 03be 88a7 15be a976 03be
000000c0: 351a 84be 16bd 3bbe 6fc8 3dbe c256 00be
000000d0: 4e99 febd 1f7a d2bd ea36 33be 7531 e7bd
000000e0: ad2c 67be 08d5 03be 771f dabd f454 1ebe
000000f0: 093a d4bd bfcd 4abe e53e 31be 703f a3bd
00000100: e78c 01be cd8a 29be 4aaa 50be 2eab 20be
00000110: 17c6 8cbd afc3 46be 435f c2bd 613c a9bd
00000120: 5c5a 19be 40b8 2fbe 3759 1abe 7721 28be
00000130: c48d 7cbd dc50 1dbe c3a8 83be c084 8dbd
00000140: cc86 dabd 9718 34be 0338 44be 8552 29be
00000150: cc62 e2bd 09e6 2bbe c4aa 5dbe c1fb 81bd
00000160: a351 5bbe 8ecf 93bd 7777 64be 74fa 61be
00000170: 6d2e 47be 1bec c8bd 2aa4 12be a201 1bbe
00000180: cc07 87be 9042 05be 3c25 e9bd 5448 37be
00000190: f359 05be e98d 59bd f40a 50be 4201 26be
000001a0: 4bf2 1fbe 3d88 10be ae91 2dbe 8cff 18be
000001b0: b101 37be 348d 8abe 5164 00be 5310 26be
000001c0: f22a 4abe 07fd 11be 547f c1bd 7546 2dbe
000001d0: 2571 75be 6f0e d1bd 5894 55be cedf 67bd
000001e0: 2bfb 4bbe 27da 66be 06be 9cbd 1642 17be
000001f0: 93e2 4cbe 9d13 1ebe 44d8 0dbe 210a 26be

bn2.running_mean f4 [128]
0.046647016 -0.6199048 -0.27869987 -0.1736444 -0.543599 -0.45977253 -0.7115131 -0.49601844
0.6343508 -0.92438906 -1.1115397 -0.21619283 -0.40641412 -0.6665758 -0.62365943 -0.44338346
-0.62329674 -0.35528812 -0.5415377 -0.43178558 -0.43268898 0.23621124 0.78765917 -0.5724429
-0.7987837 -0.8984977 -1.3290346 -0.37983313 -0.5949688 -2.4868238 -0.7218419 0.17891599
-0.07523338 -1.040399 -0.0020567623 -0.040594243 0.09659904 -0.8846514 0.27757853 -0.5639608
-0.80092204 -0.8077075 -0.8042237 -0.034386907 -0.47448877 -0.6453928 -0.8801686 0.039532356
-0.10512491 -0.23880926 -0.45225713 0.24245445 -0.6616268 -0.7206951 -1.294617 0.10827171
-1.2911896 -1.3994343 -0.52611756 -0.15733588 0.6049103 -0.46468684 -0.1743046 0.5256487
0.041635536 -0.109272 0.04280219 -0.11559335 0.22378895 -0.09065328 -0.63498527 -1.0792353
-0.35052016 0.73679805 -0.84795254 -0.60774416 -0.4429515 -0.748225 -0.21146628 -0.024803082
-0.67271996 -0.48808983 -0.41676545 -0.45521262 -0.36830756 -0.40122965 0.047504723 -0.27666584
-0.76748496 -0.034764595 -0.076653354 -0.39258167 0.0541304 -0.790589 -0.62445545 -1.652142
0.14085488 -1.0884361 -0.022328129 -1.2715538 -0.88936853 -1.0962595 -0.7548618 -0.31522942
-0.67235243 -0.44846782 -0.035228252 0.43327606 0.07123581 -0.0807391 -0.25873202 -0.36723536
0.20330374 -0.54347765 0.19137685 -1.7321042 0.11205429 -0.7601543 -0.2475269 0.53396946
0.16848777 -0.65759873 -0.3926576 -0.5681323 -0.4017374 -0.7531399 0.229947 -0.66510504
00000000: f110 3f3d 15b2 1ebf c0b1 8ebe d6cf 31be
00000010: 4e29 0bbf 4e67 ebbe b925 36bf 21f6 fdbe
00000020: d064 223f c3a4 6cbf ef46 8ebf a761 5dbe
00000030: 8315 d0be b6a4 2abf 25a8 1fbf 2803 e3be
00000040: 6090 1fbf 53e8 b5be 37a2 0abf 0013 ddbe
00000050: 6989 ddbe 5ce1 713e 08a4 493f 9e8b 12bf
00000060: 177d 4cbf f203 66bf ce1d aabf 7d79 c2be
00000070: e04f 18bf 1f28 1fc0 a1ca 38bf c135 373e
00000080: f513 9abd cb2b 85bf bfca 06bb 2646 26bd
00000090: b8d5 c53d 8478 62bf c61e 8e3e bc5f 10bf
000000a0: 3a09 4dbf ebc5 4ebf 9be1 4dbf 49d9 0cbd
000000b0: 31f0 f2be 7638 25bf bb52 61bf aeec 213d
000000c0: bb4b d7bd 6a8a 74be 3f8e e7be fb45 783e
000000d0: 6060 29bf 797f 38bf 03b6 a5bf 8fbd dd3d
000000e0: b345 a5bf aa20 b3bf a4af 06bf a81c 21be
000000f0: 67db 1a3f 6feb edbe e87c 32be ea90 063f
00000100: 068a 2a3d 00ca dfbd 5951 2f3d 35bc ecbd
00000110: ee28 653e 6da8 b9bd 658e 22bf 6224 8abf
00000120: 6177 b3be cc9e 3c3f 6b13 59bf 1f95 1bbf
00000130: 8aca e2be ac8b 3fbf 9e8a 58be d52f cbbc
00000140: 6037 2cbf e9e6 f9be 4862 d5be a111 e9be
00000150: cf92 bcbe f96d cdbe 5094 423d 25a7 8dbe
00000160: e579 44bf 5265 0ebd 6ffc 9cbd 7700 c9be
00000170: d7b7 5d3d 0a64 4abf 50dc 1fbf 6479 d3bf
00000180: 433c 103e e051 8bbf 7be9 b6bc 46c2 a2bf
00000190: a8ad 63bf 3b52 8cbf 9f3e 41bf c065 a1be
000001a0: 4a1f 2cbf 939d e5be 804b 10bd 5cd6 dd3e
000001b0: 15e4 913d 8b5a a5bd 8678 84be 4606 bcbe
000001c0: db2e 503e 5a21 0bbf 4bf8 433e 97b5 ddbf
000001d0: b87c e53d 7999 42bf b177 7dbe 39b2 083f
000001e0: 0f88 2c3e 6458 28bf 6b0a c9be 1e71 11bf
000001f0: 86b0 cdbe c7cd 40bf 3a77 6b3e 5344 2abf

bn2.running_var f4 [128]
0.72334105 0.6368142 0.9328422 0.82340974 0.47915 0.9314395 0.55375296 0.5171419
1.0102614 0.5796774 0.82738775 0.99380374 0.5527403 0.773671 0.6039892 0.95795965
0.6501515 0.9524088 0.8508219 0.51062834 0.5151465 0.74713814 0.6528315 0.79635996
0.6002232 0.6336689 0.83524936 0.4882254 1.0378246 1.5304788 0.75444824 0.4243138
0.7754433 0.7051559 0.5649198 0.5379981 0.6699321 0.66167504 0.67027354 0.73428184
0.526831 0.69586504 0.45273015 0.7324449 0.73120856 0.57457197 0.76594174 0.6319223
0.77951026 0.61698544 0.7283988 0.8859633 0.70711285 0.9455757 0.7189981 0.4169302
1.4771154 1.0815588 0.7915635 0.5614473 0.9624118 0.45438662 0.62686425 1.6438521
0.5022627 0.783705 0.41006547 0.5047995 0.5340757 0.44524977 0.6170075 1.1754996
0.65498906 0.5800979 0.8451438 0.5245509 0.6461728 0.48394245 0.59125894 0.58128506
0.64429206 0.6769257 0.6463334 0.66667426 0.6381084 0.6470639 0.7581142 0.6035276
1.161772 0.7178498 0.64390415 0.7180027 0.61304575 0.6918212 0.6550669 1.0248371
0.619198 0.8103153 0.6391915 1.0638403 0.80364126 0.53385854 0.80083424 0.68342346
0.54248357 0.6676979 0.6192873 0.50497866 0.475023 0.84686977 0.662901 0.56955266
0.47419295 0.8435634 0.4809165 0.9828862 0.74144775 0.62646 0.7451079 0.51749974
0.60702455 0.78431654 0.73491776 0.6756874 0.6311156 0.8842963 0.6765116 0.57375693
00000000: e12c 393f 4106 233f bfce 6e3f fbca 523f
00000010: 2653 f53e d272 6e3f c1c2 0d3f 6963 043f
00000020: 3f50 813f bd65 143f afcf 533f ec69 7e3f
00000030: 6380 0d3f 4d0f 463f 099f 1a3f d83c 753f
00000040: 5470 263f 10d1 733f 77cf 593f 8ab8 023f
00000050: a4e0 033f 7244 3f3f f71f 273f 3fde 4b3f
00000060: 3aa8 193f 2038 223f e7d2 553f aef8 f93e
00000070: 70d7 843f bbe6 c33f 8523 413f a93f d93e
00000080: 7483 463f 1985 343f 969e 103f 3eba 093f
00000090: ac80 2b3f 8963 293f 0c97 2b3f e5f9 3b3f
000000a0: 65de 063f 3624 323f 3fcc e73e 8281 3b3f
000000b0: 7c30 3b3f 2617 133f c214 443f a9c5 213f
000000c0: fc8d 473f c2f2 1d3f 5878 3a3f 7ece 623f
000000d0: 5905 353f 4011 723f 4210 383f e077 d53e
000000e0: 1e12 bd3f 8570 8a3f e8a3 4a3f 03bb 0f3f
000000f0: 9f60 763f 5da5 e83e 2d7a 203f bf69 d23f
00000100: 4a94 003f e4a0 483f 1af4 d13e 8a3a 013f
00000110: 2fb9 083f c7f7 e33e 34f4 1d3f c576 963f
00000120: 5dad 273f 4c81 143f 585b 583f f848 063f
00000130: 956b 253f 4ec7 f73e bf5c 173f 19cf 143f
00000140: 53f0 243f 014b 2d3f 1b76 253f 2aab 2a3f
00000150: 125b 233f fba5 253f c613 423f c980 1a3f
00000160: f2b4 943f 01c5 373f e7d6 243f 06cf 373f
00000170: 91f0 1c3f 321b 313f 77b2 273f dd2d 833f
00000180: c383 1e3f d370 4f3f 0ea2 233f eb2b 883f
00000190: 6fbb 4d3f f4aa 083f 7903 4d3f d7f4 2e3f
000001a0: 34e0 0a3f 40ee 2a3f 9d89 1e3f 4846 013f
000001b0: 3736 f33e 75cc 583f e1b3 293f 34ce 113f
000001c0: 6bc9 f23e c5f3 573f b03a f63e 6e9e 7b3f
000001d0: 85cf 3d3f af5f 203f 64bf 3e3f dd7a 043f
000001e0: f665 1b3f f8c8 483f 9223 3c3f d9f9 2c3f
000001f0: cb90 213f 3e61 623f dd2f 2d3f bce1 123f

conv3.weight f4 [128, 128, 3, 3]
0.03695439 0.00019939861 -0.030548286 -0.00016697402 -0.022216579 0.020961909 -0.017536798 0.0013684548
-0.0077481074 0.03417261 0.040588174 -0.03944352 0.033531323 0.08428644 0.07064267 0.04139288
0.019155988 0.036101975 -0.036879476 0.01922211 -0.04060279 0.0026443861 -0.07383861 -0.010125834
0.17934583 0.04453561 0.0020023903 0.039083112 0.022793114 0.0005453879 -0.036978286 0.0035482226
0.03266541 -0.03131481 -0.009343348 0.05037367 -0.01655464 -0.039458346 -0.030732136 -0.025646139
-0.01228304 -0.004735561 -0.03450066 -0.002977214 0.024317749 0.18271416 -0.015766831 -0.02613475
0.06977613 -0.06321738 -0.030621776 -0.027994653 0.045017127 0.022459492 -0.0027653708 0.0146584995
0.014943554 0.017895058 0.02084552 0.013507562 -0.015546234 0.035213128 0.0032614872 -0.02040288
-0.0051605375 0.0008984069 -0.0059281555 0.00794054 -0.0017722367 0.0014048923 0.012110597 -0.031021377
0.020094432 0.0145952925 -0.025941515 -0.006603922 -0.02191807 0.011096304 0.061964896 0.014764349
-0.014060403 0.031955406 0.0056345523 0.01138174 -0.018392831 -0.03123905 0.04457199 -0.020649325
0.046117023 0.04011813 0.009778567 -0.0046806703 0.033803802 -0.022516718 -0.049743537 0.032266952
0.041439924 0.03877447 0.042210344 -0.03151695 0.018814974 0.012520806 0.07323239 0.020592323
0.026438616 0.08864991 0.068821885 0.06283722 -0.0723123 0.009062328 -0.010599867 -0.020566814
0.019127209 0.009054038 -0.01413387 -0.004910969 0.070265226 0.016954836 -0.02233896 0.0151118385
-0.024181819 0.015143551 -0.029195944 0.040645994 0.047634937 -0.02243783 -0.022961369 0.00025042892
0.025136912 -0.032342013 0.008250984 -0.00073965424 -0.03655445 -0.01670562 0.026604256 -0.04108193
0.05199399 -0.04936702 0.005832152 -0.027723288 0.027145775 -0.017764984 0.0006148558 -0.072631314
0.00081030617 -0.015918301 -0.02110486 -0.01913011 -0.017014371 0.015954403 -0.013839249 -0.01104831
0.014560629 0.01509034 0.014938196 -0.017141903 0.0247586 -0.011690153 0.0059176153 0.021298014
-0.014903425 0.0078385975 0.058671765 -0.035856165 -0.015777437 -0.02042968 -0.039615232 0.03199476
0.014246985 0.025653213 0.028900629 -0.021517491 0.003710389 -0.0013915608 -0.0032973224 -0.016030803
0.022336276 -0.020068437 -0.02807576 0.014481195 -0.037111033 -0.015051693 0.030883448 -0.012543882
-0.0027842904 0.0043043005 -0.0054666684 -0.009330383 0.04395321 -0.0053459066 0.010009283 -0.07958381
0.005320992 -0.036912885 0.009037959 0.0018319272 -0.027422074 -0.008635709 0.044670463 0.012594967
0.011379771 -0.01148236 0.0062839296 -0.00626582 0.045638 0.0066960226 0.051895503 -0.0036639452
0.00038770874 -0.03563593 -0.002198317 0.00662718 0.024061361 -0.03866903 0.012246629 0.017997855
-0.027324373 -0.08423694 -0.016215995 0.0014568322 -0.04905714 0.0711855 0.01623804 -0.022759058
-0.043490913 0.017704733 -0.05858276 -0.029182252 -0.04297417 -0.022644795 0.01889907 -0.049481373
-0.007994312 0.0041051544 0.040313344 0.014518025 0.051891588 -0.008713071 0.0045664646 0.11113387
0.016376395 0.03596408 -0.046992604 -0.045775775 0.0044577224 0.010269297 0.01892109 -0.022864766
0.012210524 -0.0029906426 -0.0023670485 -0.033989992 0.022456156 -0.028875172 0.057769306 -0.055543657
00000000: 7d5d 173d a815 5139 6640 fabc bf15 2fb9
00000010: 8bff b5bc 4fb8 ab3c 55a9 8fbc b95d b33a
00000020: d6e3 fdbb 94f8 0b3d c93f 263d 878f 21bd
00000030: 2458 093d 5e9e ac3d 1bad 903d 958b 293d
00000040: 05ed 9c3c aadf 133d ef0e 17bd b077 9d3c
00000050: 1c4f 26bd 704d 2d3b b238 97bd d3e6 25bc
00000060: 6fa6 373e f96a 363d 893a 033b 9d15 203d
00000070: a0b8 ba3c 5df8 0e3a 8b76 17bd 4c89 683b
00000080: 2acc 053d f543 00bd d814 19bc 9f54 4e3d
00000090: 999d 87bc 139f 21bd f6c1 fbbc da17 d2bc
000000a0: ce3e 49bc c42c 9bbb 9050 0dbd 5d1d 43bb
000000b0: 0436 c73c 6c19 3b3e 7129 81bc 8b18 d6bc
000000c0: cae6 8e3d 1d78 81bd 85da fabc 0b55 e5bc
000000d0: e163 383d f8fc b73c 393b 35bb 342a 703c
000000e0: cfd5 743c a898 923c 39c4 aa3c d24e 5d3c
000000f0: a2b5 7ebc a43b 103d adbe 553b f123 a7bc
00000100: ba19 a9bb 1183 6b3a f940 c2bb 0a19 023c
00000110: 654a e8ba 5d24 b83a 876b 463c 8b20 febc
00000120: 149d a43c 1821 6f3c 4d83 d4bc b765 d8bb
00000130: 868d b3bc 46cd 353c e7ce 7d3d 2be6 713c
00000140: 9b5d 66bc ace3 023d 0da2 b83b 7a7a 3a3c
00000150: 90ac 96bc 09e9 ffbc 1e91 363d c628 a9bc
00000160: 34e5 3c3d e952 243d 4836 203c 4f60 99bb
00000170: db75 0a3d fb74 b8bc e1bf 4bbd 5a2a 043d
00000180: e9bc 293d fbd1 1e3d c1e4 2c3d eb17 01bd
00000190: dc21 9a3c 1124 4d3c ddfa 953d 3bb1 a83c
000001a0: cc95 d83c 168e b53d 7df2 8c3d cdb0 803d
000001b0: 7918 94bd 297a 143c 11ab 2dbc bc7b a8bc
000001c0: aab0 9c3c 6357 143c bf91 67bc 32ec a0bb
000001d0: 37e7 8f3d dee4 8a3c 3200 b7bc a597 773c
000001e0: f318 c6bc a81c 783c 552c efbc 6a7c 263d
000001f0: da1c 433d 8acf b7bc 7b19 bcbc 004c 8339
00000200: edeb cd3c 0f79 04bd 232f 073c 5be5 41ba
00000210: 1eba 15bd 39da 88bc 2bf1 d93c 8745 28bd
00000220: a6f7 543d 1335 4abd a31b bf3b f31b e3bc
00000230: d160 de3c df87 91bc 462e 213a babf 94bd
00000240: ba6a 543a 1967 82bc 19e4 acbc c0b6 9cbc
00000250: b961 8bbc cfb2 823c 04be 62bc f903 35bc
00000260: b48f 6e3c 793d 773c 56bf 743c 2d6d 8cbc
00000270: 8cd2 ca3c 0e88 3fbc 8ee8 c13b 2c79 ae3c
00000280: 7f2d 74bc 766d 003c ce51 703d eadd 12bd
00000290: af3f 81bc 255c a7bc 9543 22bd f00c 033d
000002a0: 306c 693c b026 d23c 03c1 ec3c 7345 b0bc
000002b0: ff29 733b 0865 b6ba e417 58bb 0853 83bc
000002c0: 91fa b63c 9066 a4bc 23ff e5bc 8942 6d3c
000002d0: bd01 18bd 609b 76bc 49ff fc3c db84 4dbc
000002e0: a478 36bb 170b 8d3b bd21 b3bb 76de 18bc
000002f0: 4808 343d b72c afbb fafd 233c d6fc a2bd
00000300: b75b ae3b f731 17bd f313 143c 471d f03a
00000310: 42a4 e0bc ca7c 0dbc 60f8 363d 1f5b 4e3c
00000320: 3872 3a3c 8220 3cbc 6ce9 cd3b 8251 cdbb
00000330: e9ee 3a3d 4f6a db3b 6190 543d cd1e 70bb
00000340: 6345 cb39 fbf6 11bd a411 10bb d128 d93b
00000350: 551c c53c 6b63 1ebd 16a6 483c 3d70 933c
00000360: 5dd7 dfbc 6b84 acbd 68d7 84bc 2df3 be3a
00000370: 24f0 48bd b4c9 913d a305 853c 3471 babc
00000380: 8723 32bd 8409 913c 7af4 6fbd 9e0f efbc
00000390: af05 30bd 9481 b9bc 39d2 9a3c fbac 4abd
000003a0: 93fa 02bc 8884 863b 9b1f 253d 03dd 6d3c
000003b0: 468c 543d 45c1 0ebc 48a2 953b 289a e33d
000003c0: ca27 863c 124f 133d 517b 40bd 617f 3bbd
000003d0: 1612 923b 8e40 283c 6700 9b3c e44e bbbc
000003e0: a60e 483c a8fe 43bb 7c20 1bbb 1739 0bbd
000003f0: f9f5 b73c a08b ecbc 829f 6c3d bf81 63bd

bn3.weight f4 [128]
1.2498133 1.2326684 1.4825835 1.3341584 1.3679729 1.3181561 1.3550833 1.4349877
1.4246072 1.2910328 1.4027319 1.4454128 1.398001 1.3084806 1.2367892 1.2773257
1.3212157 1.2582643 1.3168145 1.3043971 1.2726328 1.4286488 1.4111646 1.3419536
1.3259872 1.3028657 1.3016741 1.3790475 1.3605618 1.2125907 1.362152 1.34625
1.4501388 1.478208 1.2532812 1.5524616 1.1896766 1.591477 1.3474594 1.2631458
1.454052 1.2448438 1.3109338 1.263679 1.2480198 1.2566074 1.4695038 1.411741
1.296724 1.2329131 1.3440186 1.2403603 1.3262539 1.267449 1.2479085 1.2524823
1.2742006 1.2961209 1.284866 1.4131135 1.2428137 1.3314966 1.2885859 1.4430853
1.34678 1.4294615 1.2578622 1.2460088 1.2604411 1.4047036 1.3493975 1.386382
1.2552189 1.3064023 1.4768358 1.321174 1.3439453 1.4214494 1.4728196 1.2880436
1.3133273 1.3758152 1.3656238 1.3522252 1.2984592 1.4899818 1.3532276 1.3164219
1.3042686 1.2668982 1.3651061 1.3767372 1.2753217 1.3740172 1.4845562 1.4254075
1.4937534 1.5178815 1.3312751 1.3003129 1.430301 1.5284475 1.3266538 1.4441572
1.3924706 1.3833386 1.2750677 1.4404109 1.3395867 1.4549756 1.4772512 1.3252397
1.2265773 1.4289879 1.4116492 1.3203479 1.3432542 1.3530746 1.2729826 1.2948383
1.3246498 1.3123357 1.2777243 1.430126 1.4253236 1.2840321 1.4904351 1.4590003
00000000: e2f9 9f3f 14c8 9d3f 4cc5 bd3f b4c5 aa3f
00000010: bc19 af3f 57b9 a83f 5f73 ad3f adad b73f
00000020: 8759 b63f 9040 a53f b88c b33f 4903 b93f
00000030: b2f1 b23f 4b7c a73f 1c4f 9e3f 697f a33f
00000040: 991d a93f ce0e a13f 618d a83f 7cf6 a63f
00000050: a2e5 a23f f7dd b63f 0ba1 b43f 23c5 ab3f
00000060: f3b9 a93f 4ec4 a63f 429d a63f a184 b03f
00000070: e426 ae3f 2c36 9b3f ff5a ae3f ec51 ac3f
00000080: 269e b93f eb35 bd3f 856b a03f 10b7 c63f
00000090: 5347 983f 85b5 cb3f 8d79 ac3f c3ae a13f
000000a0: 601e ba3f 0b57 9f3f aecc a73f 3cc0 a13f
000000b0: 1dbf 9f3f 83d8 a03f b318 bc3f eeb3 b43f
000000c0: 0dfb a53f 19d0 9d3f cd08 ac3f 20c4 9e3f
000000d0: b0c2 a93f c53b a23f 77bb 9f3f 5751 a03f
000000e0: 0119 a33f 4ae7 a53f 7d76 a43f e7e0 b43f
000000f0: 8514 9f3f 7b6e aa3f 62f0 a43f 05b7 b83f
00000100: 4963 ac3f 98f8 b63f a101 a13f 377d 9f3f
00000110: 2256 a13f 54cd b33f 0fb9 ac3f f774 b13f
00000120: 03ab a03f 3138 a73f f508 bd3f 3b1c a93f
00000130: 6606 ac3f 0ef2 b53f 5a85 bc3f 9dde a43f
00000140: 1c1b a83f b61a b03f c3cc ae3f b715 ad3f
00000150: e933 a63f b9b7 be3f 9036 ad3f 8380 a83f
00000160: 46f2 a63f b829 a23f ccbb ae3f ed38 b03f
00000170: be3d a33f ccdf af3f f005 be3f c173 b63f
00000180: 5033 bf3f f149 c23f 3967 aa3f a770 a63f
00000190: 1a14 b73f 2ba4 c33f cbcf a93f 25da b83f
000001a0: 7a3c b23f 3d11 b13f 6b35 a33f 625f b83f
000001b0: 9477 ab3f a43c ba3f 9116 bd3f 74a1 a93f
000001c0: 7c00 9d3f 13e9 b63f ecb0 b43f 2901 a93f
000001d0: c1ef ab3f 8c31 ad3f 18f1 a23f 43bd a53f
000001e0: 208e a93f 9efa a73f 788c a33f 5e0e b73f
000001f0: 0171 b63f 2a5b a43f 94c6 be3f 86c0 ba3f

bn3.bias f4 [128]
0.22032192 0.18869267 0.113928065 0.30929583 0.32339847 0.22354832 0.28089482 0.3185094
0.26596022 0.25620162 0.59589744 0.28655058 0.29211488 0.2731407 0.20893724 0.24995723
0.2799819 0.03319475 0.27779418 0.25555676 0.2385964 0.27472523 0.3321914 0.28879082
0.2803492 0.22132398 0.28481624 0.06688199 0.2957479 0.21622626 0.29742423 0.2832788
0.30129653 0.48982373 0.22251578 0.016230732 0.047464065 0.516844 0.30430427 0.23937882
0.044859283 0.20584163 0.33602968 0.23621465 0.22429772 0.21549755 0.07632293 0.13529111
0.27269948 0.20217776 0.3077689 0.20763592 0.23865794 0.24400912 0.22583507 0.22897054
0.23582943 0.26217043 0.24866527 0.19799545 0.21258299 0.27010334 0.24097858 0.35868847
0.303684 0.10392124 0.22036882 0.21372849 0.2145758 0.24990563 0.29965824 0.4458656
0.23082773 0.290212 0.31612226 0.29412428 0.30372617 0.25619757 0.15065494 0.27009863
0.26128322 0.22677049 0.08736604 0.27516553 0.23313503 0.2836074 0.32233915 0.33655116
0.27061412 0.2389028 0.2582476 0.541205 0.24051367 0.35738832 0.31607264 0.42762047
0.515305 0.23371865 0.291488 0.2703187 0.50483286 0.2941268 0.25955826 0.2512616
0.37937203 0.28513384 0.24749783 0.24195036 0.28098354 0.412505 0.377149 0.31374842
0.1919284 0.21810858 0.26917398 0.27958068 0.27966893 0.30296674 0.2324615 0.2603145
0.2683064 0.2554977 0.24983828 0.61215967 0.07010294 0.26034546 0.117812976 0.35421008
00000000: 129c 613e a738 413e 1e53 e93d 065c 9e3e
00000010: 7c94 a53e dae9 643e 72d1 8f3e aa13 a33e
00000020: f02b 883e dc2c 833e bc8c 183f c2b6 923e
00000030: 1590 953e 19d9 8b3e a5f3 553e caf4 7f3e
00000040: ca59 8f3e 38f7 073d 0a3b 8e3e 56d8 823e
00000050: 9d52 743e c9a8 8c3e fe14 aa3e 64dc 933e
00000060: ee89 8f3e c1a2 623e 6fd3 913e 6df9 883d
00000070: 456c 973e 6b6a 5d3e fd47 983e eb09 913e
00000080: 8a43 9a3e 2dca fa3e 2ddb 633e 50f6 843c
00000090: ae69 423d e34f 043f c5cd 9b3e b91f 753e
000000a0: 5ebe 373d 26c8 523e 150c ac3e 41e2 713e
000000b0: 4dae 653e 64ab 5c3e 324f 9c3d c189 0a3e
000000c0: 449f 8b3e b007 4f3e e393 9d3e 839e 543e
000000d0: bf62 743e 87dd 793e 4f41 673e 4177 6a3e
000000e0: 457d 713e 343b 863e 1ca2 7e3e 52bf 4a3e
000000f0: 5baf 593e fc4a 8a3e 17c3 763e 04a6 b73e
00000100: 787c 9b3e a9d4 d43d 5da8 613e a4db 5a3e
00000110: c2b9 5b3e 43e7 7f3e ce6c 993e 7f48 e43e
00000120: 1b5e 6c3e ab96 943e c7da a13e 7597 963e
00000130: ff81 9b3e 542c 833e 4a45 1a3e 5e4a 8a3e
00000140: eac6 853e 8636 683e f7ec b23d 7fe2 8c3e
00000150: f3ba 6e3e fd34 913e a309 a53e 6f50 ac3e
00000160: ef8d 8a3e f0a2 743e 0839 843e 698c 0a3f
00000170: 3749 763e 9afb b63e 46d4 a13e 12f1 da3e
00000180: 07eb 033f f153 6f3e ea3d 953e 3667 8a3e
00000190: ba3c 013f ca97 963e d2e4 843e 5ca5 803e
000001a0: 0d3d c23e 10fd 913e 1270 7d3e d6c1 773e
000001b0: 13dd 8f3e db33 d33e ac19 c13e a2a3 a03e
000001c0: e188 443e db57 5f3e 2cd1 893e 3325 8f3e
000001d0: c430 8f3e 751e 9b3e 630a 6e3e f147 853e
000001e0: 755f 893e 98d0 823e 9bd5 7f3e 7fb6 1c3f
000001f0: 2192 8f3d 004c 853e ee47 f13d 065b b53e
