models/binary_model.pt (torch, 957848 bytes, 20 tensors)

conv1.weight f4 [64, 21, 3, 3]
000000 23 af 5b bb 17 83 4e 3d 9e 5e 10 bd e7 89 31 3d
       -0.0033521138 0.050417986 -0.035246484 0.043344405
000010 90 05 9f 3d de 32 5f bd 12 18 1b bc bd 25 17 3d
       0.07764733 -0.05449187 -0.009466188 0.036901224
000020 5a ae 1a bb 8e ff a7 bd fc 6e 66 bd 00 e7 b6 3c
       -0.0023602457 -0.0820304 -0.056258187 0.022326946
000030 44 37 2a bb cb 5b b1 3c c4 f6 84 3b 1b fb 32 3d
       -0.0025972882 0.021650216 0.004057737 0.043696504
000040 a4 a1 d5 3c f4 11 1c 3c 52 fd 43 3d ec 71 34 3c
       0.026078053 0.009525765 0.047849007 0.011013489
000050 33 a0 7a 3c c8 48 a5 ba d0 e0 8a bd 81 0f 7b 3d
       0.0152969835 -0.0012610191 -0.06781161 0.061294083
000060 bb 6d e1 bd 53 ce 22 3d c2 e5 6e 3d 62 8c cf 3b
       -0.110072576 0.039747547 0.058324583 0.0063338736
000070 f5 83 9c bc ac da 1f bd bf 36 9b bd 71 31 91 bd
       -0.01910589 -0.0390269 -0.07578801 -0.07089508
000080 33 5d e8 3d 30 e0 b9 bd af 9b 2b be 54 e1 ca bd
       0.11345901 -0.090759635 -0.16758607 -0.09906259
000090 a6 b4 d9 3c 33 63 4c bc f8 b1 53 bd 65 1c f2 3c
       0.026575398 -0.012474823 -0.051683396 0.029554555
0000a0 93 9a ce bc e2 b7 50 3d 88 08 40 3c b3 a4 a5 3c
       -0.025220191 0.050956614 0.011720784 0.020220136
0000b0 db 68 04 ba 6e 6f 5f 3d 5e 8d 70 bd 14 f8 f8 3c
       -0.0005051025 0.054549627 -0.05872857 0.03039173
0000c0 18 2e 2d bd 22 5a 68 3d 0f b0 83 bd a4 66 dd 3c
       -0.042280287 0.056726582 -0.06430065 0.027026482
0000d0 23 f6 74 bd 6a e4 2d 3d 6a fb aa 3b d5 88 71 3d
       -0.059805047 0.04245416 0.005217959 0.058968384
0000e0 9b a2 08 bd f9 94 38 3d a2 11 39 bd 6b 02 f1 bc
       -0.033358198 0.045063946 -0.04518283 -0.029420098
0000f0 6d c3 8a 3d c7 cd 8f 3c dc d7 d4 bc 6b 85 7d bd
       0.06775556 0.017554177 -0.025981836 -0.061894815
000100 9a b4 9a bc 74 fc a4 3c 3b d9 82 3d 42 1f 5b 3d
       -0.018884946 0.02013991 0.0638909 0.053496607
000110 40 40 9c 3a 32 c1 36 bd 9b d0 84 bd 11 17 85 3d
       0.0011921003 -0.04461784 -0.06485101 0.0649854
000120 f0 b7 89 bc 98 20 de 3a 25 fa cc bc 25 b5 49 bd
       -0.016811341 0.001694697 -0.025021622 -0.04924502
000130 03 c9 b9 3c f4 cb a0 3c c3 c6 5f 3c 73 1b 19 3d
       0.022678858 0.019628502 0.013658228 0.037379693
000140 c5 69 0d 3c 00 a0 6c bb 86 a9 1d 3b 73 ff 50 bd
       0.008631174 -0.003610611 0.0024057343 -0.051024865
000150 f9 48 b3 3d 87 b9 99 3d 87 3d 07 be 49 c8 39 3b
       0.08754153 0.0750609 -0.13207065 0.002834814
000160 2c ba 16 3d 78 b1 45 bd d6 77 fe 3c 28 c2 74 3d
       0.03679864 -0.04826495 0.031063002 0.059755474
000170 af 22 31 bd 4d 74 32 bc bc 40 25 3c 94 e5 50 3a
       -0.043245967 -0.010891986 0.010086235 0.000796878
000180 11 1d 94 3d 26 41 2e bd d9 77 99 bd b1 70 29 bd
       0.072321065 -0.0425426 -0.07493562 -0.041367237
000190 85 a4 f7 bc 75 35 f9 bc d2 c3 2d bd 70 f7 04 3d
       -0.030229816 -0.030420998 -0.042423077 0.032462537
0001a0 24 22 82 bd 05 01 66 3d f9 92 05 3d 95 1d 40 3d
       -0.06354168 0.056153316 0.032610867 0.04690321
0001b0 10 bb a2 3c 50 dd a8 3b 2e bb 12 bd b8 66 24 bd
       0.019864589 0.0051533356 -0.03582304 -0.040137023
0001c0 ee 99 4c bd 32 3b 76 3d 64 d1 ce bc c0 45 e8 3a
       -0.049951486 0.060115047 -0.02524633 0.0017720982
0001d0 3c 0c 8c bd 49 fe b7 3c ca a0 0c bd 21 9b 92 bd
       -0.06838271 0.02246012 -0.034333028 -0.07158495
0001e0 14 20 c6 3c dc 9e 7d bd ba f4 12 3c 75 82 4f bd
       0.024185218 -0.06191908 0.00896948 -0.050661523
0001f0 e7 0d 58 3d 71 ee 91 bd 10 a5 42 3c 1c 86 13 3d
       0.052747633 -0.07125557 0.011880174 0.03601657
000200 e9 0e 6e bd 32 e0 40 3d 82 a5 72 3d eb a2 36 bd
       -0.05811969 0.04708881 0.05923987 -0.044588964
000210 b0 96 c7 3b 58 b2 b4 3c 6a c1 76 3d 01 69 1c 3d
       0.0060909614 0.022057697 0.060243048 0.038186077
000220 cd cd d4 bd 3c ca 96 bd 9c 82 e5 bd 5a 56 8e bd
       -0.10390816 -0.07362792 -0.112065524 -0.06950064
000230 03 f4 50 bd 5f e7 14 bd 2f 62 8c bb 12 8f d4 bc
       -0.051013958 -0.036353465 -0.0042841653 -0.025947127
000240 48 c4 9b bd b0 3a 43 bd fc d0 f2 bc 8d 3e 7c 3d
       -0.07605797 -0.04766339 -0.029640667 0.06158309
000250 fc d0 e1 3c 6c 32 87 bc b5 b1 35 3c 6e c3 a3 bd
       0.027565472 -0.016503535 0.011089732 -0.0799626
000260 f8 1c ff bc bc 7f 32 bb 91 f1 1a 3d f3 b3 b8 3d
       -0.031141743 -0.002723678 0.037828032 0.090186976
000270 e8 a7 37 3d 6e ae d2 bd 4e c7 9c bd b0 b0 8f 3d
       0.044837862 -0.10287176 -0.07655202 0.07016122
000280 8a 6f 2e bb 02 49 be 3c 68 06 43 bc 34 c0 8a 3d
       -0.0026616775 0.023228172 -0.011903383 0.06774941
000290 06 f3 a7 3b a1 c9 03 bc c9 e7 c2 bd ab 36 b1 3d
       0.005125406 -0.008043678 -0.09516866 0.08653005
0002a0 fd 46 b3 3c 74 77 04 3e c4 ea b6 3d 16 7e 11 3d
       0.021884436 0.12936193 0.08931497 0.035520636
0002b0 00 29 a1 bc 9e 1e 49 bd 18 bf 7d bd a6 1a 8d bd
       -0.01967287 -0.049101464 -0.06194982 -0.068898484
0002c0 68 7c 15 3c 8c 56 35 bd 20 e2 2c 3b 79 26 0d bd
       0.009123899 -0.04427199 0.0026379898 -0.03446052
0002d0 47 cb 2d bb b3 ef af 3d 04 23 79 3d 44 0d 1d 3e
       -0.0026518868 0.08590641 0.06082441 0.15337092
0002e0 c4 9a 49 3d c9 12 b9 bd b9 99 8d bd e9 44 c8 bd
       0.04921986 -0.09036786 -0.06914086 -0.097787686
0002f0 40 98 3e bd 51 02 47 3d 5f 30 b3 3d 71 6e 82 bd
       -0.046531916 0.048586193 0.087494604 -0.06368721
000300 e6 73 37 bd b9 1e 9a 3d f7 17 b2 bd 14 c9 22 bd
       -0.044788264 0.07525391 -0.08695977 -0.039742544
000310 8d f8 2a 3d 18 b6 66 bd 4f ed f8 bc ab ce ce 3c
       0.041740943 -0.056326002 -0.030386595 0.025245031
000320 92 3f 51 3d 59 0d f7 3c 85 ae 65 bd c3 8f b9 3c
       0.051086016 0.030157732 -0.056074638 0.022651559
000330 42 cd 95 3d 1b a5 7b bd 72 b2 26 bd 99 7d 74 bd
       0.073145404 -0.061436754 -0.040697522 -0.05969009
000340 74 8d a0 bd 81 37 c6 3b 83 74 c5 3c 76 55 2b bd
       -0.0783948 0.006049097 0.024103409 -0.04182955
000350 c5 ae f1 bd c8 7e bc bc 92 ce 4e 3d 26 fb af 3b
       -0.11800913 -0.023009673 0.05048997 0.0053705154
000360 ec c7 f2 bd 0f a2 01 bd 27 a3 c5 3d b2 59 94 bd
       -0.11854538 -0.03164869 0.096502595 -0.072436705
000370 08 6d 77 bc a5 e7 31 3d 5d d6 e7 bd d5 63 5d bd
       -0.015101679 0.043433804 -0.113201834 -0.054050285
000380 d0 f2 d3 bc 6c c2 7a bc 3b cc 8e bd 90 cf 4b 3d
       -0.025872618 -0.015305143 -0.069725476 0.049758494
000390 ce 60 4b 3d 4a 82 8b bd d0 07 4c bd 9a e6 98 bd
       0.049652867 -0.0681196 -0.049812138 -0.07465859
0003a0 9b af 33 bd 6f c0 26 bd 48 1f c3 3c e0 5b 56 bc
       -0.043868642 -0.040710863 0.023818627 -0.013083428
0003b0 36 3c 4a 3d c0 96 2b 3c 00 7e 52 3a 0e 26 39 bd
       0.049373828 0.010472953 0.000802964 -0.045202307
0003c0 b0 62 f0 3c 64 cc 89 bd e4 38 8b 3c fc 3f 87 3c
       0.029343933 -0.067284375 0.016994901 0.016510002
0003d0 ac 84 9a 3c 3d bc 07 3d 96 5d 52 3d d9 55 bd bc
       0.018862091 0.033138502 0.05135878 -0.023112224
0003e0 20 c1 91 bd 32 03 ef bc 95 3e 31 3d c7 07 35 bb
       -0.07116914 -0.029176328 0.043272574 -0.0027623044
0003f0 12 43 63 bd 74 88 9f 3c 18 1e db bc 02 f1 7a 3d
       -0.055483885 0.019474246 -0.026747748 0.061265

conv1.bias f4 [64]
000000 62 3f bf 3e 09 d8 c5 3e 8e 82 d2 3e a6 3d bc 3e
       0.37353045 0.38641384 0.4111523 0.36765784
000010 be d4 d5 3e b2 83 d0 3e a9 15 e2 3e 12 61 07 3f
       0.41763872 0.40725476 0.4415715 0.5288249
000020 ea 9e cd 3e 1a e8 c0 3e 9d 37 c8 3e 3f bd a3 3e
       0.40160304 0.3767708 0.3910493 0.3198032
000030 41 45 dd 3e 01 a0 e5 3e c8 6a d5 3e d3 92 c3 3e
       0.432169 0.44848636 0.4168303 0.38197955
000040 fc 08 de 3e cd 45 ee 3e f3 de e4 3e 73 4a ed 3e
       0.4336623 0.4653763 0.44701347 0.46345863
000050 58 25 eb 3e 34 29 d8 3e 77 2a e3 3e fb d2 d9 3e
       0.4592693 0.42218935 0.44368336 0.42543778
000060 4f cf 06 3f 26 30 be 3e 00 7b b8 3e 6c 61 ca 3e
       0.5266008 0.3714611 0.36031342 0.39527452
000070 55 89 e9 3e 33 b3 f8 3e 70 47 e7 3e f1 d6 ec 3e
       0.4561259 0.48574218 0.4517169 0.46257737
000080 fc 04 f2 3e be 60 d2 3e 46 10 e3 3e fe 02 e6 3e
       0.47269428 0.41089433 0.44348353 0.44924158
000090 32 78 cb 3e 03 88 b8 3e 15 88 b1 3e c0 32 ed 3e
       0.3974014 0.3604127 0.34674135 0.46327782
0000a0 01 fa b0 3e f3 bc bb 3e e1 34 b7 3e d6 d5 d6 3e
       0.34565738 0.36667594 0.3578253 0.4196002
0000b0 4f a2 e4 3e 0f e7 bc 3e 94 02 fe 3e 03 19 e7 3e
       0.44655082 0.36895034 0.49611342 0.4513627
0000c0 62 05 f7 3e 3c 24 ca 3e 45 82 ea 3e e0 d8 cb 3e
       0.48246294 0.3948077 0.45802513 0.398139
0000d0 d4 07 f2 3e b0 7a e6 3e bf 5b ea 3e ce d5 fb 3e
       0.47271597 0.45015478 0.45773122 0.49186558
0000e0 f2 5a ac 3e 39 60 c5 3e f5 a0 d5 3e f8 27 f4 3e
       0.33663136 0.38549975 0.41724363 0.47686744
0000f0 b5 fc c3 3e 6c 60 ee 3e 90 21 01 3f a9 68 c6 3e
       0.38278738 0.4655794 0.5044184 0.38751724

bn1.weight f4 [64]
000000 87 0b 86 3f 07 d2 80 3f 67 12 82 3f ce 62 7f 3f
       1.0472268 1.0064095 1.0161866 0.9976014
000010 26 91 7c 3f ce 2f 81 3f a2 5a 84 3f 9e 4b 7c 3f
       0.9865898 1.0092714 1.0340159 0.9855288
000020 6a 94 80 3f 8c cd 72 3f df e3 7a 3f b0 c3 79 3f
       1.0045292 0.9484489 0.98003954 0.9756422
000030 32 8f 82 3f b8 b8 7c 3f 08 b2 86 3f 20 2a 7e 3f
       1.019995 0.9871936 1.0523081 0.9928303
000040 8f db 71 3f 9b cc 7c 3f 6c 3f 6d 3f d4 94 85 3f
       0.94475645 0.98749703 0.926749 1.0436044
000050 fc 30 83 3f 93 92 88 3f 71 48 72 3f ad 9a 84 3f
       1.0249324 1.0669731 0.94641787 1.0359703
000060 e0 e3 83 3f 5d 6e 6e 3f 04 6b 7e 3f 65 9b 88 3f
       1.0303917 0.9313715 0.9938204 1.0672423
000070 90 f0 82 3f 8c e2 85 3f 1d 03 76 3f 24 cd 74 3f
       1.0229664 1.0459762 0.960985 0.9562552
000080 7c 7e 8c 3f c3 28 86 3f 39 67 75 3f 46 1b 83 3f
       1.09761 1.048119 0.9586063 1.0242698
000090 30 2f 80 3f fe 94 80 3f b2 46 7f 3f fa c7 83 3f
       1.00144 1.0045469 0.9971725 1.0295403
0000a0 4c 4c 7e 3f f1 1a 7a 3f 76 cd 7c 3f 3a e4 85 3f
       0.9933517 0.9769736 0.9875101 1.0460274
0000b0 33 3c 8f 3f ca 56 8b 3f a3 b0 7c 3f 16 ba 7c 3f
       1.1190246 1.0885861 0.98707026 0.98721445
0000c0 6a 66 81 3f 53 56 79 3f 52 b0 83 3f 5b 0b 75 3f
       1.0109379 0.97397345 1.0288184 0.9572045
0000d0 5e 72 85 3f d2 3b 7a 3f ec 73 7f 3f 32 73 7a 3f
       1.0425527 0.9774753 0.9978626 0.97832024
0000e0 18 d1 83 3f 79 f1 7e 3f fd ee 6c 3f 21 c8 7c 3f
       1.0298185 0.9958721 0.9255217 0.9874287
0000f0 3d d9 7f 3f b0 00 85 3f 3c d8 80 3f b4 46 84 3f
       0.99940854 1.0390835 1.006599 1.0334077

bn1.bias f4 [64]
000000 0f 77 54 ba 31 0f 73 bd 9e 83 dc bc b0 0e 19 bc
       -0.00081048993 -0.05934066 -0.026918229 -0.009341881
000010 7b 13 4c 3c b6 ad 14 3d da dd 80 bd 98 2f d1 3c
       0.012455816 0.036298476 -0.06292315 0.02553539
000020 60 4f 50 bd f3 eb 0d bc 1f cb 8f bc 81 28 a5 bd
       -0.050856948 -0.008662212 -0.01755291 -0.08064366
000030 63 ea 37 bd d3 17 a1 3c c8 2a 5d bd 4c 6e 4d bd
       -0.044901263 0.01966468 -0.053995878 -0.050154015
000040 64 9b 62 bc 7c 78 d1 bc a5 2a b8 bd a5 7f 7c 3a
       -0.013830993 -0.025570147 -0.08992509 0.00096320576
000050 f6 88 3c bb 10 5b 32 bc 6f 74 83 bd 73 18 66 b9
       -0.0028768159 -0.010885969 -0.06418692 -0.00021943617
000060 93 27 4c bd 8c aa ab bd 9a 31 b7 bd 25 e4 58 3d
       -0.04984243 -0.083821386 -0.089450076 0.05295195
000070 25 b6 dc bc 4d a9 a9 bd 7c 3a 37 3d a2 12 c8 bc
       -0.026942322 -0.08284245 0.04473351 -0.024422947
000080 36 ac cb 3c 41 36 7d bd fa 7e f1 bc 5c be 8f bd
       0.02486239 -0.06181932 -0.029479492 -0.0701873
000090 33 eb a2 bb 2c c5 d7 bd 00 80 09 bd 9e 6c 2e bc
       -0.0049718856 -0.105356544 -0.033569336 -0.010646014
0000a0 a3 ff 19 3c e4 fe e8 3c 34 8c f0 bd 82 31 61 bd
       0.009399327 0.028441854 -0.117454916 -0.054978855
0000b0 02 fd f2 3d 06 4a 25 3d c2 da 33 3c 35 a6 1f bd
       0.11864664 0.040353797 0.010977449 -0.038976867
0000c0 5b fc 99 bc 52 f6 33 3c fe 10 92 bd 8e 91 37 bd
       -0.01879709 0.01098402 -0.07132147 -0.044816546
0000d0 ec 40 02 bd 6b 49 66 3c 47 30 f2 bd 83 bc 2c 3c
       -0.031800196 0.01405559 -0.118256144 0.010542992
0000e0 47 71 2b bd d1 71 71 bd 2e 5c ef bd 10 18 09 be
       -0.041856077 -0.058946434 -0.11687504 -0.13388085
0000f0 c9 2f 1a bc 7a 33 52 3d 48 61 86 bd 95 71 34 bd
       -0.009410807 0.051318623 -0.06561524 -0.044053633

bn1.running_mean f4 [64]
000000 d8 bd b0 3e 06 b8 b5 3e 96 ac c5 3e 1d 1c b6 3e
       0.3451984 0.3549196 0.38608235 0.35568324
000010 b3 3f d0 3e db ce c5 3e 92 6d db 3e 29 b2 02 3f
       0.406736 0.3863438 0.42857033 0.510531
000020 54 24 c0 3e 82 a1 bf 3e e7 c2 bf 3e 86 a9 9e 3e
       0.37527716 0.37427908 0.37453386 0.3098871
000030 49 b8 ca 3e 3d 4f e0 3e 0f c8 c4 3e 4c 67 c4 3e
       0.39593723 0.43810454 0.38433883 0.3836006
000040 35 04 e1 3e 06 25 ea 3e 23 42 f5 3e 27 9a e2 3e
       0.43948522 0.45731372 0.4790202 0.44258234
000050 f7 df de 3e 9c 4c ca 3e 75 ef de 3e f9 cf c3 3e
       0.43530247 0.39511573 0.43542066 0.38244608
000060 8b b2 00 3f fc f5 c5 3e 04 1d ae 3e 48 6e ba 3e
       0.50272435 0.38664234 0.34006512 0.36412263
000070 44 25 df 3e d0 e4 e9 3e 89 d0 dd 3e b8 c4 eb 3e
       0.4358312 0.45682383 0.43323162 0.46048522
000080 ee d0 d9 3e 5c 73 c5 3e 50 04 e2 3e 18 ae da 3e
       0.42542213 0.38564575 0.44143915 0.42710948
000090 0f 75 bf 3e a3 0d ad 3e 36 f6 aa 3e 79 9d df 3e
       0.37393996 0.33799466 0.3339097 0.4367483
0000a0 c5 07 a0 3e b3 ca a7 3e 3d 79 af 3e 03 19 ce 3e
       0.31255928 0.32771835 0.34272185 0.40253457
0000b0 83 bd c4 3e ec 39 ab 3e 8d 5b f5 3e 56 e8 d5 3e
       0.38425836 0.33442628 0.4792141 0.4177882
0000c0 02 5f ee 3e 97 d8 bf 3e ff f1 de 3e df 2a cf 3e
       0.4655686 0.37469932 0.43544003 0.40462396
0000d0 8a aa e1 3e 55 7c d8 3e 77 f2 e0 3e 28 d9 ee 3e
       0.44075423 0.42282358 0.43934986 0.46650052
0000e0 fb fb 9e 3e 88 3e c2 3e 55 e8 d9 3e b5 55 ec 3e
       0.3105162 0.37938333 0.42560068 0.4615914
0000f0 ad dc b9 3e 96 96 e4 3e b1 7b f8 3e ae 98 ba 3e
       0.36301175 0.44646138 0.4853187 0.3644461

bn1.running_var f4 [64]
000000 ea 4a ff 3b 7f 52 2f 3c af 87 e3 3b 5b 0c cf 3b
       0.007790913 0.010700821 0.006943665 0.0063186116
000010 13 de d9 3b cf c0 0b 3c b8 9f bf 3b 5a ed de 3b
       0.0066487878 0.008529856 0.0058478974 0.006803197
000020 c3 39 16 3c ae 8e a9 3b 78 f2 d4 3b 2e 8e f2 3b
       0.009169045 0.0051744794 0.006498631 0.007402203
000030 74 10 13 3c a6 0c fd 3b df 1b 12 3c b5 79 a7 3b
       0.008976091 0.007722455 0.008917778 0.005110944
000040 98 d0 c8 3b 08 fe cb 3b c5 18 29 3c 87 4a c8 3b
       0.006128382 0.0062253512 0.010320847 0.0061124
000050 c2 a1 cf 3b 1b 2d 19 3c c7 0e e0 3b a8 06 82 3c
       0.0063364217 0.009349133 0.006837699 0.015872315
000060 4d a6 f8 3b 34 89 bc 3b 89 94 18 3c dd 47 e6 3b
       0.007588184 0.0057536606 0.009312757 0.0070276097
000070 8c c6 ed 3b bd de 29 3c 9d 10 dc 3b c0 9d ce 3b
       0.0072563346 0.010368046 0.0067158476 0.0063054264
000080 06 c3 57 3c 87 7f 0a 3c 7b a3 83 3b 44 69 0e 3c
       0.013169056 0.008453256 0.004017291 0.0086920895
000090 5d 4e e3 3b ee 74 c9 3b a4 26 dd 3b f2 06 da 3b
       0.006936832 0.0061479723 0.006748991 0.00665366
0000a0 41 77 23 3c c1 10 56 3c 94 bc cd 3b 78 28 ef 3b
       0.009977163 0.013065518 0.006278584 0.0072985254
0000b0 63 8d 9f 3c 25 73 14 3c a9 3e 00 3c d5 5d 19 3c
       0.019476598 0.009060656 0.007827439 0.00936075
0000c0 60 11 ba 3b 7d e7 08 3c e5 43 03 3c 52 35 c0 3b
       0.005678341 0.008355972 0.008011793 0.0058657313
0000d0 48 58 e1 3b c7 79 0f 3c 32 35 b7 3b 23 8d 04 3c
       0.006876979 0.008757061 0.005591058 0.00809029
0000e0 ca 0e e6 3b 13 20 9a 3b 81 a3 9e 3b 3f 8c de 3b
       0.007020806 0.0047035306 0.0048412685 0.006791621
0000f0 d1 96 e9 3b 75 8d 9d 3b b1 87 c7 3b 10 c2 d2 3b
       0.0071285744 0.0048081228 0.0060891737 0.0064318255

conv2.weight f4 [128, 64, 3, 3]
000000 41 e7 b9 3c 30 ed 12 3d 07 06 8c bd 01 1d 25 3d
       0.022693278 0.03587073 -0.06837087 0.040310863
000010 e3 17 f7 3b 0d 5f a7 3c f0 52 9b bd a9 f4 f4 bc
       0.0075406893 0.020431066 -0.075841784 -0.02990182
000020 29 e7 d4 bc 38 14 ec 3c 9c 7d c1 3c 17 b5 56 bc
       -0.025989132 0.028818235 0.023619466 -0.013104699
000030 48 e4 2d 3d 93 88 67 3a 50 c2 81 3c 66 fb 8a bc
       0.042454034 0.0008832302 0.015839726 -0.01696558
000040 8b 68 02 3d 33 0d 0a 3c 61 35 88 3d 88 c1 44 3d
       0.03183798 0.0084259985 0.06650806 0.04803613
000050 1c a2 e0 3c 0b a1 9b 3c 5d 2f 92 3d 7d 94 5c 3d
       0.02742105 0.01899769 0.0713794 0.053852547
000060 48 93 da 3c 58 e3 1d bd 68 a0 a6 3c 14 74 38 bc
       0.026681557 -0.03854689 0.02034016 -0.011258144
000070 3b 3d 41 3c 98 6a 4f 3d 6d 20 1c bd c2 47 80 bc
       0.011794384 0.050638765 -0.03811686 -0.015659217
000080 7e 14 35 3c 0c 35 4e 3c 5f ba be bc 4e 3c f0 3b
       0.011052249 0.01258589 -0.023282228 0.0073314076
000090 36 77 32 bd c2 a6 a9 bc f4 ed b0 3c 21 49 3a 3b
       -0.04357072 -0.0207094 0.02159784 0.0028424936
0000a0 92 92 b0 bc 81 09 31 3b 69 b2 07 bd 12 46 42 bd
       -0.021554265 0.0027013721 -0.03312913 -0.047430106
0000b0 11 a0 33 bc eb 4c 03 3d ad 9c cc bb 91 46 51 3d
       -0.010963456 0.032055777 -0.006244263 0.051092688
0000c0 37 17 e6 bc 6b 6e 21 bd 5f 51 b8 3b 05 0b 5f bd
       -0.028087242 -0.039411943 0.0056249346 -0.05445387
0000d0 53 0e 84 bb 8a d2 4e 3d bd 4f dd bb c8 65 cd bc
       -0.004030028 0.050493754 -0.0067538903 -0.025072947
0000e0 8e ad 15 bc a1 0a 27 3d eb 4a 30 ba 0c 4a 54 bc
       -0.009135617 0.04078162 -0.0006725031 -0.012957107
0000f0 83 3d 67 3c 1c 8d 32 3d a4 fb 3d 3d 4a fc 36 bc
       0.014113787 0.043591604 0.04638256 -0.011168549
000100 f9 0d cd 3a 72 c5 49 3b 9c 62 5f bc 89 e7 0d 3c
       0.0015644423 0.0030787853 -0.01363435 0.008661159
000110 64 ab 92 bc 2f 08 38 bb 1c 9e 90 bb 36 26 d1 bc
       -0.017903991 -0.002808105 -0.0044133794 -0.025530916
000120 b7 f6 55 3c 07 6f ac bc e7 13 ce 3b 38 e7 66 bc
       0.01305931 -0.021049036 0.0062889936 -0.014093213
000130 0e 43 f8 bb f0 c8 a4 3c b2 83 8e bd c2 3c f5 bc
       -0.007576353 0.020115346 -0.06958713 -0.029936198
000140 86 fa 3d bd 16 20 47 bd 4f f4 6e bb 6f 5a 72 3b
       -0.046381496 -0.048614584 -0.0036461537 0.0036980172
000150 53 51 93 3c 8a d4 d2 bc 15 6d 3c bd 17 ad c2 bc
       0.017983114 -0.025736112 -0.046002466 -0.023764176
000160 5e b2 04 3c b7 46 05 3d 86 a4 d1 3c 7b 58 97 bc
       0.008099167 0.032538142 0.025591146 -0.018474808
000170 b8 85 68 bd 18 33 ee 3c df 1d 26 3d 54 3f d5 ba
       -0.05676815 0.029077098 0.04055583 -0.0016269484
000180 74 c0 63 bc e5 9d 87 3b 2f 6f 9b bd 2e b6 89 bd
       -0.013900865 0.0041386955 -0.07589566 -0.06724201
000190 a6 bc af 3c 75 31 bc b9 33 c6 d1 bd 1e b7 69 bc
       0.02145226 -0.00035895003 -0.102428816 -0.01426485
0001a0 e7 2a 25 bb 04 8d 52 bc a3 63 0d bd 49 d8 a2 bc
       -0.0025202574 -0.012851004 -0.03451885 -0.019878523
0001b0 5d 8e f8 3b 26 62 8c 3c ba 5d 4a 3c e7 e1 3b bd
       0.0075853304 0.017136645 0.012351448 -0.045869734
0001c0 f4 f3 7f 3d 22 0e 94 3c 45 3b c9 3c 7d c8 5b 3c
       0.06248851 0.018073145 0.024564395 0.013414499
0001d0 cc 80 6e 3c 7d 2c fd bb 30 4f 92 bc 1d 88 14 bd
       0.014557075 -0.0077262507 -0.017860025 -0.03626262
0001e0 fb 13 30 bb ae 78 2b bd 31 01 7b bd 83 04 e1 3c
       -0.0026867378 -0.041863136 -0.061280433 0.027467972
0001f0 24 d4 bd bc 7b a6 16 bd 03 e8 b9 bc 18 03 5e bc
       -0.023172446 -0.036779862 -0.02269364 -0.013550542
000200 9b 05 92 bd 92 8b c6 3b 9e 87 cc bc 47 25 fb bb
       -0.071299754 0.0060591185 -0.024967011 -0.007664356
000210 48 81 b0 bd 3a b6 b4 bc df 3c 93 bc 40 87 9e bd
       -0.086184084 -0.022059549 -0.017973362 -0.07740641
000220 46 c3 d8 3a aa e8 f9 bc 74 91 98 bc a3 55 9b 3b
       0.0016537688 -0.03050645 -0.018624045 0.0047404333
000230 b5 0b d7 bc af 19 bb bc 71 46 3f bc de 32 b8 bb
       -0.0262507 -0.022839395 -0.011674509 -0.005621298
000240 f0 97 48 3d a4 d8 1c bd 38 24 da 3a ce ed 29 3d
       0.048973024 -0.038292542 0.0016642874 0.041486554
000250 cd 10 01 bd e3 7f 30 bc 72 be f9 3a 3c 22 7f bc
       -0.031510163 -0.010772678 0.001905395 -0.015572127
000260 f1 00 67 bc 2c ac 1c bd 83 60 03 3d 09 a5 8c 3c
       -0.014099346 -0.038250133 0.032074463 0.017168539
000270 ea 09 95 bc 4a 80 88 bc c3 78 b9 3b e7 10 86 3c
       -0.018193204 -0.016662735 0.005660148 0.016365482
000280 f4 ab a5 bc ba 3f 8f 3b 53 74 85 3b 87 aa 17 3c
       -0.020223595 0.0043716105 0.004072705 0.0092569655
000290 1f 1e 1f bd e6 3a 16 bd 4f 0f ff bc f7 7f 5d 3b
       -0.038847085 -0.036677264 -0.03113523 0.0033798197
0002a0 82 8f 8d bd 6a 99 21 3d d8 98 07 bc dc b3 31 bd
       -0.069121376 0.039452948 -0.008276187 -0.043384418
0002b0 a6 1b 9d bd e1 72 a5 bb 88 75 0e 3d 3b 69 5f bb
       -0.07671289 -0.005049095 0.034780055 -0.0034089822
0002c0 02 6f 28 3d b5 56 df 3c 42 4e 70 3d 33 01 03 3c
       0.04112149 0.027263025 0.058668382 0.007995891
0002d0 fc 9e c5 3c 4b ed 3f bd ca 91 0f 3c 69 5d af 3c
       0.024123661 -0.04685716 0.008762786 0.021406846
0002e0 e9 63 84 3d 38 32 8e bc 5d 92 7c 3b 1a 8b 00 3c
       0.06464369 -0.01735793 0.0038539388 0.007845664
0002f0 fa e1 aa 3c 04 25 ca bc 5a 4c bd 3c 51 30 55 bd
       0.020859707 -0.024675854 0.023107696 -0.05204803
000300 00 e2 01 3d 7c 57 b4 3b 25 f2 17 bd 76 f1 a5 bb
       0.03170967 0.005503593 -0.03709616 -0.005064185
000310 c5 10 0d bd da 9b 82 3c 5e 9e 71 3c af 4f f7 bc
       -0.03443982 0.015943456 0.01474723 -0.030189363
000320 86 1d 86 bc 98 d5 7d 3d cf 5b 55 3d 0d 91 c4 bc
       -0.0163715 0.061971277 0.05208951 -0.023994947
000330 bf 09 30 3c e4 55 eb bb 51 0f b4 bc 05 c5 8b 3b
       0.010744511 -0.00718187 -0.02197996 0.00426543
000340 27 9d 67 3c e6 50 11 bd 4a e3 36 bd 3e 8c 2e bd
       0.014136589 -0.03547754 -0.044650353 -0.042614214
000350 db 09 0d 3d 3a 72 af bc aa ea 05 bc db f5 1e bd
       0.034433227 -0.021416772 -0.008173624 -0.038808685
000360 de 9b b2 bc bb bd 63 3d f9 c3 c0 3c a4 70 3c bd
       -0.021802839 0.055600863 0.023530947 -0.04600586
000370 88 bd 30 bd 3f 0f 34 3d ba 62 45 bd 9b ba 1c bd
       -0.0431495 0.043959852 -0.048189856 -0.0382639
000380 0c d3 7d bd 5c 2d fc bc 93 5a 27 bd d0 38 db bb
       -0.061968848 -0.030783348 -0.040857863 -0.006690122
000390 da 79 90 3b d1 ef b5 bb 50 62 af 3c 87 75 d9 bc
       0.004409057 -0.00555227 0.021409184 -0.0265453
0003a0 d7 34 24 bd ce a2 d3 3b 0d 2b 79 3c 5b f3 40 3d
       -0.040089455 0.006458617 0.015208018 0.04710708
0003b0 5e f8 f9 3c 7d d8 4f bd dd 10 7a bb f3 63 0d bc
       0.030513939 -0.05074357 -0.0038157024 -0.008629787
0003c0 97 64 0b bd 58 99 91 3b d7 07 a1 bb 78 a8 38 bc
       -0.034031477 0.004443329 -0.0049142647 -0.011270635
0003d0 c5 c5 18 bc 6c e9 ea bc b5 22 38 bc c4 4c 3b bd
       -0.009324496 -0.028675757 -0.011238744 -0.045727506
0003e0 9d ce 34 bd f7 90 4e 3d 36 53 69 3d 4d 15 71 bd
       -0.044142354 0.050431218 0.05696412 -0.058858205
0003f0 64 09 af bb 88 61 da 3c e5 34 0a 3b 3b 4f 15 3c
       -0.0053416956 0.026657835 0.0021088657 0.009113128

conv2.bias f4 [128]
000000 b5 9a c2 3e 71 f7 c4 3e 89 b4 ce 3e b7 46 c4 3e
       0.38008657 0.38470033 0.40372112 0.383352
000010 12 d1 b5 3e 09 c2 b9 3e 1a 8e db 3e 14 ef d0 3e
       0.3551107 0.3628085 0.42881852 0.40807402
000020 bc e5 ba 3e 9a b6 bb 3e 97 c0 aa 3e 3a e3 d2 3e
       0.36503398 0.3666275 0.3335006 0.41188985
000030 f2 a8 c5 3e 70 62 bd 3e 24 e1 cb 3e ac 57 94 3e
       0.38605458 0.36989164 0.39820206 0.28973138
000040 d1 1c a3 3e d4 71 b4 3e fb 25 dd 3e e6 34 a6 3e
       0.31857923 0.35243094 0.4319304 0.32462233
000050 17 2b f5 3e fc 81 d8 3e ff 9e ca 3e 91 a1 aa 3e
       0.47884437 0.4228667 0.3957443 0.3332639
000060 64 d9 c8 3e df ef c8 3e 36 44 ba 3e 76 6a c2 3e
       0.39228356 0.39245507 0.36380166 0.37971848
000070 d7 86 9d 3e 7b 9b b7 3e 0a 7d b5 3e 84 a8 d1 3e
       0.30766937 0.3586081 0.3544696 0.4094888
000080 72 85 8f 3e 56 5f d4 3e ef 05 d7 3e 09 90 c9 3e
       0.28031498 0.41478986 0.41996714 0.39367703
000090 db 35 a2 3e 2d e3 d3 3e 19 af af 3e 3e 7e 96 3e
       0.31681713 0.4138426 0.34313276 0.2939319
0000a0 f5 e7 d6 3e 32 24 f1 3e 2b 3c cc 3e c8 2b c8 3e
       0.41973844 0.47097927 0.39889655 0.39095902
0000b0 ad 50 d4 3e 41 d5 99 3e f2 75 a0 3e 20 e3 bf 3e
       0.414678 0.30045512 0.31339985 0.3747797
0000c0 cf ca b5 3e 9a cc bf 3e 93 c0 d0 3e cc b6 af 3e
       0.35506293 0.37460786 0.40771922 0.3431915
0000d0 59 83 c6 3e f3 51 c3 3e 81 a5 c9 3e a0 fb a7 3e
       0.38772085 0.3814846 0.39384082 0.32809162
0000e0 00 ad b0 3e fc 91 a9 3e 46 4e a3 3e 1d bc f4 3e
       0.3450699 0.3311919 0.31895655 0.4779977
0000f0 19 2f c9 3e 42 8f ad 3e a7 8e ad 3e 28 00 df 3e
       0.39293745 0.3389836 0.33897898 0.43554807
000100 33 59 b3 3e 79 1b c5 3e cc 37 db 3e 44 c9 c0 3e
       0.3502899 0.38497522 0.42816007 0.37653553
000110 7b 9c cc 3e b9 d3 9c 3e 7b 3c cb 3e 80 19 c4 3e
       0.39963135 0.30630282 0.3969458 0.38300705
000120 36 24 da 3e e3 1d a3 3e 44 d2 ca 3e c0 85 a3 3e
       0.42605752 0.3185874 0.39613545 0.3193798
000130 ae fb a8 3e ea 88 c2 3e 7a 09 cb 3e 49 08 aa 3e
       0.33004516 0.37995082 0.39655668 0.33209446
000140 6f db af 3e f3 78 e1 3e 47 f6 b7 3e e3 f2 ae 3e
       0.34347102 0.4403759 0.35930082 0.34169683
000150 a9 2c ba 3e 5b 9e b1 3e 7b 85 d9 3e 60 e6 d4 3e
       0.36362198 0.34691128 0.4248465 0.41582012
000160 54 0d ab 3e ba 03 c8 3e 28 d0 bd 3e 01 a1 c2 3e
       0.33408606 0.39065343 0.37072873 0.3801346
000170 33 86 cd 3e d8 68 b9 3e 1b a5 b7 3e 71 6f 9a 3e
       0.40141448 0.36212802 0.35868153 0.30163148
000180 ce dc d9 3e 6c dd a2 3e 96 c7 b7 3e 67 dc b1 3e
       0.42551273 0.31809556 0.3589446 0.34738466
000190 8e 3e a6 3e 82 05 d3 3e d9 3a d6 3e ca bd bd 3e
       0.324696 0.4121514 0.41841772 0.3705886
0001a0 be 08 b6 3e f8 46 b3 3e 72 1e ab 3e 6f 14 b5 3e
       0.35553545 0.35015082 0.33421665 0.35367152
0001b0 4a 57 df 3e d8 ef c4 3e af 80 d0 3e aa 95 da 3e
       0.43621284 0.38464236 0.40723178 0.4269231
0001c0 18 eb c6 3e b7 3b bc 3e 25 39 bb 3e aa a8 9d 3e
       0.38851237 0.3676431 0.36567035 0.30792743
0001d0 18 89 a8 3e 47 d8 b6 3e 6a a1 c4 3e a1 46 b6 3e
       0.32917094 0.35711882 0.384044 0.3560076
0001e0 64 c3 e0 3e 5b ea b7 3e dc 0c d2 3e 66 0f c2 3e
       0.4389907 0.35920987 0.41025436 0.37902373
0001f0 67 6d 92 3e 08 ad ae 3e 09 1f b1 3e f3 e7 e1 3e
       0.28599092 0.34116387 0.3459399 0.44122276

bn2.weight f4 [128]
000000 c6 97 80 3f 3b 73 76 3f 6a 06 7f 3f dd fd 8c 3f
       1.0046318 0.9626958 0.9961916 1.1014973
000010 f7 f9 82 3f 9d bb 84 3f c5 41 82 3f c5 9a 80 3f
       1.0232533 1.0369755 1.0176321 1.0047232
000020 04 50 7f 3f ad f6 7d 3f 89 ee 7c 3f 48 08 71 3f
       0.9973147 0.9920452 0.98801476 0.9415326
000030 21 89 80 3f c9 4d 8d 3f ad 4c 82 3f a0 30 7a 3f
       1.0041848 1.1039363 1.017965 0.97730446
000040 9d 17 72 3f d6 8a 78 3f 84 7a 8d 3f 32 65 80 3f
       0.9456728 0.97086847 1.1053014 1.0030882
000050 a5 12 7b 3f 79 c5 82 3f 47 78 87 3f a6 ea 7c 3f
       0.98075324 1.0216514 1.0583581 0.98795545
000060 c0 ef 7a 3f 80 66 83 3f d8 38 7c 3f f3 4a 86 3f
       0.9802208 1.0265656 0.98524237 1.0491623
000070 0f 91 74 3f 0e ba 7a 3f 3d 34 88 3f ae 1c 7a 3f
       0.9553384 0.97940147 1.0640942 0.9770001
000080 a4 8b 7e 3f f6 42 79 3f 04 58 72 3f 2d 18 74 3f
       0.99431825 0.973678 0.9466555 0.9534939
000090 03 9c 7e 3f aa 99 7e 3f b4 5e 6d 3f 11 77 71 3f
       0.99456805 0.9945322 0.9272263 0.94322306
0000a0 58 94 6d 3f 26 d4 79 3f 56 bf 73 3f d1 8e 74 3f
       0.9280448 0.9758934 0.9521383 0.9553042
0000b0 af cc 81 3f 46 76 90 3f 23 78 75 3f cc e3 79 3f
       1.014059 1.1286094 0.9588644 0.97613215
0000c0 cb f3 80 3f 2c 7c 81 3f f6 01 78 3f 1f 25 7b 3f
       1.00744 1.0116019 0.9687799 0.9810352
0000d0 ec 8a 8d 3f 8b 67 78 3f a5 be 81 3f 30 50 93 3f
       1.105802 0.97032994 1.0136305 1.1508846
0000e0 fe 67 7f 3f 55 6f 6f 3f 97 83 8b 3f 67 14 7e 3f
       0.99768054 0.93529254 1.0899533 0.9924988
0000f0 63 65 76 3f dd bd 8b 3f 29 8c 76 3f 07 82 79 3f
       0.96248454 1.0917317 0.9630762 0.9746403
000100 7a e0 80 3f 9e b1 77 3f fd 6c 82 3f e1 a5 7a 3f
       1.0068505 0.967554 1.018951 0.9790936
000110 65 65 7f 3f 05 e4 81 3f 9b 10 78 3f a5 80 80 3f
       0.9976409 1.0147711 0.9690034 1.0039259
000120 a2 a9 7d 3f af 9d 8c 3f a7 44 77 3f 29 25 83 3f
       0.99086964 1.0985621 0.9658913 1.0245715
000130 66 c7 7e 3f af a8 7b 3f 62 fa 7b 3f fb 19 70 3f
       0.9952301 0.98304266 0.9842893 0.93789643
000140 21 97 83 3f ea 09 81 3f 15 92 81 3f 27 dd 83 3f
       1.0280496 1.008115 1.0122706 1.0301865
000150 37 52 81 3f 68 ba 80 3f db 2a 83 3f 38 50 76 3f
       1.0103215 1.0056887 1.0247453 0.96216154
000160 18 0d 7e 3f a6 be 85 3f d2 95 83 3f 5f ca 8e 3f
       0.9923873 1.0448806 1.0280097 1.1155509
000170 02 c7 7a 3f 1a 81 81 3f 03 91 7c 3f b7 b4 8b 3f
       0.9795991 1.0117524 0.9865877 1.0914525
000180 ed 41 88 3f 96 eb 80 3f 15 1d 7d 3f fd f6 7d 3f
       1.0645119 1.0071895 0.988725 0.99205
000190 b9 41 79 3f f1 02 73 3f c5 0e 81 3f 92 09 7f 3f
       0.9736591 0.94926363 1.0082632 0.9962398
0001a0 4a 2a 7e 3f 5f 08 7b 3f 87 9f 76 3f 0b c4 85 3f
       0.9928328 0.9805965 0.9633717 1.0450453
0001b0 15 28 80 3f 05 b3 7d 3f c6 b6 72 3f 17 fd 77 3f
       1.0012232 0.9910129 0.9481014 0.9687056
0001c0 c8 80 87 3f a2 b9 82 3f ae cd 84 3f 23 f6 7d 3f
       1.0586176 1.0212901 1.0375268 0.992037
0001d0 6c 2e 7c 3f d4 81 83 3f a6 72 81 3f 57 9e 84 3f
       0.98508334 1.0273995 1.0113113 1.0360821
0001e0 64 59 7e 3f 77 3a 6d 3f eb 42 80 3f a9 02 78 3f
       0.9935515 0.92667335 1.0020422 0.9687906
0001f0 7f 7a 74 3f 02 18 8a 3f cb c0 84 3f 50 19 8c 3f
       0.95499414 1.0788577 1.0371336 1.0945225

bn2.bias f4 [128]
000000 94 3a ce bc 12 f8 6d bd 66 ba a1 bc 94 d0 98 3b
       -0.025174417 -0.058097906 -0.019742202 0.0046635363
000010 ea 97 57 bc 10 f8 89 bd a5 a8 d6 bc 13 33 2c bd
       -0.013158778 -0.06736767 -0.026203463 -0.042040896
000020 3a b9 1a bd 60 d5 1f bd 5b 25 54 bd c7 25 b0 bd
       -0.037774302 -0.03902185 -0.051793437 -0.086009555
000030 1f 03 09 bd 69 59 ba 3c 2e f0 8d bc 53 ef 7a bd
       -0.033450242 0.022747712 -0.01732644 -0.061263394
000040 09 6a 94 bd 28 1d 50 bd d0 e8 65 3c 56 bc e4 bc
       -0.07246787 -0.050809056 0.014032558 -0.027921837
000050 ce 51 41 bd ba 8f 9b ba 61 c3 30 bc bf 31 f8 bc
       -0.047197156 -0.0011868395 -0.010788769 -0.030297158
000060 c9 4a 77 bd 59 a3 07 bd f7 9d 2b bd 14 9f d5 bd
       -0.060374055 -0.033114765 -0.041898694 -0.10430732
000070 e4 44 1e bd 40 16 3a bc 93 4a 0d bd da b9 0c bc
       -0.038639918 -0.011357844 -0.034494948 -0.008589232
000080 b9 54 14 bd ba d7 af bd fa b6 a8 bd f8 4a 87 bd
       -0.03621361 -0.085860685 -0.08238025 -0.06606096
000090 23 ec ac bb 45 32 24 bd a8 c5 80 bd 86 11 9a bd
       -0.005277173 -0.040087003 -0.062877 -0.075228736
0000a0 f8 d7 94 bd c6 d8 9e bd 9b 24 be bd b4 b1 54 bd
       -0.07267755 -0.0775619 -0.09284326 -0.051927283
0000b0 04 7d 09 bd 19 9c c0 3c e1 ae 49 bd 93 f6 64 bd
       -0.03356649 0.023511933 -0.049239043 -0.055899214
0000c0 84 4a b7 bb 14 01 88 bd 8c 46 71 bd b1 ae 4a bc
       -0.0055935998 -0.06640831 -0.05890517 -0.012370751
0000d0 20 39 35 bc 58 a2 43 bd 7c 85 a2 bc 72 91 72 3c
       -0.011060983 -0.047762245 -0.019839041 0.014805185
0000e0 c9 e6 16 be b0 3c 0a bd 0a 8a 94 bc 3d dd 32 bc
       -0.14736475 -0.033749282 -0.018132228 -0.010917005
0000f0 30 a0 b9 bd 75 bc 9c bc 74 d2 a4 bc 68 93 be bb
       -0.090637565 -0.019132832 -0.020119883 -0.005815912
000100 da 2f 24 3d c9 f5 04 bd 16 df 41 bd df 49 1a 3c
       0.040084697 -0.03246096 -0.047331892 0.009417026
000110 76 b2 97 bd 53 af fc bc d8 02 22 bd 5d e7 11 bd
       -0.074070856 -0.03084532 -0.039553493 -0.035621036
000120 17 7b c2 bc a9 e4 2b bc 52 9d 34 bd 6b 44 8f bd
       -0.023740334 -0.010491529 -0.044095345 -0.069954716
000130 26 6b d4 bc 98 7b 69 3c f0 af 3c bd 7c 69 a0 bd
       -0.025929999 0.014250658 -0.046066225 -0.078326195
000140 02 19 2b bd 34 bb 8a bd 6d 5e 76 bd 89 68 47 bd
       -0.041771896 -0.067739874 -0.060148645 -0.048683677
000150 f7 cc 99 bd f7 2b ee 3b a4 7d be bc c4 0c ea bd
       -0.07509797 0.0072684246 -0.02325327 -0.11428216
000160 ce c7 bd bc 79 06 12 bd 7b b1 61 bd 44 17 9c bc
       -0.023166563 -0.035650704 -0.0551009 -0.019054063
000170 f6 7a 55 bd 56 f2 c7 bc e4 34 72 bd f8 e7 08 bc
       -0.052119218 -0.024407547 -0.05913247 -0.008356087
000180 3e 92 ef bc 2d c8 c3 bd 86 08 0d bd 28 38 0b bd
       -0.029244538 -0.09559665 -0.034431957 -0.0339891
000190 ce 7b a8 bd 97 1e 4c bd 6a 76 ae bd ae 5f b7 bc
       -0.08226739 -0.04983386 -0.085186794 -0.02238449
0001a0 d3 68 5a bd b3 22 2d bd 1d c1 f2 bd ab b3 70 bd
       -0.053322624 -0.04226942 -0.1185324 -0.058765095
0001b0 fd 1a 00 bd c2 68 0e be 33 5f 54 bd ce 65 28 bd
       -0.031275738 -0.1390715 -0.0518486 -0.041112714
0001c0 8d cf 8c bc 8f 8b c5 bd ff 9f 45 3c 76 a5 88 bd
       -0.017188812 -0.09645759 0.012062072 -0.06672184
0001d0 ce f1 47 bc 2e 12 48 bc bf ca 90 bc 69 f5 31 bd
       -0.012203647 -0.012211366 -0.017674802 -0.043446932
0001e0 dc 64 b8 bd c5 d8 41 bd 14 49 b0 bd 72 f1 97 bd
       -0.090036124 -0.04732587 -0.086076885 -0.07419099
0001f0 9f 80 00 bd 82 f6 07 bd 50 5a 3f bc 45 05 fa bc
       -0.031372663 -0.033194073 -0.011679247 -0.03052009

bn2.running_mean f4 [128]
000000 e0 d9 3d 3d 1a eb a7 3d ba 15 60 3e 18 82 da bf
       0.04635036 0.08199139 0.21883288 -1.7070951
000010 fa d4 3d bf 08 8d 36 be 52 a8 92 be 72 6e 25 bf
       -0.741531 -0.17827237 -0.28644043 -0.6462165
000020 d4 0e 90 3c 01 3e 92 3e 84 5b 8f bd e4 60 f3 3e
       0.017585196 0.2856293 -0.06999877 0.4753486
000030 57 5f 95 3e f5 55 8c bf 6a 1d da 3c 20 b7 03 3e
       0.291743 -1.0963732 0.026625354 0.12862825
000040 b8 b8 66 3f 32 fc 16 3f 0e b6 c2 bf 1e 9f b9 3e
       0.9012561 0.5897857 -1.5211809 0.3625421
000050 15 fd 28 3f 36 09 49 bf 7e 9d 1e bf 27 7e d5 3e
       0.6601117 -0.7852968 -0.61959064 0.4169781
000060 d0 83 17 3e e7 15 ac be 21 f3 a2 bd 3b 4e 9a 3e
       0.14796376 -0.3361046 -0.079565294 0.3013781
000070 57 cb 28 3e e3 40 44 be ea bd 2a bf c3 cb 3e bd
       0.16483818 -0.19165377 -0.66696036 -0.04658104
000080 19 42 cb bd 5d 65 ff 3e d2 23 09 3e 5b 66 34 3f
       -0.099247165 0.49882022 0.1339257 0.7046868
000090 44 73 0d 3f d4 3d 91 bd 05 3f 87 3d f0 91 89 3f
       0.55254006 -0.07091871 0.06603817 1.0747662
0000a0 07 8b e2 3e db a9 29 3f c1 25 d2 3e c1 15 c2 3e
       0.44246694 0.66274804 0.4104443 0.37907222
0000b0 80 e6 f7 3e 5c 4f 7b bf 05 f4 90 3f 2a d2 34 3f
       0.48418045 -0.9816797 1.1324469 0.70633185
0000c0 49 c0 8c 3f 66 c4 80 bf 61 44 11 3e 94 5e f1 b9
       1.0996181 -1.0059936 0.1418624 -0.00046037568
0000d0 8f 7b ba bf 9e c7 c3 3e c7 b6 67 bf 0a d5 c7 bf
       -1.4568957 0.38238233 -0.9051327 -1.5611889
0000e0 cf d5 67 bd bb 20 a2 3f 2b 88 ad bf 96 ba 39 3b
       -0.05660039 1.2666239 -1.355718 0.0028339974
0000f0 51 29 06 3f a1 89 a5 bf 3c c8 be 3f 38 ee c6 3e
       0.52406794 -1.2932626 1.4904857 0.3885362
000100 00 91 bc 3e 65 40 ec 3e dd d6 13 3f ed 9f 46 3e
       0.36829376 0.4614288 0.5774973 0.19396944
000110 22 81 e2 be 11 5e 62 3d c5 19 0a 3e a3 2c d6 3e
       -0.44239146 0.05526549 0.13486393 0.4183093
000120 78 4e ce 3e 2d eb dd bf 94 04 30 3e 6b e9 72 bf
       0.40294242 -1.7337395 0.17189246 -0.9488742
000130 44 ae 28 be 56 0a 7f 3e 3d 03 c2 3e 6a ea 7e 3e
       -0.16472727 0.24906287 0.37893096 0.2489411
000140 be ea 74 3e 25 49 87 3e b5 cb 0a 3e cb 18 92 be
       0.23917672 0.26422992 0.1355427 -0.2853454
000150 ca 94 b6 3e 59 2b f1 3e 57 c4 b4 be 8c c3 c9 3e
       0.35660392 0.47103384 -0.35306045 0.39407003
000160 27 c5 31 3f a5 e1 30 bf e5 6d 0e 3f 5c 68 ee be
       0.69441456 -0.69094306 0.55636436 -0.46563995
000170 e3 2e 18 3f 74 4e 89 3e 13 12 2f bc 71 c6 58 bf
       0.59446543 0.26817667 -0.010685462 -0.846778
000180 13 06 22 bf 51 d0 e0 3e 27 f0 9f 3e 44 ce e5 3d
       -0.6329052 0.43908933 0.3123791 0.11220983
000190 29 cc ba 3e 2e f5 5d 3f 15 f8 76 bf 3a 0d 8c 3f
       0.36483887 0.8670224 -0.96472293 1.0941536
0001a0 3a 94 8d be fd 04 48 3e 6b 07 02 3e 7d 69 a5 3d
       -0.2765215 0.19533153 0.12698142 0.08076761
0001b0 2d 09 30 3f b1 d9 04 bd 42 0b 00 3f ff 10 35 3f
       0.68764 -0.03243417 0.5001718 0.7072906
0001c0 36 d3 7b bc 06 89 6d 3e d6 cd 32 be 8b 41 e3 3e
       -0.015370181 0.23196802 -0.17461333 0.44385943
0001d0 3a b1 83 3e 0c 6c 80 3f 9a fc 0e bf 83 c6 45 be
       0.2572115 1.0032973 -0.5585419 -0.19314007
0001e0 d7 da dc 3d 27 17 05 3f d7 a1 fd 3e 06 76 11 3e
       0.10783928 0.5198845 0.49537537 0.14205179
0001f0 83 ed b1 3f c5 d6 0a bf cc d0 54 3f c9 cf f5 be
       1.3900608 -0.5423396 0.831311 -0.4801009

bn2.running_var f4 [128]
000000 3c 22 07 3f 41 52 d6 3e e3 e1 80 3e 84 4e f4 3f
       0.5278661 0.4185963 0.25172338 1.9086461
000010 b0 d3 45 3f 34 2b f0 3e a4 c4 d1 3e 3b 35 89 3f
       0.77276134 0.4690796 0.40970337 1.071937
000020 79 a7 c2 3e 7b 1b bd 3e 6a a0 eb 3e e0 1a b4 3e
       0.38018396 0.36935028 0.46020824 0.35176754
000030 a8 87 ab 3e 02 0f 21 3f 9b 7d aa 3e 81 99 0b 3f
       0.33501935 0.62913525 0.33298954 0.54531103
000040 64 d4 3b 3f 99 db f1 3e 6b 7e a5 3f 58 c1 da 3e
       0.7337096 0.47237852 1.2929205 0.42725635
000050 26 4b bd 3e 77 88 01 3f bd 07 1f 3f b3 1e b6 3e
       0.36971396 0.50598854 0.6212118 0.35570297
000060 41 78 88 3e e9 07 bf 3e c7 ea dc 3e ad 7c d2 3e
       0.26654246 0.37310722 0.4314787 0.41110745
000070 88 4f c3 3e 41 68 dd 3e a2 74 e5 3e 1a 92 b8 3e
       0.38146615 0.43243602 0.44815546 0.36048967
000080 a9 a3 c3 3e 56 7c e6 3e aa a8 b2 3e 51 09 c7 3e
       0.382108 0.45016736 0.34894305 0.38874295
000090 84 78 02 3f 37 41 b9 3e 88 a7 a6 3e d1 b3 a8 3e
       0.5096514 0.36182567 0.3254969 0.3294969
0000a0 16 c2 c4 3e 88 ca 9e 3e cb 3f b0 3e 69 7a bd 3e
       0.38429326 0.31013894 0.3442367 0.37007454
0000b0 01 5a 9d 3e c0 37 6c 3f 42 62 07 3f ec 57 8a 3e
       0.3073273 0.9227257 0.52884305 0.27020204
0000c0 e7 d4 d1 3e 24 f3 64 3f 49 04 8b 3e ae ad df 3e
       0.40982744 0.89433503 0.27151707 0.43687195
0000d0 45 65 e2 3f 91 c7 ca 3e 4b ba fa 3e 37 db 6e 3f
       1.7687155 0.39605382 0.48970255 0.93303245
0000e0 0d 59 d0 3e 5d c9 0f 3f 3e af 9a 3f 83 b6 9c 3e
       0.4069294 0.5616663 1.208473 0.30607995
0000f0 10 a7 95 3e 06 58 a3 3f 08 4e 1a 3f dd d0 bc 3e
       0.2922902 1.2761238 0.60275316 0.368781
000100 57 fa b2 3e 0b 28 98 3e b4 45 ce 3e 1d af ad 3e
       0.3495662 0.2971805 0.40287554 0.33922663
000110 e9 d4 cc 3e 05 84 04 3f fb 3c 9b 3e b6 03 d9 3e
       0.40006188 0.51763946 0.30319962 0.42385644
000120 a1 76 8a 3e af ce c8 3f dd 99 aa 3e 6a ae 78 3f
       0.27043632 1.5688075 0.33320513 0.97141135
000130 bf 14 fa 3e 65 03 c3 3e 40 f2 9b 3e a1 6b 00 3f
       0.48843953 0.38088527 0.3045826 0.5016423
000140 3a e9 b7 3e 16 ca c0 3e 9e d4 c0 3e 27 ed 0f 3f
       0.35920125 0.3765418 0.37662214 0.5622124
000150 1d 10 d1 3e f7 76 f9 3e 77 05 cb 3e 1a e6 bb 3e
       0.40832606 0.48723575 0.39652607 0.3669899
000160 fe 79 15 3f 9e b8 19 3f 32 3b b1 3e 9e 23 26 3f
       0.5838927 0.6004733 0.34615475 0.648981
000170 ea 1e e5 3e 18 e5 fe 3e bf ee 04 3f e0 4a 45 3f
       0.44750148 0.4978416 0.519268 0.77067375
000180 2e 6c 51 3f 3d e1 02 3f 62 4a 9a 3e 9a 65 ab 3e
       0.81805694 0.51124936 0.30134875 0.33475953
000190 40 9a 0f 3f 4d 5c 91 3e 05 a8 90 3f 44 2e d4 3e
       0.5609474 0.28390732 1.1301275 0.41441548
0001a0 f6 3a ec 3e db 37 aa 3e 98 b3 9d 3e c7 da a5 3e
       0.46138734 0.3324574 0.30801082 0.32393476
0001b0 b0 f0 a4 3e 6b f6 8e 3e 6c d2 9c 3e 52 7e a7 3e
       0.3221488 0.27922377 0.3062929 0.32713562
0001c0 16 eb c7 3e 76 1e a5 3e f5 fa cf 3e 25 91 0d 3f
       0.39046544 0.32249802 0.40621153 0.552996
0001d0 d0 78 c9 3e e2 43 a8 3e 76 df d9 3e 96 c1 0d 3f
       0.39349985 0.3286429 0.425533 0.55373514
0001e0 35 4a d9 3e c5 d7 d1 3e 2d 87 d9 3e 4a d1 c2 3e
       0.42439428 0.40984932 0.42485943 0.380503
0001f0 ef 93 2f 3f 2c a0 be 3e 1e 00 f2 3e 58 bf 3b 3f
       0.68585104 0.37231576 0.47265714 0.7333884

conv3.weight f4 [128, 128, 3, 3]
000000 af 2d 60 bc 0e aa c6 ba 60 57 63 3c 09 65 ed 3b
       -0.013682767 -0.0015156881 0.013875812 0.0072447103
000010 3a df 3e 3c df 93 34 3c a6 50 1b bd b6 4b c2 bb
       0.011649901 0.011021583 -0.03791871 -0.0059294356
000020 9b a7 f2 3c 66 d3 1a 3d d0 29 09 3d 29 01 db 3c
       0.029620936 0.03779926 0.03348714 0.026733952
000030 46 95 a0 3c 9a 15 78 3c 4e bc 34 3c 0c 57 ce 3b
       0.01960243 0.015141869 0.011031223 0.006296998
000040 d8 01 08 bd 5e e2 c6 3c da 6b 09 3d c4 91 a5 bc
       -0.033204883 0.024277862 0.03355012 -0.020211108
000050 e7 ae 69 bb da 49 00 3c 4c 93 85 bc e9 fb 0d bc
       -0.0035657228 0.007830108 -0.016305588 -0.008666017
000060 8e 8a f0 bb 3c 37 41 3b 47 fa 8b 3a ec 2e 9f bb
       -0.0073407358 0.0029482385 0.0010679447 -0.0048578884
000070 4e 1f e3 39 7c 22 08 3d 35 72 10 bb 10 63 08 3b
       0.00043320138 0.033236012 -0.002204073 0.0020811
000080 2a 75 a3 3c 85 8f ef 3b 02 53 0a 3b b9 a4 23 3d
       0.01995333 0.00731081 0.0021106605 0.039952014
000090 b0 9d de bc da ef b1 3c f8 33 b4 3b e7 be e1 3a
       -0.0271748 0.021720815 0.005499359 0.0017223031
0000a0 a3 49 00 3d 7b b9 09 3d 0e 49 82 bc 77 34 16 3c
       0.031320225 0.033624154 -0.015903976 0.009167782
0000b0 70 3b 15 3c 9b c9 9b 3b 0c d2 a6 3c 98 8c 3c bc
       0.009108409 0.004754258 0.02036383 -0.01150813
0000c0 86 ff 88 3b 62 5c 1c bd 2a 5b 18 bd c9 bf c2 bb
       0.0041808514 -0.03817404 -0.037196316 -0.0059432727
0000d0 c7 5b ad bc 9e a0 fd bc 93 8a a2 ba df c3 f4 3b
       -0.021161927 -0.030960377 -0.0012400917 0.0074696387
0000e0 0b 6f 2b bd 11 a3 a7 3c 14 55 06 3d 51 30 00 bc
       -0.041853946 0.020463498 0.03279598 -0.0078240195
0000f0 a9 3d e8 3c d3 ba 80 bc ba 95 dc ba 84 50 05 3c
       0.028349714 -0.015714085 -0.001682929 0.008136872
000100 e7 4c 0a 3d 65 bc 20 3c 4d a0 8e 3c a6 3d 85 bc
       0.033764746 0.009810542 0.017410422 -0.016264748
000110 e3 ee f2 3c 7b e4 07 3c 5b 42 6b 3b 63 8b 74 3c
       0.029654926 0.00829422 0.0035897705 0.0149258105
000120 1c 18 dc bb 39 2c 49 3c fd c4 8c 3c 49 0f 1e bd
       -0.0067167412 0.01227861 0.017183775 -0.038588796
000130 32 c4 da bc d2 2e 04 bd 7e 1c 9d 3c 5c 4e 76 bc
       -0.026704881 -0.032271214 0.019178625 -0.015033331
000140 e4 ec 12 bc 01 b2 33 3b a1 26 18 bd 2d c5 ba bc
       -0.008967612 0.002741933 -0.037146214 -0.022799099
000150 bf ea ea b9 a0 22 ef bc 8e ae 06 bd a7 fb 7a bc
       -0.00044806857 -0.029191315 -0.032881312 -0.015318788
000160 39 cd cf bb 9e 96 e8 bc 85 cc d4 3c 0b fc 85 3c
       -0.006341603 -0.028392132 0.025976429 0.016355535
000170 18 ef 2d 3d dd 6f 1f 3a e7 3a 9b 3a 79 f3 55 bc
       0.042464346 0.00060820376 0.0011843116 -0.013058537
000180 2f 7c b7 ba 31 88 6b bc 02 69 7b bc a9 f9 b7 3b
       -0.0013998802 -0.014375732 -0.01534486 0.0056144786
000190 4e e0 a6 bb 07 23 47 bb 58 ec 3e 3c 60 45 98 bb
       -0.005092657 -0.0030385868 0.011653028 -0.004646942
0001a0 01 d5 bb bc 36 2e f5 3b 44 e8 99 b9 21 0c d8 3c
       -0.022928717 0.0074823154 -0.00029355485 0.026372971
0001b0 f8 8e 87 bc 4a e5 5e 3c 15 65 58 bc ae 03 35 bc
       -0.016547665 0.013604471 -0.013207694 -0.011048241
0001c0 97 d9 cb 3b c0 95 f6 bc ff 88 e9 bc 55 1d c4 3b
       0.006221007 -0.030100703 -0.028507708 0.005984942
0001d0 5f 7b 12 bd b8 c8 0f bd 2e 64 6a bc b1 dd 56 3c
       -0.035762187 -0.03510353 -0.014306111 0.013114379
0001e0 1f 1e 87 bc ca 34 e8 3c 69 15 b4 3d 68 a1 10 bb
       -0.016493855 0.028345484 0.08793146 -0.0022068862
0001f0 e6 46 d7 3c 8b 42 05 ba d0 bc 61 3c ff 53 f1 bc
       0.026278924 -0.0005083463 0.013777927 -0.029458998
000200 92 ce 97 bc 9d 74 75 3b 09 91 50 ba da d0 af bc
       -0.018531118 0.003745354 -0.0007956182 -0.021461893
000210 a8 10 d1 3b d8 6c dc bc da 29 98 bc f9 fa b4 3c
       0.0063801594 -0.02690737 -0.018574644 0.02209233
000220 58 3e f0 3b 18 e2 ac 3c 26 5d 70 bc 6a 26 66 bd
       0.0073316507 0.021103904 -0.014670646 -0.05618898
000230 ab cd a2 ba e1 12 bb bc c0 57 a6 bb c2 56 fb bc
       -0.0012420913 -0.02283615 -0.0050763786 -0.030681018
000240 d6 f2 cf 3c b2 9a ae bb 98 59 ac 3b 48 2a 2c bc
       0.025384348 -0.0053284997 0.005259704 -0.0105081275
000250 a3 47 66 ba 55 77 8c 3b 6c 47 b7 bc 91 0c 2f 3c
       -0.00087844784 0.0042866864 -0.022372924 0.010684148
000260 68 41 a0 3b 68 9e ff 3b 31 2d 29 3c 6b 5d 94 bc
       0.0048906095 0.007800866 0.010325716 -0.018110951
000270 0a 2d 84 3c 63 e6 06 bd b1 66 97 b7 f1 02 79 bc
       0.016134758 -0.032934558 -1.8048422e-05 -0.015198455
000280 46 48 e7 bb f1 00 c2 bc 89 07 b6 3c b5 1a f1 3c
       -0.007058176 -0.02368209 0.02222039 0.02943168
000290 89 47 6b 3c d5 f1 8b 3c 5c c4 04 3c ad 29 e9 3c
       0.014360317 0.017083088 0.008103456 0.028462255
0002a0 84 a8 05 3d 5b 49 84 3d 4c db 9e 3d 71 ea a8 3b
       0.032631412 0.06459304 0.07756671 0.0051549007
0002b0 e6 52 7b bb 5a 2a 7b ba 66 ba b0 bc 86 5e 07 bb
       -0.0038348972 -0.0009581201 -0.021573257 -0.0020655706
0002c0 7e ce c5 bc 46 4f ab bc 24 3c 4c 3b be ee b2 bc
       -0.024146315 -0.020911824 0.0031163776 -0.021842357
0002d0 15 b5 b5 bb 72 e4 af bc d0 55 18 bb 50 9a 81 bb
       -0.0055452683 -0.021471236 -0.0023244508 -0.003955163
0002e0 b1 4f a4 ba 2b 0f 56 3c a1 7a 97 bb 8a 1c 93 ba
       -0.0012535957 0.01306514 -0.004622773 -0.0011223715
0002f0 92 30 b7 bc 8e ab 09 3b f7 cd 47 3b 94 8d 3a bc
       -0.022362027 0.0021006796 0.0030487755 -0.011386294
000300 be 07 b8 3c be 14 60 3d ac 8e b3 3c 4e 7f 08 3c
       0.02246463 0.05470728 0.021918617 0.008331133
000310 22 81 8a 3b 80 e1 fc 3c d3 29 04 bd 99 84 e0 bc
       0.0042268196 0.030869246 -0.03226645 -0.027406977
000320 ce bb 89 bd 37 e9 56 3c 6e cb 0d 3d aa 1e c0 3c
       -0.06725274 0.013117126 0.034617834 0.023452122
000330 27 91 9e bc 70 b7 fc 3a f4 17 11 bd 8c 36 68 3c
       -0.019356323 0.0019280743 -0.035423234 0.014173161
000340 30 9c b8 bc 28 a2 e9 3c 43 59 e8 bb 22 80 67 bc
       -0.022535414 0.028519705 -0.007090719 -0.01412967
000350 b1 01 c3 bb 59 d7 af bb 93 6d 3f 3d ce f5 14 bd
       -0.0059511294 -0.0053662476 0.046735357 -0.03636723
000360 5a b6 80 bc 0e 65 a9 bc 6f af a4 3b 5b c5 06 3d
       -0.015711952 -0.02067807 0.005025796 0.032903057
000370 fd 29 53 bc 9e f7 4c bc c8 44 a0 bc 6e ab ae bb
       -0.012888429 -0.012510208 -0.019564047 -0.0053304946
000380 b4 16 83 bb 5c 23 af bc 9f 2b 92 3b dc e8 e9 bc
       -0.004000509 -0.021379165 0.0044607664 -0.028553419
000390 bc 82 07 bd 9e b3 6c 3c 1c 22 2c bd 0f 20 f4 3c
       -0.033083662 0.014447121 -0.042024717 0.029800443
0003a0 05 8a 8a bc f0 10 6c 3b a0 26 07 bb c0 9e a7 bc
       -0.016911516 0.0036020838 -0.0020622388 -0.02046144
0003b0 f5 70 af 3c d6 35 c2 3c c9 9e a7 bc 3c 8d 41 3b
       0.021416167 0.023707312 -0.020461457 0.0029533645
0003c0 a8 71 15 3d 71 3c 10 3d 06 80 84 3c 37 e1 a2 3b
       0.036485344 0.03521389 0.016174328 0.0049706954
0003d0 ac b1 86 3c 45 a3 b1 3c d0 0b 01 bd e4 22 f7 bd
       0.016442142 0.021684298 -0.031505406 -0.12067202
0003e0 4b 9b bc bc 06 52 9f 3c 61 d6 a9 ba 83 1d d6 3d
       -0.023023268 0.019448292 -0.0012957567 0.10454848
0003f0 a0 93 64 bc 90 38 91 3c f4 12 fa bb ae c5 d6 bb
       -0.013951212 0.017727166 -0.007631654 -0.006554327
