models/binary_model.pt (torch, 955794 bytes, 17 tensors)

conv1.weight f4 [64, 21, 3, 3]
0.0017935861 0.050789624 -0.06944817 -0.03684275 0.045544006 -0.086114645 0.0048564533 -0.022620335
-0.021987116 -0.05474542 -0.007681704 0.026612882 0.0706539 0.03359831 0.017750658 -0.000937056
0.013658281 -0.06354807 -0.03840708 0.01990808 0.033635817 0.014617522 -0.01712701 0.07553506
0.057122122 0.055401407 -0.06017404 0.06690987 0.092709064 0.04904263 0.030049333 0.060651757
-0.06724588 0.0354129 -0.01993625 0.008985045 -0.10897685 -0.07278097 0.06479204 0.10183974
0.047502883 -0.14686677 0.038126443 -0.10309041 0.012685109 0.014554441 -0.040265746 0.03757418
-0.022670496 0.053231053 -0.04838381 -0.014787067 -0.0012701452 -0.03256116 0.11269167 0.08039773
-0.028403657 -0.11188799 -0.069917195 0.0910446 0.036382318 0.02318885 -0.021272875 0.06941096
0.057568274 0.002873093 -0.013404999 0.052068934 0.067860015 -0.043519042 -0.034493938 0.05603241
0.020129874 0.008909969 -0.013078088 -0.07764152 -0.06228476 -0.061730433 -0.09781576 0.032221876
0.058703456 -0.033944882 0.0480776 -0.037777085 -0.08873494 -0.029525902 -0.08991236 0.034437887
-0.044412114 -0.056763414 -0.06551857 -0.026900195 -0.034459535 0.061005153 -0.019175652 -0.0190626
0.001917223 0.06762497 -0.010011767 -0.01150103 -0.006557599 -0.007312292 0.036491267 0.038170874
0.032459434 0.05057081 -0.08886981 0.014423991 0.02920881 0.023076445 -0.024021644 0.018523954
-0.011145588 -0.037611883 0.05886296 -0.030747648 0.051580884 -0.067041166 0.073404945 -0.016416691
-0.080817014 0.08755403 -0.03607299 0.0058210683 0.025722856 0.03571843 0.054919884 0.0027512766
-0.16755345 0.086415194 -0.16945738 0.1841688 0.0131043475 0.072665974 0.044523854 -0.19749177
-0.16414337 0.085642 -0.039599672 -0.120320074 -0.044344768 0.0010300942 -0.057006538 -0.015657749
0.027488228 -0.11713434 0.04633185 0.008909944 -0.031865526 -0.026330823 0.04523028 -0.0655461
-0.028204126 0.08426852 -0.0015704244 -0.014585651 0.13675277 0.111158594 -0.036096554 0.030619267
-0.0068990146 0.12593143 -0.19504216 0.10943033 -0.040976245 -0.15645182 0.11734653 0.16397767
-0.2167873 -0.19805634 -0.011666059 0.051656768 0.005424373 0.027732037 -0.058465756 -0.03798165
0.016838387 0.01091288 -0.027454216 -0.060281217 -0.014908541 0.062499285 -0.047690745 -0.03663205
0.054836176 -0.023372523 -0.030911501 -0.014719816 -0.14646439 -0.030831793 -0.018373195 0.007037018
-0.05580771 -0.012536604 -0.026922422 0.01688 -0.027667882 0.058862235 0.019409223 0.032677323
0.06757297 -0.031534106 0.0057855393 0.026504908 -0.05091197 0.037286986 0.037364893 -0.043739907
-0.049787194 -0.06601258 -0.013230044 0.06375008 0.069686264 0.051103074 -0.03650096 0.028762957
0.076222 0.16291326 0.094849735 0.17448469 0.059675764 0.026379483 0.098930605 0.01912089
-0.0188297 -0.006336775 -0.01046938 0.008638382 0.04887333 -0.0035466163 0.0152519625 -0.010306373
0.056951858 -0.014672923 -0.01467656 0.03578504 -0.009738922 -0.054487217 -0.014777165 0.06841669
-0.02380554 -0.01044758 -0.009167731 -0.047263283 -0.0033561033 -0.09698415 -0.017020365 0.04458913
0.020124856 0.02220757 0.0025156378 -0.014021689 -0.0066673383 0.028280027 -0.059125528 -0.029293403
00000000: c316 eb3a c808 503d d83a 8ebd 6ce8 16bd
00000010: 5a8c 3a3d e05c b0bd e222 9f3b 484e b9bc
00000020: 531e b4bc bc3c 60bd ceb6 fbbb 4203 da3c
00000030: feb2 903d 629e 093d d469 913c c3a4 75ba
00000040: fcc6 5f3c 7e25 82bd be50 1dbd 4516 a33c
00000050: b6c5 093d 557e 6f3c f14d 8cbc 20b2 9a3d
00000060: e3f8 693d 96ec 623d 0e79 76bd 0b08 893d
00000070: 40de bd3d ede0 483d 052a f63c fa6d 783d
00000080: 35b8 89bd 1e0d 113d 5951 a3bc 0336 133c
00000090: 412f dfbd 300e 95bd b0b1 843d 5b91 d03d
000000a0: 6292 423d 3e64 16be 792a 1c3d 1121 d3bd
000000b0: 34d5 4f3c c075 6e3c b2ed 24bd 62e7 193d
000000c0: 7ab7 b9bc ce08 5a3d 1a2e 46bd 7445 72bc
000000d0: 007b a6ba da5e 05bd e4ca e63d 91a7 a43d
000000e0: c9ae e8bc 8825 e5bd bf30 8fbd 9775 ba3d
000000f0: a005 153d 8bf6 bd3c 7444 aebc 5527 8e3d
00000100: b6cc 6b3d 804a 3c3b a4a0 5bbc 3c46 553d
00000110: 31fa 8a3d 0641 32bd 8449 0dbd 3e82 653d
00000120: 68e7 a43c 1efb 113c 7a45 56bc 8402 9fbd
00000130: 4e1e 7fbd 0dd9 7cbd a153 c8bd 16fb 033d
00000140: 0973 703d ca09 0bbd 04ed 443d 25bc 1abd
00000150: aaba b5bd 4ee0 f1bc f923 b8bd be0e 0d3d
00000160: 7ae9 35bd c180 68bd 9a2e 86bd cc5d dcbc
00000170: 7125 0dbd 8ae0 793d 4216 9dbc 2b29 9cbc
00000180: 544b fb3a f67e 8a3d 6508 24bc d16e 3cbc
00000190: 21e1 d6bb f39b efbb de77 153d 1059 1c3d
000001a0: 2ff4 043d 5623 4f3d 6001 b6bd 9a52 6c3c
000001b0: 5047 ef3c d00a bd3c 0ac9 c4bc 8cbf 973c
000001c0: fc9b 36bc eb0e 1abd 4a1a 713d 7ee2 fbbc
000001d0: 7a46 533d e14c 89bd 5555 963d 4c7c 86bc
000001e0: 6483 a5bd 874f b33d 46c1 13bd a9be be3b
000001f0: bdb8 d23c 7d4d 123d acf3 603d c34e 343b
00000200: 2293 2bbe 73fa b03d 3c86 2dbe bf96 3c3e
00000210: 9eb3 563c e6d1 943d a55e 363d 483b 4abe
00000220: 3315 28be 1365 af3d 4433 22bd 5f6a f6bd
00000230: dca2 35bd 3a04 873a b07f 69bd ae44 80bc
00000240: fe2e e13c 21e4 efbd 77c6 3d3d 04fb 113c
00000250: 6d85 02bd bdb3 d7bc 6343 393d 093d 86bd
00000260: 570c e7bc f994 ac3d b3d6 cdba a8f8 6ebc
00000270: eb08 0c3e 1ea7 e33d fbd9 13bd 42d5 fa3c
00000280: 2111 e2bb 2bf4 003e 22b9 47be 021d e03d
00000290: b5d6 27bd e834 20be 6153 f03d c3e9 273e
000002a0: 7dfd 5dbe 48cf 4abe ff22 3fbc 0c96 533d
000002b0: f0be b13b 4c2e e33c ca79 6fbd a692 1bbd
000002c0: a8f0 893c f0cb 323c aae7 e0bc 70e9 76bd
000002d0: f442 74bc 40ff 7f3d 5f57 43bd 7d0b 16bd
000002e0: e69b 603d bc77 bfbc 1e3a fdbc 622b 71bc
000002f0: c3fa 15be f592 fcbc 6283 96bc c996 e63b
00000300: a096 64bd 5466 4dbc 698c dcbc ed47 8a3c
00000310: c1a7 e2bc 8719 713d 1700 9f3c a8d8 053d
00000320: b363 8a3d e829 01bd 9f94 bd3b d220 d93c
00000330: 1289 50bd 3dba 183d ee0b 193d 9e28 33bd
00000340: a8ed 4bbd 9b31 87bd d4c2 58bc 678f 823d
00000350: acb7 8e3d 7551 513d 0882 15bd 4ba0 eb3c
00000360: 481a 9c3d bcd2 263e 9440 c23d 1dac 323e
00000370: 936e 743d c919 d83c 219c ca3d 6aa3 9c3c
00000380: be40 9abc b9a4 cfbb c387 2bbc 0088 0d3c
00000390: 672f 483d 596e 68bb 5ee3 793c 10dc 28bc
000003a0: 5a46 693d b366 70bc f475 70bc 5693 123d
000003b0: 0090 1fbc fd2d 5fbd ec1b 72bc 0d1e 8c3d
000003c0: d603 c3bc 542c 2bbc 4034 16bc 2597 41bd
000003d0: 12f2 5bbb a09f c6bd 4b6e 8bbc 17a3 363d
000003e0: e2dc a43c a6ec b53c 66dd 243b 3abb 65bc
000003f0: b079 dabb 84ab e73c 9c2d 72bd b8f8 efbc

bn1.weight f4 [64]
1.0548209 0.94052994 1.0066351 1.0173514 0.98049706 1.0472531 1.0271931 0.9672901
0.9711438 0.9371576 0.99709785 0.9661051 1.1146045 1.0502717 0.95434153 1.0544403
1.0580276 0.95009184 1.0261258 1.0876017 0.8590919 0.95458674 1.0369654 0.9755425
1.0525184 1.0537645 0.8771048 1.0361881 0.9393416 0.8723816 1.0637759 1.1336038
1.055876 0.9908653 1.1025568 1.0639449 1.1395578 1.0710691 0.89462656 0.9051807
1.0697334 1.0024207 1.067805 0.87641746 1.0862509 1.0122999 0.9941676 1.0421919
1.2831962 1.046778 0.9995551 1.0332342 1.0231854 0.9959229 1.1442436 1.0066152
0.8942946 1.1563052 0.9598989 1.232018 1.0754616 1.078547 0.88518685 0.82794863
00000000: 5f04 873f 92c6 703f 6bd9 803f 9238 823f
00000010: db01 7b3f 640c 863f 107b 833f 53a0 773f
00000020: e19c 783f 8fe9 6f3f ce41 7f3f aa52 773f
00000030: 5cab 8e3f 4e6f 863f ba4f 743f e6f7 863f
00000040: 736d 873f 3839 733f 1758 833f 8836 8b3f
00000050: 72ed 5b3f cc5f 743f 48bb 843f 27bd 793f
00000060: ecb8 863f c1e1 863f f189 603f d0a1 843f
00000070: b178 703f 6754 5f3f cf29 883f ee19 913f
00000080: f226 873f 59a9 7d3f 9520 8d3f 592f 883f
00000090: 08dd 913f cb18 893f 3f06 653f ecb9 673f
000000a0: 06ed 883f 524f 803f d6ad 883f e55c 603f
000000b0: 450a 8b3f 0b93 813f c581 7e3f 8b66 853f
000000c0: c63f a43f d2fc 853f d8e2 7f3f 0541 843f
000000d0: bdf7 823f cef4 7e3f 9376 923f c4d8 803f
000000e0: 7ef0 643f cf01 943f efbb 753f c4b2 9d3f
000000f0: baa8 893f d40d 8a3f 9b9b 623f 71f4 533f

bn1.bias f4 [64]
0.026081016 -0.1290017 -0.19006349 0.095425226 -0.11929401 0.0026982157 -0.021093909 -0.15345335
0.043034688 -0.17902415 -0.00044173823 -0.18227613 0.039470498 0.054456577 -0.14148599 0.0057023573
-0.049642745 -0.08618797 -0.0025496765 -0.081289455 -0.0856662 -0.14962056 0.039256886 -0.110632904
0.010355101 -0.016360065 -0.15974067 -0.2620391 -0.0783802 -0.11791843 -0.007246715 -0.04975693
0.101814106 0.015945058 0.022813218 -0.032627515 0.0071432907 0.007533577 -0.106875055 -0.09681965
0.0093270885 -0.12242035 -0.032481875 -0.10444055 -0.08653402 0.041390486 -0.04250971 -0.0019168371
0.036802776 -0.014541008 -0.13566685 0.019957343 0.05107705 -0.077778324 0.13906588 0.007350113
-0.14756176 -0.023911515 -0.15150921 0.06439992 0.018997101 0.0022070145 -0.08588602 -0.13847917
00000000: dba7 d53c 0619 04be 01a0 42be 4d6e c33d
00000010: 6b50 f4bd 8cd4 303b 22cd acbc e022 1dbe
00000020: 2445 303d 1b52 37be 1a99 e7b9 98a6 3abe
00000030: d1ab 213d dc0d 5f3d b4e1 10be d7da ba3b
00000040: 3156 4bbd 5283 b0bd 7918 27bb 167b a6bd
00000050: c371 afbd 2236 19be d4cb 203d 8193 e2bd
00000060: 71a8 293c 8b05 86bc 0f93 23be fd29 86be
00000070: cc85 a0bd 387f f1bd da75 edbb eccd 4bbd
00000080: ea83 d03d 369f 823c c9e2 ba3c 6ea4 05bd
00000090: 4412 ea3b 39dc f63b 4fe1 dabd 6149 c6bd
000000a0: a5d0 183c 85b7 fabd b70b 05bd ede4 d5bd
000000b0: c038 b1bd 1289 293d a91e 2ebd 613e fbba
000000c0: 82be 163d 683d 6ebc 40ec 0abe 957d a33c
000000d0: 2b36 513d 3e4a 9fbd 4967 0e3e 37d9 f03b
000000e0: 6e1a 17be 15e2 c3bc 3b25 1bbe 1be4 833d
000000f0: cf9f 9b3c 8fa3 103b 02e5 afbd 7ccd 0dbe

bn1.running_mean f4 [64]
-0.026680935 -4.975533e-05 -0.010622308 -0.021539455 -0.008152324 -0.033110276 -0.03013724 -0.008198626
-0.02094043 -0.012442374 -0.024486993 -0.015779456 -0.033889763 -0.037900902 -0.014330088 -0.03996886
-0.0376775 8.595579e-05 -0.024926329 -0.08275474 0.027543953 -0.008243592 -0.033624638 -0.0065770377
-0.03040386 -0.046574455 0.0544508 -0.016661523 -0.0042766216 0.023731327 -0.046364833 -0.057013497
-0.04583339 -0.032502577 -0.049650636 -0.03356671 -0.039316926 -0.030580752 0.005083219 -0.0038472658
-0.03165144 -0.0048321197 -0.03518527 0.08000668 -0.02706153 -0.023832163 -0.02600748 -0.02302008
-0.07501799 -0.030557279 -0.0058824383 -0.021028133 -0.024951877 -0.0015883715 -0.05900803 -0.020170318
0.02333621 -0.04183639 -0.0084083555 -0.06999209 -0.03388442 -0.030202711 0.015555538 0.012208735
00000000: fa91 dabc 61b0 50b8 3009 2ebc 8373 b0bc
00000010: 5391 05bc a49e 07bd 60e2 f6bc 8853 06bc
00000020: 448b abbc 19db 4bbc f298 c8bc eb43 81bc
00000030: fecf 0abd fa3d 1bbd bfc8 6abc 63b6 23bd
00000040: b953 1abd 2a43 b438 4d32 ccbc 517b a9bd
00000050: dba3 e13c 2210 07bc fdb9 09bd 3184 d7bb
00000060: 8411 f9bc dbc4 3ebd cd07 5f3d bf7d 88bc
00000070: e722 8cbb 3368 c23c 0de9 3dbd fc86 69bd
00000080: cbbb 3bbd 6c21 05bd 775e 4bbd 3f7d 09bd
00000090: c90a 21bd 7c84 fabc 2291 a63b 6922 7cbb
000000a0: f1a4 01bd c256 9ebb 6e1e 10bd 8bda a33d
000000b0: 24b0 ddbc ab3b c3bc a40d d5bc 9b94 bcbc
000000c0: 08a3 99bd 4253 fabc 78c1 c0bb 3143 acbc
000000d0: e167 ccbc e730 d0ba 67b2 71bd 393c a5bc
000000e0: 942b bf3c a25c 2bbd 33c3 09bc 0358 8fbd
000000f0: 64ca 0abd ad6b f7bc a8dc 7e3c 2507 483c

bn1.running_var f4 [64]
0.012187059 0.0058955587 0.008846402 0.015806297 0.007370907 0.015385587 0.012698142 0.0077098627
0.007932792 0.008341973 0.012689727 0.010866135 0.012164417 0.019348344 0.014870523 0.020666916
0.01966575 0.008502968 0.011858455 0.033837933 0.012268153 0.01117708 0.016778663 0.009914879
0.014946602 0.020439787 0.0154191265 0.008380225 0.010249174 0.018919997 0.02028494 0.023090089
0.020815304 0.015438189 0.023272142 0.014732532 0.014965628 0.012859036 0.011752406 0.007833121
0.007816391 0.010721984 0.015235157 0.0367802 0.010767173 0.0117797805 0.017046776 0.010073559
0.021171771 0.014085896 0.008495852 0.009506018 0.009884952 0.010005484 0.027774552 0.0107790325
0.01044392 0.013542205 0.0107595 0.024567464 0.015882086 0.01396787 0.013358874 0.0149121415
00000000: 3bac 473c 882f c13b 80f0 103c 357c 813c
00000010: a687 f13b d413 7c3c de0b 503c 04a3 fc3b
00000020: 8bf8 013c c5ac 083c 93e8 4f3c e007 323c
00000030: 434d 473c 6b80 9e3c 7ea3 733c aa4d a93c
00000040: 111a a13c 0850 0b3c f749 423c a599 0a3d
00000050: 5d00 493c 1220 373c 6873 893c 0472 223c
00000060: 98e2 743c 5771 a73c 81a0 7c3c 364d 093c
00000070: 27ec 273c 1cfe 9a3c 9a2c a63c 6d27 bd3c
00000080: db84 aa3c 75f0 7c3c 38a5 be3c b860 713c
00000090: 6532 753c b5ae 523c 2a8d 403c 7e56 003c
000000a0: 5210 003c 43ab 2f3c e19c 793c d6a6 163d
000000b0: cc68 303c fbff 403c aea5 8b3c 920b 253c
000000c0: 6c70 ad3c 88c8 663c 3032 0b3c 21bf 1b3c
000000d0: 7ef4 213c 0bee 233c 7587 e33c 8a9a 303c
000000e0: fa1c 2b3c 20e0 5d3c 9d48 303c b541 c93c
000000f0: 261b 823c 7ed9 643c 2edf 5a3c 0e52 743c

conv2.weight f4 [128, 64, 3, 3]
0.083147705 0.040048987 -0.0005195259 -0.06436423 0.02570166 0.0069565033 0.033774164 0.052979514
-0.03479633 -0.019162115 0.0016004579 -0.012065532 -0.024362925 0.0011997774 0.035921566 -0.051099285
-0.0043925634 -0.017974347 -0.024567181 -0.04669755 0.024513697 -0.015264058 -0.010479951 -0.015452574
0.029913297 -0.03231358 -0.030320834 0.06261129 -0.06939053 0.02642252 -0.004387533 0.004211607
-0.025843468 -0.04021986 -0.035030354 0.012429983 0.022720488 -0.0044948077 -0.03494354 -0.007758248
0.039468866 0.005418132 0.013900438 -0.016121179 0.023057703 0.019763038 -0.0255101 0.0045190672
0.0028804918 -0.015139196 0.037431404 -0.039887123 -0.018552689 -0.016580675 0.036576558 0.027476126
0.0116473185 0.043350484 -0.008336937 -0.008178988 0.03217107 0.06394705 -0.076001205 0.011779666
-0.041488983 -0.041669186 0.034109306 0.02971698 -0.037852433 -0.06889421 -0.04638931 0.016460493
-0.0002967027 -0.0004551801 0.00315211 -0.027421726 -0.025711544 0.036991257 -0.017825285 -0.014776704
0.048625946 0.013060154 0.03038997 -0.040675398 -0.04171853 0.005968416 0.01343681 0.015276476
-0.010860974 -0.024734478 0.050763886 0.022005467 0.015054976 0.09606776 -0.033224594 0.004512898
-0.016626772 0.04252218 0.0016766896 0.061718583 -0.050832216 -0.045343816 0.03603594 0.0054757986
0.03815059 0.031919125 0.0006129633 0.0225527 -0.027628873 -0.011174651 0.03185354 -0.018499408
0.00801427 -0.010326038 0.037533477 0.0023475739 0.028472044 0.005049652 -0.01730825 0.016005797
0.04933043 -0.019821184 -0.038500052 -0.026157562 -0.043722287 0.03685273 0.06310043 -0.006553352
-0.022799624 0.0039136675 0.055552065 -0.015644817 -0.045299128 -0.022446055 -0.010096995 0.011533021
0.026388748 -0.04309503 -0.019893812 0.004852603 0.01922593 -0.008453523 -0.0051987185 -0.033665158
0.052406978 -0.03318727 -0.023967955 -0.071443975 -0.013747888 -0.015072006 -0.03917503 -0.03424456
-0.011419051 -0.05139422 -0.017429702 -0.02704681 0.015286569 -0.0006600106 -0.039588273 0.017154118
0.001253674 0.012409787 0.02344487 0.018409267 -0.038899478 -0.0016948872 -0.010944853 0.044103056
-0.034588557 0.05339714 -0.019613648 -0.07085561 0.016433354 0.017179431 -0.041902278 0.0023628892
0.011439787 0.020198802 -0.0029987737 0.045980077 0.01490273 -0.041450143 0.011514387 0.0066171708
-0.0341909 -0.033930417 -0.014805528 -0.017093962 -0.0017166734 0.01071138 0.0069867857 0.054585554
-0.028190086 -0.017688492 0.008017647 -0.0075399927 -0.038470518 -0.0047876225 0.0104009565 -0.032190856
0.03223262 0.015281018 0.045205537 0.037402228 -0.017065397 0.018159024 -0.01654923 0.038063306
-0.01843888 -0.038662814 -0.009004413 -0.032466307 -0.029269315 0.002014396 -0.005344844 0.014219633
-0.010342488 0.001289491 -0.061907295 0.011509443 -0.020799203 -0.039408408 -0.0140718855 0.023408473
-0.033043873 0.049491666 0.037457746 0.0052534374 0.0066459896 0.07334641 0.016308561 0.031873297
0.099821515 0.05474503 -0.049144216 -0.036669087 -0.004437851 -0.03296171 -0.012729212 0.01298159
-0.039640263 -0.038175706 0.040432367 0.036558658 0.098551385 -0.055954155 -0.003069763 -0.024462132
-0.01388189 -0.025506474 0.09323291 -0.028969575 -0.036401764 -0.018785505 -0.00042635505 -0.0106981825
00000000: 5849 aa3d 680a 243d cb30 08ba 65d1 83bd
00000010: 4a8c d23c 61f3 e33b c756 0a3d 0c01 593d
00000020: 9986 0ebd def9 9cbc 75c6 d13a 82ae 45bc
00000030: c294 c7bc d941 9d3a 7e22 133d 7c4d 51bd
00000040: 7eef 8fbb f03e 93bc 1d41 c9bc ee45 3fbd
00000050: f3d0 c83c 1916 7abc 1ab4 2bbc cb2c 7dbc
00000060: bb0c f53c 3f5b 04bd 6663 f8bc 593a 803d
00000070: 9f1c 8ebd 0a74 d83c 4bc5 8fbb 8501 8a3b
00000080: aeb5 d3bc 94bd 24bd fd7b 0fbd 21a7 4b3c
00000090: 5120 ba3c 2e49 93bb f520 0fbd e738 febb
000000a0: 1baa 213d 968a b13b aabe 633c 9010 84bc
000000b0: 82e3 bc3c 18e6 a13c 8ffa d0bc af14 943b
000000c0: a2c6 3c3b 640a 78bc ac51 193d ae60 23bd
000000d0: cffb 97bc 32d4 87bc 4dd1 153d 9d15 e13c
000000e0: 65d4 3e3c 4790 313d a697 08bc 2901 06bc
000000f0: d0c5 033d acf6 823d 85a6 9bbd 80ff 403c
00000100: 5af0 29bd 4fad 2abd 33b6 0b3d 0671 f33c
00000110: 270b 1bbd 6818 8dbd b802 3ebd 28d8 863c
00000120: c38e 9bb9 3da5 eeb9 a193 4e3b 87a3 e0bc
00000130: 04a1 d2bc 2584 173d 5506 92bc fd19 72bc
00000140: 002c 473d 42fa 553c 63f4 f83c 3f9b 26bd
00000150: 0de1 2abd b492 c33b 1126 5c3c 2f4a 7a3c
00000160: 3af2 31bc f69f cabc cbed 4f3d cf44 b43c
00000170: 25a9 763c 2cbf c43d 8316 08bd efe0 933b
00000180: de34 88bc bd2b 2e3d 5ec4 db3a a0cc 7c3d
00000190: 7135 50bd 70ba 39bd 6c9a 133d 546e b33b
000001a0: cb43 1c3d a1bd 023d 45af 203a 71c0 b83c
000001b0: f255 e2bc e215 37bc dc78 023d 128c 97bc
000001c0: 494e 033c 8b2e 29bc b4bc 193d c1d9 193b
000001d0: 343e e93c 8d77 a53b 08ca 8dbc 971e 833c
000001e0: b40e 4a3d 0960 a2bc 3bb2 1dbd 6248 d6bc
000001f0: 2416 33bd e3f2 163d cc3a 813d 80bd d6bb
00000200: 47c6 babc 393e 803b 908a 633d 8f29 80bc
00000210: 948b 39bd cae0 b7bc de6d 25bc fff4 3c3c
00000220: 372d d83c 6a84 30bd 59f8 a2bc 9602 9f3b
00000230: b37f 9d3c a580 0abc 035a aabb 7ae4 09bd
00000240: b3a8 563d 60ef 07bd 7258 c4bc 3851 92bd
00000250: d23e 61bc 93f0 76bc ff75 20bd 0644 0cbd
00000260: f916 3bbc bf82 52bd bcc8 8ebc 4691 ddbc
00000270: 8474 7a3c 9004 2dba 5027 22bd cb86 8c3c
00000280: 5252 a43a 6b52 4b3c 750f c03c 08cf 963c
00000290: 0f55 1fbd fa26 deba 0a52 33bc 68a5 343d
000002a0: bbac 0dbd f6b6 5a3d cdac a0bc bf1c 91bd
000002b0: 3e9f 863c e1bb 8c3c b9a1 2bbd b4da 1a3b
000002c0: f26d 3b3c f577 a53c 1387 44bb 9b55 3c3d
000002d0: 942a 743c a0c7 29bd d7a6 3c3c dad4 d83b
000002e0: c20b 0cbd 9ffa 0abd e392 72bc a308 8cbc
000002f0: 0002 e1ba c97e 2f3c 68f1 e43b 1a95 5f3d
00000300: e5ee e6bc 75e7 90bc 735c 033c 0b12 f7bb
00000310: 4393 1dbd 7de1 9cbb c668 2a3c 8fda 03bd
00000320: 5a06 043d 3c5d 7a3c 7129 393d 1433 193d
00000330: bbcc 8bbc 3cc2 943c 4092 87bc 45e8 1b3d
00000340: 220d 97bc e65c 1ebd 3f87 13bc 64fb 04bd
00000350: 34c6 efbc f503 043b cd23 afbb 77f9 683c
00000360: 8a73 29bc 2304 a93a 8192 7dbd 1a92 3c3c
00000370: 1763 aabc b66a 21bd c48d 66bc 20c3 bf3c
00000380: 0359 07bd c6b7 4a3d 4b6d 193d 0725 ac3b
00000390: 9ac6 d93b a536 963d 8899 853c 938d 023d
000003a0: 396f cc3d 533c 603d 724b 49bd 5332 16bd
000003b0: 646b 91bb dc02 07bd 2f8e 50bc bcb0 543c
000003c0: d45d 22bd 215e 1cbd 699c 253d 88be 153d
000003d0: 4fd5 c93d 2f30 65bd 142e 49bb cf64 c8bc
000003e0: de70 63bc f4f2 d0bc e5f0 be3d 9a51 edbc
000003f0: 041a 15bd 0fe4 99bc 6888 dfb9 6e47 2fbc

bn2.weight f4 [128]
1.0272064 1.0680392 1.0860765 0.8968514 0.9880522 0.9846414 1.0344076 1.0523163
0.94819236 1.0593442 1.0114131 0.97390556 1.034433 1.1250936 0.9983321 0.9266108
1.0671272 0.9433138 1.0414766 0.99102557 1.0800343 0.9113708 1.1204642 0.98657125
1.0217923 0.9717727 0.9615662 1.0129762 1.0374706 1.0399615 1.0192314 1.0291125
0.932042 0.894243 1.0908054 1.0587448 1.0849617 1.0408795 1.136069 1.0130944
1.1566209 1.0133945 1.0789598 1.0329202 0.8434051 1.0262933 0.9870086 1.1345761
0.98378277 0.8316321 1.0112002 1.1220206 1.036118 1.0483483 1.0156627 1.0392963
0.97585595 0.9980706 1.0512332 1.0920767 0.9388201 0.91639906 0.9822623 0.89883494
0.96186924 1.0489835 0.9649879 0.9558247 0.93307424 1.1657535 1.0426539 1.0584539
0.8696238 1.0364543 0.9207352 0.9675952 1.0429077 0.8692112 1.0338031 1.1059508
0.9491045 1.0379101 0.9855613 1.0830802 1.0910174 1.051567 1.0051368 0.89687544
1.0661811 1.0206587 1.0773877 1.2078139 1.0133119 0.9758687 1.0686207 0.90825856
0.9699588 1.0579385 1.0504295 1.0790776 1.0169756 1.0605813 1.0904438 1.0449213
1.0065085 0.9330598 1.020233 1.0069994 1.0152512 0.9874116 0.97170174 1.0349131
0.978035 0.95726746 0.893067 0.8816792 0.8957627 0.94546694 0.9758246 1.0089597
1.1868764 1.0073842 0.95483285 1.0010822 1.0314469 1.1183591 0.97917694 1.0709596
00000000: 807b 833f 82b5 883f 8e04 8b3f 0e98 653f
00000010: fdf0 7c3f 7511 7c3f 7867 843f 4db2 863f
00000020: bcbc 723f 9798 873f fc75 813f e051 793f
00000030: 4d68 843f 1103 903f b192 7f3f 5e36 6d3f
00000040: a097 883f 037d 713f 1b4f 853f dab3 7d3f
00000050: 903e 8a3f 994f 693f 5f6b 8f3f ef8f 7c3f
00000060: 17ca 823f 18c6 783f 3429 763f 34a9 813f
00000070: d6cb 843f 751d 853f 2d76 823f f5b9 833f
00000080: 4e9a 6e3f 1ced 643f 839f 8b3f f384 873f
00000090: 06e0 8a3f 8a3b 853f b66a 913f 14ad 813f
000000a0: 270c 943f e9b6 813f 5b1b 8a3f bb36 843f
000000b0: 66e9 573f 945d 833f 98ac 7c3f ca39 913f
000000c0: 30d9 7b3f d7e5 543f 026f 813f 5f9e 8f3f
000000d0: 849f 843f 4730 863f 3c01 823f a907 853f
000000e0: b2d1 793f 8e81 7f3f cf8e 863f 2bc9 8b3f
000000f0: 8456 703f 2199 6a3f 8b75 7b3f 0c1a 663f
00000100: 103d 763f 1745 863f 7209 773f edb0 743f
00000110: f4dd 6e3f 6937 953f af75 853f 6b7b 873f
00000120: aa9f 5e3f 89aa 843f 4db5 6b3f 52b4 773f
00000130: 007e 853f a084 5e3f a953 843f cc8f 8d3f
00000140: 83f8 723f 3dda 843f bf4d 7c3f 5fa2 8a3f
00000150: 75a6 8b3f bf99 863f 53a8 803f a199 653f
00000160: 9f78 883f f2a4 823f d7e7 893f a599 9a3f
00000170: 34b4 813f 88d2 793f 90c8 883f a283 683f
00000180: 384f 783f 876a 873f 7974 863f 371f 8a3f
00000190: 422c 823f 21c1 873f aa93 8b3f fbbf 853f
000001a0: 45d5 803f 02dd 6e3f ff96 823f 5be5 803f
000001b0: c0f3 813f 02c7 7c3f 72c1 783f 0878 843f
000001c0: 8060 7a3f 7b0f 753f 0aa0 643f bab5 613f
000001d0: b450 653f 1f0a 723f a4cf 793f 9725 813f
000001e0: 91eb 973f f7f1 803f ed6f 743f 7623 803f
000001f0: 7406 843f 6426 8f3f 57ab 7a3f 3415 893f

bn2.bias f4 [128]
-0.03827478 -0.11023984 -0.016423488 -0.072291695 -0.14422731 -0.046265557 -0.05034667 -0.02555741
-0.1253619 -0.07568308 -0.1898816 -0.13648194 -0.060451202 -0.11511608 -0.06771372 -0.09586966
-0.04182743 -0.20465428 -0.1961343 -0.089379504 -0.014642643 -0.056868654 -0.01619653 -0.07661901
-0.056612752 -0.10067171 -0.11999475 -0.09801713 -0.103191346 -0.059574045 -0.12286479 -0.13174486
-0.12016947 -0.09844841 -0.09518833 -0.08895375 -0.07296745 -0.047460113 -0.15093163 -0.17704491
-0.069396235 -0.012558432 -0.077630624 -0.042375643 -0.11090642 -0.04449191 -0.09437997 -0.04912938
-0.0984081 -0.18695651 -0.067951016 -0.12987942 -0.08885692 0.03075702 -0.05126575 -0.13166797
-0.09532495 -0.1097295 -0.088691585 -0.11721371 -0.08276742 -0.13822418 -0.06801986 -0.08160572
-0.066366814 0.025881533 -0.054811593 -0.07141859 -0.12203806 -0.06201311 -0.053464 -0.08092453
-0.11596505 -0.11465818 -0.06455394 -0.08825968 0.003654578 -0.060184196 0.03342303 -0.075157315
-0.12800458 -0.07195 -0.06032218 -0.027346335 -0.05751303 -0.11373264 -0.1698104 -0.1432232
-0.052405246 -0.07549197 -0.078619175 -0.028315278 -0.086194746 -0.044432327 -0.060721226 -0.14822544
-0.11637065 -0.13375375 -0.18761452 -0.04566004 -0.09179402 -0.0525465 -0.07069304 -0.17495158
-0.053444862 -0.044598784 -0.08717492 -0.089354105 -0.14663458 -0.14485227 -0.047731828 -0.08783172
-0.12282238 -0.11593431 -0.08790148 -0.022591738 -0.052489728 -0.12746416 -0.07278399 -0.062167045
-0.10555809 -0.12958495 -0.044050112 -0.119766764 -0.07971533 -0.06038952 -0.19604172 -0.09670317
00000000: 04c6 1cbd 6dc5 e1bd 8d8a 86bc ab0d 94bd
00000010: 53b0 13be f480 3dbd 4f38 4ebd c65d d1bc
00000020: df5e 00be bbff 9abd 5270 42be ecc1 0bbe
00000030: ae9b 77bd fbc1 ebbd 7ead 8abd 5057 c4bd
00000040: 3d53 2bbd e490 51be 6ed7 48be 9a0c b7bd
00000050: b2e7 6fbc 1bef 68bd 96ae 84bc 6dea 9cbd
00000060: c6e2 67bd f82c cebd cfbf f5bd 34bd c8bd
00000070: fc55 d3bd ea03 74bd 89a0 fbbd 20e8 06be
00000080: 691b f6bd 529f c9bd 19f2 c2bd 622d b6bd
00000090: f56f 95bd 8965 42bd d28d 1abe 434b 35be
000000a0: 9d1f 8ebd e2c1 4dbc cefc 9ebd 1592 2dbd
000000b0: e822 e3bd 263d 36bd 494a c1bd e43b 49bd
000000c0: 308a c9bd 8771 3fbe e729 8bbd 1cff 04be
000000d0: 9efa b5bd 25f6 fb3c 09fc 51bd f8d3 06be
000000e0: ba39 c3bd dcb9 e0bd efa3 b5bd be0d f0bd
000000f0: f781 a9bd a48a 0dbe ff4d 8bbd e620 a7bd
00000100: 53eb 87bd 8205 d43c 1f82 60bd e943 92bd
00000110: 17ef f9bd 7501 7ebd 11fd 5abd c3bb a5bd
00000120: 167f edbd e8d1 eabd db34 84bd 7ec1 b4bd
00000130: a581 6f3b b483 76bd 96e6 083d 14ec 99bd
00000140: a213 03be 865a 93bd 6414 77bd 6c05 e0bc
00000150: c892 6bbd a9ec e8bd c7e2 2dbe 1aa9 12be
00000160: e2a6 56bd 899b 9abd 1703 a1bd 71f5 e7bc
00000170: df86 b0bd acfe 35bd d2b6 78bd 69c8 17be
00000180: bc53 eebd bef6 08be 051e 40be 0606 3bbd
00000190: 81fe bbbd 003b 57bd 83c7 90bd 8226 33be
000001a0: 00e9 5abd 37ad 36bd c488 b2bd 49ff b6bd
000001b0: 6027 16be 2754 14be 7382 43bd 1ee1 b3bd
000001c0: 4d8a fbbd f86e edbd b105 b4bd 4f12 b9bc
000001d0: 78ff 56bd f785 02be c60f 95bd dfa2 7ebd
000001e0: d72e d8bd ebb1 04be e46d 34bd 4748 f5bd
000001f0: ca41 a3bd 005b 77bd 29bf 48be 500c c6bd

bn2.running_mean f4 [128]
-0.035710588 -1.1919988 0.072569825 0.6147024 -0.53502864 -0.20006162 -0.5613358 -0.52997494
0.8070048 -1.4556099 -0.70802027 -0.2554337 -0.8112357 -0.37047297 0.7032112 0.20927161
-0.16570471 -0.27722257 -1.2256305 -0.19946195 0.042303402 0.09131985 -0.78045636 -0.39379033
-0.60211486 -0.28026062 -0.4778844 -1.2833868 -1.0928745 -0.3445919 -0.4157415 -0.43608707
-0.3896823 0.19061576 -0.61790854 0.13775277 -0.48038894 -0.16688122 -0.54764974 -0.4131829
-0.95792526 -0.050061706 -0.90824825 -0.7769014 -0.3914866 -0.13693227 0.18355647 -1.582446
-0.42921647 0.5284748 -0.77688104 -1.1339308 -1.1842945 -0.15641737 -0.54552275 -0.7851867
-0.25381735 0.03860182 -0.79533404 -0.30585513 -0.502614 -0.45065477 -0.60139656 -0.42232594
-0.6780425 -0.23428904 -0.27873746 -0.27486557 -0.15685228 -0.5214634 -0.3619917 -0.28214768
1.0160168 -0.92822397 -0.26757166 -0.39885765 0.23451576 0.72826004 0.27983478 -0.9448975
-0.55855244 0.004573201 -0.7785923 -0.5327298 -1.1567386 -0.65448755 -0.47148323 0.213315
-0.5598045 -0.5950773 -0.7718785 -1.0176393 -0.2512604 -0.43989676 -0.35146636 -0.24208724
0.23945639 -0.63064885 -0.22638322 -1.0141748 -1.2293597 -0.229776 -0.68606573 -0.63296103
-0.27949402 0.7652892 -0.9183494 -0.68412256 -0.86794055 -0.90814716 -0.7537379 -0.3599026
-0.22231632 -0.098143086 0.5753083 -0.7438851 -0.2261191 -0.5324789 -0.57361466 -0.8928501
-2.1391487 -0.2914745 -0.38248822 -0.69737315 -0.42822304 -0.65205914 -0.60488707 -0.7768884
00000000: 4445 12bd 6b93 98bf 7d9f 943d 235d 1d3f
00000010: a3f7 08bf f4dc 4cbe b4b3 0fbf 70ac 07bf
00000020: de97 4e3f 6d51 babf d140 35bf 35c8 82be
00000030: 25ad 4fbf a2ae bdbe a605 343f 4c4b 563e
00000040: 7fae 29be 1ef0 8dbe 76e1 9cbf c13f 4cbe
00000050: 5546 2d3d e705 bb3d fdcb 47bf e39e c9be
00000060: 3324 1abf 527e 8fbe 44ad f4be 0546 a4bf
00000070: 50e3 8bbf 596e b0be 12dc d4be ce46 dfbe
00000080: 7084 c7be c730 433e 412f 1ebf 100f 0d3e
00000090: 8af5 f5be e9e2 2abe c632 0cbf b68c d3be
000000a0: 973a 75bf 810d 4dbd f582 68bf 03e3 46bf
000000b0: ee70 c8be f937 0cbe 3af6 3b3e 978d cabf
000000c0: 43c2 dbbe 204a 073f ade1 46bf a524 91bf
000000d0: f696 97bf e02b 20be 61a7 0bbf ff01 49bf
000000e0: 59f4 81be f11c 1e3d 039b 4bbf 0b99 9cbe
000000f0: 50ab 00bf 39bc e6be 20f5 19bf 1b3b d8be
00000100: 3194 2dbf 77e9 6fbe adb6 8ebe 2ebb 8cbe
00000110: e29d 20be a07e 05bf fa56 b9be a975 90be
00000120: d70c 823f 16a0 6dbf 27ff 88be 1237 ccbe
00000130: e624 703e 406f 3a3f 8146 8f3e cde4 71bf
00000140: 4bfd 0ebf cada 953b d351 47bf fb60 08bf
00000150: 0310 94bf 7f8c 27bf 4066 f1be 3f6f 5a3e
00000160: 594f 0fbf fc56 18bf d499 45bf 0142 82bf
00000170: 34a5 80be 263a e1be 66f3 b3be b8e5 77be
00000180: 0e34 753e 3472 21bf 01d1 67be 7bd0 81bf
00000190: a95b 9dbf 664a 6bbe 01a2 2fbf bc09 22bf
000001a0: d719 8fbe fee9 433f f218 6bbf a822 2fbf
000001b0: 5a31 5ebf 557c 68bf f8f4 40bf 2745 b8be
000001c0: e4a6 63be 3eff c8bd 6847 133f 416f 3ebf
000001d0: c48b 67be 8a50 08bf 69d8 12bf d391 64bf
000001e0: d0e7 08c0 253c 95be 7fd5 c3be 0c87 32bf
000001f0: 0d40 dbbe 59ed 26bf e1d9 1abf 28e2 46bf

bn2.running_var f4 [128]
0.29837024 0.5016939 0.47237915 0.3050283 0.3116158 0.27376878 0.40418693 0.47991243
0.36448207 0.5826099 0.3022956 0.46052906 0.4577357 0.42920417 0.7043676 0.4632344
0.35215577 0.35655725 0.3696069 0.32934523 0.3954656 0.3360378 0.6905656 0.42576
0.34015897 0.30115 0.29403123 0.47719893 0.4841156 0.31333834 0.39386553 0.46973312
0.44044632 0.3695835 0.7586074 0.32911554 0.40852085 0.4704263 0.67177874 0.3577815
0.59797883 0.33484402 0.4709966 0.5821149 0.37811747 0.37850446 0.34114707 0.66251713
0.32649523 0.34470388 0.4464126 0.9268488 0.75454766 0.42317134 0.3473776 0.53759587
0.27305508 0.37330544 0.46676028 0.44500476 0.34091803 0.3366714 0.36571547 0.26968792
0.88766456 0.3622899 0.42073613 0.3116534 0.3139864 0.5900275 0.3525882 0.3463427
0.38740993 0.44742176 0.3484559 0.35030895 0.5027565 0.30484658 0.3675549 0.7978053
0.3423271 0.43588778 0.33551532 0.5468603 0.51153266 0.28626305 0.31764257 0.33865243
0.43358886 0.4133201 0.4272066 0.79775894 0.26642302 0.49417913 0.3830368 0.2346997
0.3790631 0.37733588 0.3005769 0.44090044 0.6973131 0.37467787 0.52412796 0.35288048
0.4735266 0.7150389 0.313296 0.2670715 0.37371662 0.31912693 0.3153251 0.33269337
0.2924054 0.3349253 0.20711434 0.34974572 0.3355592 0.49967235 0.29354784 0.3539813
0.95569456 0.5213074 0.2599068 0.32976124 0.4511883 0.36966833 0.42869705 0.40959552
00000000: fcc3 983e 036f 003f aedb f13e ab2c 9c3e
00000010: 1b8c 9f3e 6c2b 8c3e 97f1 ce3e 15b7 f53e
00000020: 659d ba3e ec25 153f 7dc6 9a3e 77ca eb3e
00000030: 555c ea3e a6c0 db3e 6f51 343f 0f2d ed3e
00000040: c34d b43e ac8e b63e 1e3d bd3e f09f a83e
00000050: 787a ca3e 260d ac3e e8c8 303f 37fd d93e
00000060: 5129 ae3e 5530 9a3e 438b 963e 6b53 f43e
00000070: 00de f73e e26d a03e bea8 c93e dc80 f03e
00000080: 2e82 e13e 0c3a bd3e 1834 423f d581 a83e
00000090: a529 d13e b7db f03e b1f9 2b3f 232f b73e
000000a0: 2415 193f ad70 ab3e 7726 f13e 7b05 153f
000000b0: 9d98 c13e 56cb c13e d4aa ae3e b99a 293f
000000c0: 622a a73e 077d b03e 3190 e43e f745 6d3f
000000d0: 092a 413f eaa9 d83e 7adb b13e e29f 093f
000000e0: e0cd 8b3e e421 bf3e 34fb ee3e aad7 e33e
000000f0: cf8c ae3e 3260 ac3e 0f3f bb3e 8914 8a3e
00000100: fc3d 633f 107e b93e ba6a d73e 0991 9f3e
00000110: d3c2 a03e 0b0c 173f 7186 b43e d553 b13e
00000120: 985a c63e 7714 e53e d068 b23e b25b b33e
00000130: a6b4 003f da14 9c3e 2830 bc3e f83c 4c3f
00000140: 7f45 af3e af2c df3e aac8 ab3e 09ff 0b3f
00000150: cef3 023f 1291 923e 0ca2 a23e da63 ad3e
00000160: 5cff dd3e b19e d33e d3ba da3e ee39 4c3f
00000170: 9968 883e 0c05 fd3e 661d c43e 1e55 703e
00000180: 8f14 c23e 2b32 c13e 37e5 993e b4bd e13e
00000190: 1c83 323f c7d5 bf3e 402d 063f c0ac b43e
000001a0: 1472 f23e ca0c 373f 5568 a03e 98bd 883e
000001b0: c957 bf3e 9b64 a33e 4b72 a13e c956 aa3e
000001c0: 29b6 953e 547b ab3e c815 543e df11 b33e
000001d0: 6ace ab3e 0ed5 ff3e e74b 963e 093d b53e
000001e0: 66a8 743f 6774 053f 8112 853e 77d6 a83e
000001f0: 2702 e73e 2b45 bd3e 2e7e db3e 81b6 d13e

conv3.weight f4 [128, 128, 3, 3]
0.009656771 -0.019704077 0.0964103 -0.0065626367 -0.00039139527 0.021261746 0.00070283015 -0.0058776494
-0.01385223 0.016302282 0.0010370134 -0.023004824 -0.010766021 0.07744648 -0.029031923 0.01949782
0.0070727174 -0.038041417 -0.00910835 0.099028185 -0.0113304 0.0003401352 -0.021072777 -0.026061444
-0.0071119014 -0.0260442 -0.0014806653 -0.019660225 0.004601957 0.022090802 -0.044799723 0.022593435
-0.00998718 -0.0053029745 0.015229479 -0.005800216 0.014772904 0.010391028 0.017546797 0.051800307
-0.010035141 -0.0005377977 0.07657839 0.040952362 -4.650878e-05 -0.034427024 0.05225721 0.016154831
-0.038416345 0.008388968 0.0010498057 -0.029102448 -0.00076075183 -0.012801647 0.018848445 -0.036384348
-0.0032053648 0.020738035 -0.039817072 0.009684352 -0.002573119 -0.034514874 -0.00704783 -0.007822877
0.005316703 0.017828926 0.0019711363 -0.029511444 -0.011405754 0.012994459 -0.09163665 -0.021755263
-0.025067355 -0.0113256145 0.027902218 -0.06316722 -0.030187942 0.047579173 0.01836542 -0.014376733
0.023317968 -0.0025192264 -0.019171039 -0.0421307 0.0055019413 0.029237365 -0.02041433 0.030092526
0.0015962864 0.007788335 0.0037422252 -0.008758254 -0.011969876 -0.011617635 -0.031926833 -0.012918885
-0.015647778 -0.009710107 0.012775186 -0.034813065 -0.01825602 -0.007019391 -0.024644021 -0.0048349937
0.018626472 0.017250761 0.03987004 0.008541107 -0.012376997 0.059726946 0.03946007 -0.008430611
-0.03711988 0.01618362 -0.0034286361 -0.039820928 -0.025227088 -0.011129266 0.04710735 0.019061483
-0.09292675 -0.0025703239 -0.026248937 0.0031451478 0.015574492 0.0090605095 0.04736716 0.017783692
-0.00868055 0.0010220155 -0.015496567 -0.04089738 -0.011687804 0.020227322 -0.03347705 -0.024998944
0.034051124 -0.025340945 -0.005026843 0.008136182 -0.008546185 -0.013471645 0.00193738 -0.03514295
3.1078427e-05 -0.024228059 0.0008481777 0.004692833 0.011651417 -0.02019739 0.0071603926 -0.017292967
-0.049964346 0.0009752561 0.0012016882 -0.011264304 -0.032499578 -0.00408883 -0.016410029 -0.023247441
-0.03196375 0.00058024167 -0.00876453 0.04914776 -0.005648853 0.0032401308 -0.016267046 -0.014562996
-0.02408661 -0.017906377 -0.014256177 -0.06842767 -0.0068067815 -0.058666218 -0.022688093 -0.034228723
-0.0052021397 -0.063392505 0.015154526 -0.020934997 -0.04703632 -0.035984904 -0.024956854 -0.05496927
-0.033043977 0.001340049 0.0031025892 -0.036760412 0.010022417 0.00037831572 -0.011317711 -0.011093183
-0.015649216 -0.018649254 -0.000696112 -0.032035537 -0.015855948 0.001667077 -0.030363973 -0.010663342
0.039936557 -0.01981541 0.015956653 0.046233527 -0.07068103 0.016968373 0.027752154 0.026108772
-0.0009103105 0.046101578 0.06191253 -0.008977406 -0.013726502 0.032022133 0.05722388 -0.04761661
0.017952051 -0.009482423 -0.019348474 -0.010492498 -0.010600982 0.014716975 0.017887251 -0.026019685
-0.038048968 -0.006998274 -0.015061216 -0.009290768 0.02278112 0.0028040418 0.019794663 -0.00093903294
-0.000423646 -0.012208681 -0.004236519 0.025479104 -0.03193451 -0.022852788 -0.005156176 -0.011119456
0.00430277 -0.0036947175 0.03475544 -0.0025989648 -0.004330449 -0.033033792 -0.014581771 0.019161679
-0.014295359 0.056054514 0.010492605 -0.02032534 -0.014404783 -0.0004851551 0.022841018 0.048512653
00000000: 6f37 1e3c 726a a1bc c372 c53d 630b d7bb
00000010: 2f34 cdb9 1d2d ae3c 223e 383a 4c99 c0bb
00000020: 77f4 62bc 5d8c 853c 65ec 873a 9d74 bcbc
00000030: f763 30bc 439c 9e3d 5bd4 edbc e4b9 9f3c
00000040: 41c2 e73b 51d1 1bbd 303b 15bc 4acf ca3d
00000050: 24a3 39bc 2c54 b239 d1a0 acbc cf7e d5bc
00000060: f40a e9bb a55a d5bc e212 c2ba 7b0e a1bc
00000070: 03cc 963b c5f7 b43c ea7f 37bd de15 b93c
00000080: 45a1 23bc 93c4 adbb 1185 793c bd0f bebb
00000090: 0d0a 723c 213f 2a3c 4dbe 8f3c 8f2c 543d
000000a0: 6f6a 24bc fefa 0cba 22d5 9c3d aabd 273d
000000b0: 6c12 43b8 5a03 0dbd a80b 563d 2357 843c
000000c0: 755a 1dbd e271 093c a299 893a 4268 eebc
000000d0: 316d 47ba 00be 51bc 0e68 9a3c c107 15bd
000000e0: 1911 52bb d0e2 a93c 3a17 23bd 1eab 1e3c
000000f0: c6a1 28bb 785f 0dbd 7cf1 e6bb 862b 00bc
00000100: bd37 ae3b f80d 923c 2e2e 013b fcc1 f1bc
00000110: 33df 3abc b6e6 543c ffab bbbd 1838 b2bc
00000120: 0e5a cdbc 128f 39bc 3193 e43c d15d 81bd
00000130: b44c f7bc 61e2 423d 1473 963c 648c 6bbc
00000140: 5305 bf3c 9b19 25bb 950c 9dbc 3e91 2cbd
00000150: a149 b43b 3383 ef3c f43b a7bc 9a84 f63c
00000160: 7c3a d13a 4a35 ff3b 1f40 753b c87e 0fbc
00000170: 4c1d 44bc e557 3ebc b6c5 02bd bba9 53bc
00000180: c52f 80bc 2417 1fbc 044f 513c 2598 0ebd
00000190: a68d 95bc eb02 e6bb 42e2 c9bc de6e 9ebb
000001a0: 8b96 983c 7851 8d3c c44e 233d 00f0 0b3c
000001b0: e3c8 4abc 3ea4 743d e2a0 213d 8c20 0abc
000001c0: 040b 18bd 8393 843c f8b2 60bb 451b 23bd
000001d0: 0aa9 cebc 8657 36bc a3f3 403d d426 9c3c
000001e0: 6150 bebd e172 28bb 0308 d7bc d31e 4e3b
000001f0: 272c 7f3c 8872 143c 1104 423d 1baf 913c
00000200: de38 0ebc 26f5 853a 50e5 7dbc 0384 27bd
00000210: 347e 3fbc c5b3 a53c 3b1f 09bd 96ca ccbc
00000220: 3179 0b3d d097 cfbc 37b8 a4bb 9f4d 053c
00000230: 4c05 0cbc 2db8 5cbc afef fd3a 0ef2 0fbd
00000240: 355a 0238 ec79 c6bc 3e58 5e3a 56c6 993b
00000250: 96e5 3e3c ff74 a5bc baa1 ea3b fba9 8dbc
00000260: 6aa7 4cbd 54a8 7f3a f781 9d3a ea8d 38bc
00000270: 471e 05bd 98fb 85bb 536e 86bc 6b71 bebc
00000280: 6cec 02bd 5c1b 183a 1a99 0fbc 294f 493d
00000290: 031a b9bb 6058 543b 7842 85bc a299 6ebc
000002a0: 4851 c5bc 65b0 92bc bd92 69bc ce23 8cbd
000002b0: 6c0b dfbb fd4b 70bd 61dc b9bc 6b33 0cbd
000002c0: b676 aabb eed3 81bd b04a 783c df7f abbc
000002d0: 28a9 40bd e864 13bd 5172 ccbc 7527 61bd
000002e0: 1f59 07bd 95a4 af3a cf54 4b3b 1692 16bd
000002f0: 1035 243c ad58 c639 ec6d 39bc 2fc0 35bc
00000300: c932 80bc 52c6 98bc 497b 36ba b237 03bd
00000310: 55e4 81bc d281 da3a debd f8bc 4cb5 2ebc
00000320: 8494 233d ed53 a2bc 87b7 823c 5e5f 3d3d
00000330: 37c1 90bd 4201 8b3c 7c58 e33c 10e2 d53c
00000340: e7a1 6eba 02d5 3c3d fe97 7d3d f815 13bc
00000350: 1fe5 60bc a429 033d 9663 6a3d a209 43bd
00000360: 2e10 933c 2a5c 1bbc b180 9ebc bae8 2bbc
00000370: beaf 2dbc 781f 713c 4988 923c 3c27 d5bc
00000380: 3cd9 1bbd c751 e5bb 52c3 76bc 4e38 18bc
00000390: 799f ba3c 04c4 373b 6b28 a23c 6f29 76ba
000003a0: ce1c deb9 eb06 48bc 7fd2 8abb 8eb9 d03c
000003b0: c3cd 02bd c535 bbbc 24f5 a8bb 612e 36bc
000003c0: 40fe 8c3b 1323 72bb b85b 0e3d 6553 2abb
000003d0: 70e6 8dbb 714e 07bd 61e8 6ebc f4f8 9c3c
000003e0: 1537 6abc 6b99 653d 2de9 2b3c 5481 a6bc
000003f0: 0a02 6cbc 6a5c feb9 161d bb3c 34b5 463d

bn3.weight f4 [128]
1.2686511 1.3288387 1.2834493 1.1998717 1.2468185 1.3619533 1.2230866 1.295066
1.2545754 1.2764493 1.3707361 1.4240755 1.3052931 1.2196211 1.2058862 1.2729753
1.2133149 1.2170748 1.1846658 1.1933354 1.2244129 1.2914195 1.3477094 1.4006056
1.2780496 1.2269818 1.2551856 1.3517765 1.2407386 1.2715502 1.270081 1.3440744
1.4205291 1.3536866 1.2381457 1.3639854 1.3758409 1.297776 1.2206287 1.3458142
1.3875219 1.2466863 1.304678 1.3015388 1.335053 1.3466067 1.3230813 1.2198858
1.2856133 1.249823 1.2767118 1.291924 1.3436458 1.2427782 1.287249 1.27379
1.2393953 1.2945541 1.3481202 1.2051612 1.3754026 1.3709811 1.3514799 1.2513077
1.2563441 1.3001869 1.2055798 1.2295805 1.3460846 1.4442521 1.3384075 1.2762932
1.2631819 1.2270513 1.353021 1.2312667 1.2494911 1.2505358 1.3988394 1.3495789
1.2890018 1.3159157 1.2852131 1.3781155 1.4226663 1.2357041 1.288639 1.265026
1.3600471 1.2413706 1.2485794 1.2818803 1.2546872 1.1977109 1.2285762 1.4046898
1.2896913 1.4139539 1.3802868 1.2627261 1.3235557 1.3239413 1.2330333 1.2928602
1.3500458 1.3508322 1.2892475 1.3304684 1.4034343 1.3534759 1.2167861 1.2432809
1.2643818 1.3712544 1.2936084 1.4158553 1.2913432 1.2864269 1.259001 1.4337724
1.2819477 1.2131913 1.2317616 1.2652403 1.2324731 1.2521089 1.3013725 1.2477149
00000000: 2963 a23f 6317 aa3f 1148 a43f 6595 993f
00000010: c097 9f3f 7c54 ae3f 1a8e 9c3f b9c4 a53f
00000020: ed95 a03f b162 a33f 4874 af3f 1b48 b63f
00000030: d813 a73f 8b1c 9c3f 7b5a 9a3f dbf0 a23f
00000040: e74d 9b3f 1bc9 9b3f 21a3 973f 37bf 983f
00000050: 90b9 9c3f 3c4d a53f be81 ac3f 0b47 b33f
00000060: 2197 a33f bd0d 9d3f eca9 a03f 0307 ad3f
00000070: 86d0 9e3f 28c2 a23f 0492 a23f a10a ac3f
00000080: e6d3 b53f 9a45 ad3f 8f7b 9e3f 1397 ae3f
00000090: 8e1b b03f 861d a63f 903d 9c3f a443 ac3f
000000a0: 519a b13f 6b93 9f3f b0ff a63f d398 a63f
000000b0: 04e3 aa3f 9c5d ac3f ba5a a93f 3825 9c3f
000000c0: fa8e a43f 33fa 9f3f 4b6b a33f c45d a53f
000000d0: 96fc ab3f 5b13 9f3f 93c4 a43f 8d0b a33f
000000e0: 81a4 9e3f f3b3 a53f 348f ac3f b942 9a3f
000000f0: 310d b03f 4f7c af3f 4bfd ac3f da2a a03f
00000100: e2cf a03f 866c a63f 7050 9a3f e562 9d3f
00000110: 804c ac3f 41dd b83f f050 ab3f 935d a33f
00000120: f2af a13f 0410 9d3f cb2f ad3f 269a 9d3f
00000130: 53ef 9f3f 8f11 a03f 2b0d b33f 00bf ac3f
00000140: 03fe a43f ed6f a83f dd81 a43f 1766 b03f
00000150: ee19 b63f 8d2b 9e3f 1ff2 a43f 5fec a13f
00000160: 0616 ae3f 3be5 9e3f 73d1 9f3f a714 a43f
00000170: 9799 a03f 974e 993f fc41 9d3f e0cc b33f
00000180: 9b14 a53f 71fc b43f 3dad b03f 02a1 a13f
00000190: 466a a93f e976 a93f 09d4 9d3f 717c a53f
000001a0: 4dce ac3f 12e8 ac3f 1006 a53f ca4c aa3f
000001b0: bca3 b33f b33e ad3f a6bf 9b3f d423 9f3f
000001c0: 43d7 a13f 4485 af3f f694 a53f bf3a b53f
000001d0: bc4a a53f a3a9 a43f f226 a13f db85 b73f
000001e0: dd16 a43f da49 9b3f 5daa 9d3f 65f3 a13f
000001f0: aec1 9d3f 1b45 a03f 6093 a63f 1fb5 9f3f

bn3.bias f4 [128]
0.25350258 0.28701907 0.25884697 0.19152033 0.2374794 0.36516297 0.20231995 0.26645735
0.19013071 0.31626746 0.004766211 0.34867755 0.17105429 0.19701338 0.22936718 0.2556641
0.2026721 0.19401327 0.16961123 0.17897403 0.20295428 0.24319726 0.31463987 0.3365085
0.018128796 0.062268957 0.17405622 0.32898366 0.22791724 0.00866527 0.25455448 0.24544328
0.39313358 0.48792702 0.21723026 0.30899695 0.37862003 0.23738286 0.20157863 0.13953875
0.11798563 0.22854087 0.28231162 0.2770025 0.021162761 0.18359101 0.23896888 0.1998564
0.26561305 0.2230261 0.25544038 0.2746962 0.10965961 0.25830045 0.27138844 0.26577067
0.22100289 0.26957357 0.27069432 0.18362893 0.33100355 0.2988845 0.09121905 0.24033782
0.23100205 0.2872991 0.19462706 0.21047617 0.16460213 0.3663825 0.3301455 0.26026267
0.25091147 0.20290567 0.34979126 0.21306379 0.23027073 0.22678939 0.2518114 0.095450416
0.26875815 0.29211742 0.26065287 0.3291879 0.29998088 0.22593765 0.2665643 0.2556177
0.40383705 0.21871135 0.25732863 0.25985134 0.22236583 0.24349715 0.2094895 0.2144001
0.21201466 0.30006528 0.07435352 0.2332533 0.3271017 0.26588005 0.21230938 0.27139142
0.30006087 0.25829908 0.2648935 0.28158554 0.17371401 0.29797468 0.20340197 0.23008835
0.23558536 0.35649684 0.27054405 0.4113031 0.28514007 0.27405402 0.10659667 0.15271917
0.22891337 0.19607256 0.20944111 0.21991552 0.21621083 0.18734662 0.26313072 0.21634291
00000000: 17cb 813e 2af4 923e 9787 843e e81d 443e
00000010: cd2d 733e a4f6 ba3e f62c 4f3e 196d 883e
00000020: a0b1 423e cfed a13e e02d 9c3b dd85 b23e
00000030: db28 2f3e e0bd 493e 3bdf 6a3e 68e6 823e
00000040: 4689 4f3e 6aab 463e 91ae 2d3e f844 373e
00000050: 3fd3 4f3e b408 793e 7a18 a13e d84a ac3e
00000060: d782 943c bc0d 7f3d cb3b 323e 8c70 a83e
00000070: 2363 693e c7f8 0d3c f754 823e 7c55 7b3e
00000080: ce48 c93e 92d1 f93e 9c71 5e3e d934 9e3e
00000090: 7cda c13e 7e14 733e a16a 4e3e 3fe3 0e3e
000000a0: 73a2 f13d 9e06 6a3e 268b 903e 46d3 8d3e
000000b0: 875d ad3c 48ff 3b3e 42b4 743e 28a7 4c3e
000000c0: 6ffe 873e f460 643e 15c9 823e fba4 8c3e
000000d0: 3895 e03d f53f 843e 6df3 8a3e 1813 883e
000000e0: 954e 623e 8c05 8a3e 7298 8a3e 3909 3c3e
000000f0: 4c79 a93e 6407 993e 0ed1 ba3d 1e1b 763e
00000100: cd8b 6c3e de18 933e 514c 473e 1187 573e
00000110: 768d 283e 7d96 bb3e d508 a93e 2641 853e
00000120: 7877 803e 81c6 4f3e d717 b33e 652d 5a3e
00000130: 17cc 6b3e 7a3b 683e 6ced 803e 827b c33d
00000140: ab9a 893e 6a90 953e 4b74 853e 518b a83e
00000150: 1897 993e 335c 673e 1e7b 883e 53e0 823e
00000160: bbc3 ce3e def5 5f3e 94c0 833e 3c0b 853e
00000170: deb3 633e 5157 793e 6a84 563e b38b 5b3e
00000180: 5f1a 593e 28a2 993e a946 983d f4d9 6e3e
00000190: e079 a73e 6e21 883e a167 593e d1f3 8a3e
000001a0: 94a1 993e c73f 843e 1fa0 873e fb2b 903e
000001b0: 16e2 313e 2390 983e 9b48 503e 489c 6b3e
000001c0: 4a3d 713e c186 b63e c084 8a3e 5296 d23e
000001d0: e1fd 913e cf50 8c3e 5b4f da3d 6a62 1c3e
000001e0: 4468 6a3e 3fc7 483e bb77 563e 8931 613e
000001f0: 5f66 5d3e cbd7 3f3e 12b9 863e ff88 5d3e

bn3.running_mean f4 [128]
-0.8946002 -0.86732936 -0.6005702 -0.27283397 -0.7593459 -0.741662 -0.27165234 -0.11492955
-0.26494455 -0.24717227 0.5070636 -0.29426312 0.40324438 -0.39351693 -0.78481925 -0.5627061
-0.38708636 -0.52108806 -0.48442006 -0.35578513 -0.4768013 -0.16308317 0.33281553 -0.68727523
0.17778909 -1.1021305 -0.7210173 0.3025934 -1.2649139 0.32690644 -0.76286143 -0.56023353
0.9401501 -0.29231423 -0.6229828 -0.13454664 -1.45813 -1.1339661 -0.8182 0.15073657
0.415851 -0.6041325 -0.5272518 -0.1926265 0.6768422 0.59465724 0.20573281 -1.0284743
-0.5365167 -0.9022706 -0.5244175 -0.6957344 -0.42955315 -0.9280281 -0.7855988 -2.0021696
-0.49745628 -1.3760602 0.6798061 -0.2768037 0.5224935 -0.6893168 -0.08493952 -0.59103054
0.20519058 -0.08299215 -0.6934739 -0.5152493 0.2684638 0.693048 -1.0854622 -0.6321217
-0.3593858 -0.67074376 -0.36734417 -0.4430174 -0.45008236 -0.49355954 -0.57575184 -0.88102317
-1.4951584 -0.5211679 -0.34342903 -0.14842595 0.4997181 -0.6633788 -1.4484061 -0.27449948
0.41634122 -0.27099553 -0.23275776 -1.3635166 -0.2638418 -0.8030119 -0.8102676 0.5848791
-0.13964425 -0.14854823 0.9771444 -0.25206757 -1.8370497 -0.41490936 -0.8294379 -0.9155476
-0.06179668 -0.9117636 0.10844232 -1.2418733 0.25132924 0.35763064 -0.49319386 -0.9468387
-0.92512816 -0.07254311 -0.9255381 0.28834733 -0.906208 -0.6254299 -0.30645746 -0.007585744
-0.4339238 -0.9615317 -1.0550334 -1.1450565 -0.3778748 -0.75872624 -0.45176065 -0.13756463
00000000: 8504 65bf 4c09 5ebf f8be 19bf e5b0 8bbe
00000010: 7e64 42bf 90dd 3dbf 0416 8bbe 2f60 ebbd
00000020: d0a6 87be ba1a 7dbe ecce 013f a8a9 96be
00000030: 0c76 ce3e 0d7b c9be eae9 48bf 820d 10bf
00000040: 2f30 c6be 0766 05bf e805 f8be 7829 b6be
00000050: 4d1f f4be 46ff 26be cc66 aa3e 45f1 2fbf
00000060: 580e 363e 9d12 8dbf 9794 38bf 86ed 9a3e
00000070: b3e8 a1bf 4860 a73e e34a 43bf 776b 0fbf
00000080: adad 703f 36aa 95be cd7b 1fbf 98c6 09be
00000090: 01a4 babf cd25 91bf 8e75 51bf b05a 1a3e
000000a0: 6cea d43e 6da8 1abf f9f9 06bf e23f 45be
000000b0: 8845 2d3f 753b 183f 9fab 523e 0ca5 83bf
000000c0: 2959 09bf 35fb 66bf 3a40 06bf a61b 32bf
000000d0: 64ee dbbe 4093 6dbf 011d 49bf 8c23 00c0
000000e0: 97b2 febe be22 b0bf c607 2e3f 37b9 8dbe
000000f0: 22c2 053f 1177 30bf c5f4 adbd c74d 17bf
00000100: 7b1d 523e caf7 a9bd 8187 31bf 61e7 03bf
00000110: 1674 893e 986b 313f 6df0 8abf bad2 21bf
00000120: 6a01 b8be ddb5 2bbf 8914 bcbe 2dd3 e2be
00000130: 3271 e6be d6b3 fcbe 7964 13bf bc8a 61bf
00000140: 5a61 bfbf 426b 05bf eed5 afbe f9fc 17be
00000150: 0ddb ff3e 31d3 29bf 5f65 b9bf 328b 8cbe
00000160: ad2a d53e edbf 8abe 0d58 6ebe b687 aebf
00000170: 4616 87be 3092 4dbf b36d 4fbf a3ba 153f
00000180: e7fe 0ebe 071d 18be 2326 7a3f 000f 81be
00000190: 7224 ebbf 006f d4be 0b56 54bf 5461 6abf
000001a0: 841e 7dbd 5769 69bf 0217 de3d b4f5 9ebf
000001b0: 3aae 803e 5d1b b73e e883 fcbe 0564 72bf
000001c0: 33d5 6cbf 7b91 94bd 11f0 6cbf 43a2 933e
000001d0: 3ffd 67bf 2d1c 20bf fee7 9cbe d591 f8bb
000001e0: 432b debe f126 76bf 560b 87bf 3691 92bf
000001f0: ce78 c1be e23b 42bf 2c4d e7be bedd 0cbe

bn3.running_var f4 [128]
0.8132274 0.85187745 1.4850476 1.0077637 0.8450154 0.7517238 1.0553378 0.99455756
0.6814798 0.9203089 0.33507454 0.572564 0.4915368 0.84745085 0.89083433 0.7430848
0.85387397 0.78190786 0.73887926 0.6949087 0.70125043 1.1402458 0.7028605 0.31145495
0.31342933 0.82682747 2.0953112 0.7997929 1.4729059 0.3837608 0.73522854 0.52346265
0.67593676 0.6183628 1.427093 0.5121717 0.8352943 0.5315152 1.2194712 0.7225795
0.6346699 0.65296465 1.6717633 0.9229097 0.37889004 0.46948856 0.35743594 0.8068901
0.7786292 1.1601723 0.7082806 1.0241652 0.37110215 0.56555533 0.68568176 1.902839
0.6887939 0.90534014 0.6835094 1.1052945 0.59506875 0.78530556 0.5197852 0.57321274
1.096183 0.6718531 1.0284933 1.7125852 0.91538894 0.37960574 0.80515766 0.56876594
0.8711038 0.6877875 0.8059166 0.557323 1.23847 0.785126 0.98879755 0.34692353
1.4074969 0.5547893 1.1805806 0.44662392 0.5761889 0.57185745 0.98755133 0.72680265
0.49287653 0.90559053 0.9576945 0.5864063 0.9237092 0.50640523 0.955126 0.5617545
0.47442532 0.55279547 1.0452273 0.72251827 0.86279285 0.5965543 0.7339299 0.752158
0.4544998 0.90045875 1.1294477 1.1479486 0.34761098 0.8594968 0.58607316 1.0648217
0.87108576 0.7223935 0.43279213 0.6464497 1.1864669 0.6514427 0.6074954 0.37522355
1.4195993 0.6427108 0.85724795 0.60115945 0.74291974 0.6025254 0.36405975 1.1178399
00000000: ac2f 503f a414 5a3f 0a16 be3f 67fe 803f
00000010: ee52 583f f970 403f 4f15 873f 539b 7e3f
00000020: 7675 2e3f 5d99 6b3f e48e ab3e 8e93 123f
00000030: b6aa fb3e 8af2 583f b80d 643f ce3a 3e3f
00000040: 7c97 5a3f 1d2b 483f 3127 3d3f 89e5 313f
00000050: 2685 333f 93f3 913f aaee 333f 0677 9f3e
00000060: cf79 a03e f7aa 533f 9419 0640 3abf 4c3f
00000070: 2e88 bc3f 4c7c c43e f037 3c3f a601 063f
00000080: 310a 2d3f 064d 1e3f fcaa b63f af1d 033f
00000090: d9d5 553f 6111 083f a217 9c3f f8fa 383f
000000a0: ba79 223f b128 273f 57fc d53f cf43 6c3f
000000b0: e0fd c13e ce60 f03e d801 b73e 5990 4e3f
000000c0: 3e54 473f 8780 943f e151 353f d817 833f
000000d0: 1a01 be3e 3cc8 103f d788 2f3f 3a90 f33f
000000e0: cc54 303f 5fc4 673f 79fa 2e3f 4a7a 8d3f
000000f0: 6d56 183f c909 493f a510 053f 12be 123f
00000100: b94f 8c3f 91fe 2b3f aba5 833f fe35 db3f
00000110: ee56 6a3f af5b c23e d01e 4e3f a59a 113f
00000120: a900 5f3f d712 303f 8d50 4e3f b8ac 0e3f
00000130: 2f86 9e3f 04fe 483f d621 7d3f f69f b13e
00000140: dc28 b43f ac06 0e3f 441d 973f e4ab e43e
00000150: 1e81 133f 4065 123f 2ad0 7c3f bd0f 3a3f
00000160: 505a fc3e c8d4 673f 772b 753f b91e 163f
00000170: 3578 6c3f c6a3 013f 2383 743f 25cf 0f3f
00000180: e0e7 f23e 0184 0d3f 02ca 853f f5f6 383f
00000190: fedf 5c3f c8b7 183f d4e2 3b3f 6d8d 403f
000001a0: 33b4 e83e 7784 663f be91 903f fbef 923f
000001b0: 11fa b13e fb07 5c3f e408 163f 144c 883f
000001c0: 7aff 5e3f c8ee 383f ee96 dd3e ba7d 253f
000001d0: 26de 973f f3c4 263f d284 1b3f 4d1d c03e
000001e0: 6eb5 b53f b288 243f 9a74 5b3f 96e5 193f
000001f0: fd2f 3e3f 1b3f 1a3f 0a66 ba3e 6115 8f3f
