models/constrained_binary_model.pt (torch, 958236 bytes, 20 tensors)

conv1.weight f4 [64, 21, 3, 3]
0	0x3d37915c	0.04481636
1	0x3d1cb772	0.038260885
2	0x3d30fe88	0.04321149
3	0x3c4cc418	0.012497924
4	0x3cc77ac7	0.024350537
5	0x3db15582	0.086588874
6	0x3d7a104a	0.06105069
7	0xbd62655b	-0.05527244
8	0xbd75fb80	-0.060054302
9	0x3d5cd755	0.053916294
10	0x3d40e24e	0.04709082
11	0xbd3b0f09	-0.045668636
12	0xbc32c94b	-0.01091225
13	0x3d260e19	0.04054079
14	0xbc1008b7	-0.00879114
15	0xbd36ae6d	-0.04459994
16	0x3ac2d8b3	0.0014865607
17	0x3d0b013d	0.033936728
18	0xbe1e31eb	-0.1544873
19	0x3decb381	0.11557675
20	0xbd75202d	-0.05984514
21	0x3e2795be	0.16365716
22	0x3d826f7f	0.063689224
23	0xbdb25dec	-0.087093204
24	0xbd86e611	-0.065868504
25	0x3e058ccd	0.13041992
26	0x3c31c250	0.01084955
27	0xbcbecb41	-0.023290278
28	0xbe5d474b	-0.21609227
29	0x3dc01392	0.09378733
30	0xbe462b4f	-0.19352458
31	0xbd4e4937	-0.050362792
32	0xbd0eb45c	-0.034839973
33	0xbcf07ca8	-0.029356316
34	0xbccf1e7e	-0.025283094
35	0x3ddbeb93	0.107382916
36	0x3d28517c	0.041093335
37	0x3ca99565	0.02070112
38	0xbcb1c6ae	-0.021701183
39	0xbd077104	-0.033066764
40	0xbdbabc2f	-0.091179244
41	0x3d6cec50	0.057842553
42	0x3d94aaba	0.07259126
43	0x3e07da47	0.1326686
44	0xbd63c5ce	-0.055608563
45	0xbcfcddfe	-0.030867573
46	0x3cc18628	0.023623541
47	0xbd92f394	-0.07175365
48	0xbd54677f	-0.051856514
49	0x3c3a6598	0.011376761
50	0xbbd0d600	-0.006373167
51	0x3c85538c	0.01627519
52	0xbca09b08	-0.019605175
53	0xbcf411f2	-0.029793713
54	0xbd5e9565	-0.054341692
55	0x3dc6c007	0.09704595
56	0xbc295b93	-0.010336774
57	0x3e059318	0.13044393
58	0x3da5a9a9	0.08089001
59	0xbd8c8dc6	-0.06862979
60	0xbdb13506	-0.086526915
61	0xbdbc391e	-0.09190582
62	0x3d756349	0.05990914
63	0xbd44ca6e	-0.048044614
64	0x3d6780de	0.05651938
65	0x3b894b50	0.004189886
66	0x3c8bd878	0.017070994
67	0xbd082c5d	-0.033245433
68	0x3c1310c8	0.008976169
69	0xbd0e61ba	-0.034761168
70	0xbd4ae61f	-0.049535867
71	0x3d4eca1e	0.050485723
72	0x3d47f18f	0.048814353
73	0x3d198e46	0.0374892
74	0xbb38a38b	-0.002817365
75	0x3d9d1d20	0.07671571
76	0xbce53081	-0.02797723
77	0x3cc6b61f	0.024256764
78	0x3db36db6	0.0876116
79	0x3d2fe9c7	0.042947557
80	0xbdbe6472	-0.09296502
81	0x3ced06ab	0.028933844
82	0xbd89a261	-0.067204244
83	0x3debec26	0.11519651
84	0xbcb3d76c	-0.021953307
85	0xbd1b2362	-0.03787554
86	0xbd4c0fed	-0.049819876
87	0xbde18bf9	-0.11013026
88	0xbc7cf92d	-0.0154402675
89	0xbd29dd50	-0.041470826
90	0x3d82eff4	0.06393424
91	0x3dd29871	0.10282982
92	0x3e106c69	0.14103855
93	0x3e2097b7	0.15682875
94	0x3da51700	0.080610275
95	0x3dd6dd34	0.1049141
96	0x3dd66a7d	0.1046953
97	0x3d83de62	0.064389005
98	0x3cd4a072	0.025955413
99	0x3d32a147	0.043610837
100	0x3b228c23	0.0024802766
101	0xb942f25c	-0.00018591568
102	0x3a6e6ac2	0.00090948876
103	0x3d86ab39	0.06575627
104	0x3df7c6eb	0.120984875
105	0xbd6d2881	-0.057899956
106	0x3dbb0ac7	0.09132915
107	0x3d65de46	0.05612018
108	0x3cfc02d8	0.030763075
109	0x3d64bcaa	0.055843987
110	0x3cb6db88	0.022321478
111	0xbc8fd09c	-0.017555527
112	0xbd191ce3	-0.037381064
113	0x3d06c5f2	0.03290362
114	0xbd80ead4	-0.0629479
115	0x3bb06cb0	0.0053840503
116	0x3d534a18	0.051584333
117	0xbd8e4ef6	-0.06948654
118	0x3b2c13d3	0.0026256933
119	0xbd002e15	-0.031293947
120	0x3d440067	0.047851946
121	0xbd56c669	-0.052435312
122	0x3d033c63	0.03204001
123	0x3d13d092	0.03608758
124	0xbd03ca37	-0.03217527
125	0x3b860560	0.004089996
126	0xbd980820	-0.07423425
127	0xbe1a3feb	-0.15063445
128	0xbe3180fa	-0.17334357
129	0x3de76fc4	0.113006145
130	0x3deb12a2	0.11478163
131	0x3c9e049c	0.019289307
132	0xbcdbc4d6	-0.026827257
133	0x3e280c00	0.16410828
134	0x3d8d6b55	0.069052376
135	0xbbed3195	-0.0072385767
136	0x3e14b320	0.14521456
137	0x3e5cfcee	0.2158086
138	0xbd186cad	-0.037213016
139	0x3dec8bdd	0.11550114
140	0xbd2c3f82	-0.042052753
141	0x3d7ce803	0.0617447
142	0xbd20ccc8	-0.039257795
143	0x3d9cffaa	0.076659516
144	0xbd04c220	-0.032411695
145	0x3d1007d5	0.03516372
146	0x3cc13590	0.02358511
147	0xbc8c3efc	-0.017119877
148	0xbce76bfb	-0.028249731
149	0x3d96ac01	0.07357026
150	0x3d92037d	0.071295716
151	0x3d0c90a1	0.034317616
152	0xbd3e29f0	-0.046426713
153	0xbd8e4104	-0.069459945
154	0x3b5792a9	0.0032893813
155	0xbe372865	-0.17886503
156	0x3d132cdf	0.035931464
157	0xbd11b805	-0.035575885
158	0xbd22cc0e	-0.039745383
159	0x3d709b19	0.058741663
160	0x3d27792a	0.040887035
161	0x3d3c485e	0.045967452
162	0xbd3e8da3	-0.046521794
163	0x3d091e18	0.033475965
164	0xbd34bdc5	-0.04412629
165	0x3e23d67a	0.15999785
166	0x3e5eec4f	0.21769832
167	0xbc3651c6	-0.011127895
168	0xbc8a6f76	-0.016898852
169	0x3cfff1ce	0.031243231
170	0x3d0601cb	0.032716554
171	0xbcb0a338	-0.021562204
172	0xbd49f1b1	-0.04930276
173	0xbd1459c7	-0.03621843
174	0x3d8c2589	0.06843097
175	0x3d8a5d45	0.06756071
176	0x3d5c4a0e	0.05378156
177	0xbcaab092	-0.020836148
178	0x3d83f4ab	0.06443151
179	0xbd86448f	-0.06556045
180	0xbc85475a	-0.016269375
181	0xbe496275	-0.19666465
182	0xbe660a2e	-0.2246482
183	0x3d892e03	0.06698229
184	0x3afae62d	0.0019142084
185	0xbe4e06df	-0.20119809
186	0xbdbbea66	-0.09175567
187	0x3db8ae3b	0.09017607
188	0x3ddbac3a	0.10726209
189	0x3d777e8e	0.060423426
190	0xbcd55e33	-0.026045894
191	0xbe0f4272	-0.1399019
192	0x3cb9331c	0.022607379
193	0x3cb5c29b	0.022187522
194	0xbd9a131b	-0.07523175
195	0x3c4b5ef9	0.01241278
196	0x3d0a0b2e	0.033702068
197	0xbccbabc4	-0.024862178
198	0xbd7098c6	-0.058739446
199	0x3bda28df	0.0066577042
200	0xbd8905ac	-0.06690535
201	0xbce973d1	-0.028497608
202	0xbd18fdd3	-0.03735144
203	0xbcd71eb6	-0.026259761
204	0xba50a95c	-0.0007959807
205	0x3dd3e340	0.10346079
206	0xbd894ea3	-0.06704452
207	0xbdadf428	-0.08493835
208	0x3d596c3d	0.05308174
209	0x3dc6c0d6	0.09704749
210	0xbcbe7ccf	-0.023252873
211	0x3d0bcd64	0.034131423
212	0xbe287043	-0.16449074
213	0xbd531815	-0.05153664
214	0xbd8d7230	-0.06906545
215	0x3cebfdc6	0.028807532
216	0xbd510ba9	-0.05103651
217	0x3db52c5c	0.088463515
218	0xbd48a174	-0.0489821
219	0xbe30d354	-0.17268115
220	0x3d4a727c	0.049425587
221	0xbb9f6a0a	-0.0048649358
222	0xbe745f54	-0.2386449
223	0x3e3c625a	0.18396893
224	0x3e05a640	0.130517
225	0x3d41cf91	0.04731709
226	0xbbe62bb0	-0.007024251
227	0x3d7d11cd	0.061784554
228	0xbdc74d50	-0.09731543
229	0xbdf502b3	-0.119634055
230	0xbe21ad47	-0.15788756
231	0xbdb39559	-0.0876872
232	0xbd91d0e5	-0.071199216
233	0x3da348d2	0.07972874
234	0xbd29e00b	-0.04147343
235	0x3c827fe4	0.015930124
236	0x3d5e7b22	0.054316647
237	0x3ccdd4f8	0.025125965
238	0xbc2e0d24	-0.01062325
239	0xbd77bfc8	-0.06048563
240	0xbd8b3876	-0.067978784
241	0xbd635fd0	-0.055511296
242	0x3c99bd7c	0.018767111
243	0xbceba461	-0.028764905
244	0x3b3dd14f	0.002896387
245	0xba409c3f	-0.0007347501
246	0x3d3e7976	0.046502553
247	0x3ce9a0eb	0.028519114
248	0xbb412764	-0.0029472942
249	0x3d2ba8ce	0.04190903
250	0x3d9159c0	0.070971966
251	0x3c035e6a	0.008018116
252	0x3d12589e	0.035729043
253	0xbd93a860	-0.07209849
254	0xbca9dbd2	-0.020734701
255	0xbc8daf28	-0.017295435

conv1.bias f4 [64]
0	0x3fc30dd4	1.5238595
1	0x3fbfab4b	1.497415
2	0x3fbcebfa	1.4759514
3	0x3fb37fd9	1.4023391
4	0x3fbf55bc	1.4948039
5	0x3fc7a8cc	1.5598388
6	0x3fc6c401	1.5528566
7	0x3fb9a42d	1.4503227
8	0x3fbc7923	1.4724468
9	0x3fbf72e4	1.4956937
10	0x3fb8dffa	1.4443352
11	0x3fbdfd82	1.484299
12	0x3fc9c957	1.5764569
13	0x3fbc442d	1.4708306
14	0x3fac45d4	1.345881
15	0x3fb85095	1.4399592
16	0x3fd8e8d0	1.6946049
17	0x3fb3f5d1	1.4059392
18	0x3fb92888	1.4465494
19	0x3fc2182a	1.5163624
20	0x3fc857ed	1.5651833
21	0x3fc542a2	1.541096
22	0x3fb9a301	1.450287
23	0x3fba4bec	1.455442
24	0x3fc1a928	1.5129747
25	0x3fbe336f	1.4859446
26	0x3fc2932a	1.5201161
27	0x3fbe75bd	1.4879681
28	0x3fcd63f8	1.6046133
29	0x3fc42b17	1.532565
30	0x3fd1e8f1	1.6399213
31	0x3fb2d0f6	1.397002
32	0x3fbb0280	1.4610138
33	0x3fb851b6	1.4399936
34	0x3fb73e88	1.4315958
35	0x3fcb0e29	1.5863696
36	0x3fb067b2	1.3781645
37	0x3fc020cf	1.5010012
38	0x3fcb9b5e	1.5906789
39	0x3fcb5667	1.5885743
40	0x3fc588dd	1.5432392
41	0x3fb61082	1.4223788
42	0x3fc0e052	1.5068457
43	0x3fb9ebd3	1.4525093
44	0x3fb529f8	1.4153433
45	0x3fc3b204	1.5288701
46	0x3fb23f30	1.3925533
47	0x3fbd15da	1.4772294
48	0x3fb80dc7	1.4379205
49	0x3fbeb7d9	1.4899856
50	0x3fa62bd1	1.2982122
51	0x3fbdd5f3	1.4830917
52	0x3fc982c4	1.5743032
53	0x3fba8f00	1.457489
54	0x3fcf5718	1.6198454
55	0x3fd7ecad	1.6869103
56	0x3fb36ff9	1.4018546
57	0x3fce1719	1.6100799
58	0x3fbcc2c1	1.4746934
59	0x3fc78a64	1.5589108
60	0x3fc325ca	1.5245907
61	0x3fbc0edc	1.4692035
62	0x3fba4fc6	1.4555595
63	0x3fbf5b3a	1.4949715

bn1.weight f4 [64]
0	0x3f463f2f	0.7744016
1	0x3f74bc1d	0.9559954
2	0x3f786e12	0.97042954
3	0x3f954e69	1.1664554
4	0x3f7beb9a	0.98406374
5	0x3f77007a	0.964851
6	0x3f5dfc89	0.86713463
7	0x3f79e0fd	0.9760893
8	0x3f7f08db	0.9962289
9	0x3f758c3f	0.95917124
10	0x3f71410d	0.94239885
11	0x3f548ad7	0.8302435
12	0x3f5c7e6a	0.8613039
13	0x3f605fa2	0.87645924
14	0x3f81b850	1.0134373
15	0x3f730b6b	0.949393
16	0x3f6ea28a	0.93216765
17	0x3f49d3f9	0.7883907
18	0x3f5baeb5	0.85813457
19	0x3f761f7e	0.96141803
20	0x3f7acd7e	0.97969806
21	0x3f7f550f	0.99739164
22	0x3f7c2556	0.9849447
23	0x3f569b42	0.83830655
24	0x3f80bd59	1.0057784
25	0x3f74ed02	0.95674145
26	0x3f8924cd	1.0714356
27	0x3f870335	1.0547854
28	0x3f7972d2	0.97440827
29	0x3f7890a6	0.97095716
30	0x3f66e0fe	0.9018706
31	0x3f6d828c	0.92777324
32	0x3f56517e	0.837181
33	0x3f67def0	0.9057455
34	0x3f73aca4	0.95185304
35	0x3f72c570	0.94832516
36	0x3f5c7ac5	0.8612483
37	0x3f7e5595	0.9934934
38	0x3f70b449	0.94025093
39	0x3f674ff7	0.9035639
40	0x3f71e62c	0.9449184
41	0x3f865f9e	1.049793
42	0x3f81922e	1.0122736
43	0x3f766cae	0.9625958
44	0x3f5852f8	0.845016
45	0x3f61734f	0.8806657
46	0x3f58d00c	0.84692454
47	0x3f5e47d8	0.86828375
48	0x3f7492d7	0.9553656
49	0x3f762b9c	0.9616029
50	0x3f55af51	0.83470637
51	0x3f743f09	0.95408684
52	0x3f822035	1.0166079
53	0x3f714e08	0.9425969
54	0x3f692646	0.91074026
55	0x3f6d71fe	0.92752063
56	0x3f6f47c3	0.93468875
57	0x3f80d982	1.0066378
58	0x3f81d088	1.0141764
59	0x3f8028b5	1.0012423
60	0x3f89f5ef	1.0778178
61	0x3f80a1c9	1.0049373
62	0x3f74b857	0.9559378
63	0x3f6ebd5a	0.9325768

bn1.bias f4 [64]
0	0xbe2b9aa4	-0.1675821
1	0x3d1740f6	0.036927186
2	0xbd62c36e	-0.055362158
3	0xbd5c08b3	-0.053719234
4	0x3d43f426	0.04784026
5	0x3c648ff4	0.013950337
6	0xbe3d69db	-0.18497412
7	0xbd4d0f02	-0.05006314
8	0x3cfbd479	0.030740963
9	0x3bef4bac	0.007302722
10	0xbe430be4	-0.19047505
11	0x3d9c16d6	0.07621543
12	0x3e01360a	0.1261827
13	0xbe05c66b	-0.13063972
14	0xbd9432c3	-0.072362445
15	0xbb98987e	-0.0046568504
16	0x3cd5f7ab	0.026119074
17	0xbe26afec	-0.16278046
18	0xbdcfa096	-0.10138051
19	0xbe11f5ae	-0.14253876
20	0x3d7b0f01	0.061293606
21	0x3c883016	0.016624492
22	0x3d84d75d	0.0648639
23	0xbe3fb849	-0.18722643
24	0xbd4af3f9	-0.049549077
25	0xbccc5a4b	-0.024945399
26	0xbdc54f10	-0.096342206
27	0x3d4f8aac	0.050669357
28	0x3d7ce5e2	0.06174267
29	0x3ca82455	0.020525137
30	0xbb9e4677	-0.0048301774
31	0x3d68d6e4	0.05684556
32	0xbdff4b91	-0.12465585
33	0xbe0b1412	-0.13581875
34	0x3d448795	0.047980864
35	0x3cf93295	0.030419627
36	0xbe1643d4	-0.14674312
37	0xbb737051	-0.0037145803
38	0xbcc55c27	-0.024091793
39	0x3d21c30e	0.03949266
40	0xbd47da6b	-0.048792284
41	0x3c1c9d8a	0.009559045
42	0xbd9187d1	-0.07105983
43	0xbd82aabe	-0.06380223
44	0xbd13121f	-0.035905953
45	0x3ce5df98	0.02806072
46	0xbdec7cff	-0.115472786
47	0xbe011069	-0.12603916
48	0x3dc9677c	0.09834191
49	0x3daee99c	0.08540651
50	0xbe314549	-0.17311586
51	0x3d40bf70	0.04705757
52	0xbc17b4b8	-0.009259395
53	0xbe015612	-0.1263049
54	0x3d9a0426	0.075203225
55	0xbe2e869a	-0.17043534
56	0xbe216eb0	-0.1576488
57	0x3b2b7e50	0.0026167817
58	0x3da0c942	0.07850887
59	0x3c212cc5	0.009837334
60	0xbcb766bd	-0.022387857
61	0xbdec2c26	-0.11531858
62	0xbd2292c3	-0.039690744
63	0x3c45745a	0.012051666

bn1.running_mean f4 [64]
0	0x3fc3be3a	1.5292428
1	0x3fbcc240	1.474678
2	0x3fb98dfa	1.4496453
3	0x3fada877	1.3567036
4	0x3fbc5010	1.4711933
5	0x3fc47787	1.5348977
6	0x3fc4d1e1	1.537655
7	0x3fb6bb6a	1.4275944
8	0x3fb847d5	1.4396921
9	0x3fbd5bd1	1.4793645
10	0x3fb715ca	1.4303524
11	0x3fbc75b2	1.4723418
12	0x3fc87978	1.5662069
13	0x3fba98aa	1.4577839
14	0x3fa8bafd	1.3182064
15	0x3fb41183	1.4067844
16	0x3fd47566	1.6598327
17	0x3fb781fe	1.4336545
18	0x3fb84f0d	1.4399124
19	0x3fc0a4f4	1.505034
20	0x3fc59415	1.5435816
21	0x3fbe7d7d	1.4882046
22	0x3fb662c7	1.4248894
23	0x3fb8b5a3	1.4430431
24	0x3fbe8afd	1.4886166
25	0x3fb9e1d4	1.4522042
26	0x3fbeb976	1.4900348
27	0x3fb901ac	1.4453635
28	0x3fca43d5	1.5801951
29	0x3fc0caae	1.5061853
30	0x3fcef48b	1.6168379
31	0x3fafe5c1	1.374199
32	0x3fb9d9d4	1.4519601
33	0x3fb761c4	1.4326711
34	0x3fb353a7	1.4009904
35	0x3fc77930	1.5583858
36	0x3fb11bee	1.3836648
37	0x3fbc1c8b	1.4696211
38	0x3fc825c9	1.5636531
39	0x3fc84133	1.5644897
40	0x3fc04b08	1.5022898
41	0x3fb12cc2	1.3841784
42	0x3fbce432	1.475714
43	0x3fb61a39	1.4226753
44	0x3fb3535d	1.4009815
45	0x3fc1f053	1.5151466
46	0x3fb159e7	1.3855561
47	0x3fbb76e0	1.4645653
48	0x3fb50e00	1.4144897
49	0x3fba94c1	1.4576646
50	0x3fa99d10	1.3251057
51	0x3fb9a406	1.4503181
52	0x3fc6436e	1.5489328
53	0x3fb8be8d	1.4433151
54	0x3fcccb4f	1.5999545
55	0x3fd5cfca	1.6704037
56	0x3fb1c445	1.3888022
57	0x3fc8ca1d	1.568668
58	0x3fb814f5	1.4381396
59	0x3fc25a84	1.5183873
60	0x3fbf1636	1.4928653
61	0x3fb96d66	1.4486511
62	0x3fb5ca88	1.4202433
63	0x3fba4e03	1.4555057

bn1.running_var f4 [64]
0	0x3c226563	0.009911868
1	0x3cac10d1	0.021004112
2	0x3c77baa2	0.01512018
3	0x3cc757ee	0.02433392
4	0x3c776be1	0.015101404
5	0x3c2f9931	0.010717676
6	0x3c3c01c7	0.011475033
7	0x3c14af21	0.009074957
8	0x3c9ae822	0.018909518
9	0x3c060117	0.008178971
10	0x3c3c08ff	0.011476754
11	0x3c3298a2	0.010900648
12	0x3c0d9779	0.008642071
13	0x3c1d5263	0.009602162
14	0x3ca2f688	0.019892946
15	0x3c6f461d	0.014604119
16	0x3c8c02a3	0.017091101
17	0x3c4f5f23	0.01265696
18	0x3c57d58c	0.013173472
19	0x3c519975	0.012792935
20	0x3c329212	0.010899084
21	0x3cef2403	0.029191976
22	0x3c555ae5	0.013022159
23	0x3c4ed4bd	0.012623963
24	0x3c60392f	0.013685509
25	0x3c9e462f	0.019320576
26	0x3c56b002	0.013103487
27	0x3c9cd6d4	0.019145407
28	0x3c492f7c	0.012279388
29	0x3c37aa6e	0.011210067
30	0x3c2ffb0b	0.010741006
31	0x3ca9fbbd	0.020749921
32	0x3c00dc83	0.007865074
33	0x3be9ddb3	0.0071370243
34	0x3cb2be58	0.021819279
35	0x3c5a9217	0.013340495
36	0x3c10ee01	0.008845807
37	0x3c6b897f	0.014376043
38	0x3c57ff24	0.013183389
39	0x3c94b7c2	0.018154029
40	0x3cd9ffae	0.026611175
41	0x3c9c4d8a	0.019079942
42	0x3c9cc280	0.019135714
43	0x3c724037	0.014785818
44	0x3c43ae12	0.011943357
45	0x3c178f19	0.009250426
46	0x3c0d450c	0.008622419
47	0x3c4ce671	0.012506113
48	0x3c290f7d	0.010318634
49	0x3c92e6e1	0.017932357
50	0x3c3b5f9c	0.011436369
51	0x3c9783bf	0.018495439
52	0x3c30eac6	0.010798162
53	0x3c310a7e	0.010805724
54	0x3c36ce98	0.011157654
55	0x3c2e47fa	0.010637278
56	0x3c221f83	0.009895208
57	0x3cb7e123	0.02244622
58	0x3c7b69e4	0.0153450705
59	0x3cff80d8	0.031189367
60	0x3c743bb0	0.014906809
61	0x3c2d1dfd	0.010566232
62	0x3cb58d34	0.022162057
63	0x3cb14a2f	0.021641819

conv2.weight f4 [128, 64, 3, 3]
0	0xbd242cb0	-0.04008168
1	0xbceffd81	-0.029295685
2	0x3ca923b4	0.020646907
3	0x3d448792	0.047980852
4	0x3d15d2ca	0.036577977
5	0x3b46060f	0.0030216014
6	0x3d8183ae	0.06323944
7	0xbbd109d2	-0.0063793445
8	0x3c411013	0.011783618
9	0x3d7c4c50	0.061596215
10	0x3d3c7388	0.046008617
11	0xbc82a959	-0.015949892
12	0x3ba20590	0.0049445108
13	0xbce56d8d	-0.02800634
14	0x3bbdb085	0.005788865
15	0x3d06b597	0.03288802
16	0xbd1e3c1f	-0.038631555
17	0x3d8423fd	0.06452177
18	0x3d33a42c	0.04385774
19	0xbc787565	-0.015164708
20	0xbc934ace	-0.017980006
21	0x3da613ce	0.08109246
22	0xba293d65	-0.0006455987
23	0xbd20188d	-0.039085913
24	0xbc69c036	-0.014267018
25	0xbd056712	-0.032569
26	0x3d944652	0.07239975
27	0xbaf9452e	-0.001901781
28	0x3cad5811	0.021160157
29	0xbcde2255	-0.02711598
30	0x3d275743	0.040854704
31	0x3d4e37fe	0.050346367
32	0x3dc985f7	0.09840005
33	0x3cb7080d	0.022342706
34	0x3d3dd15c	0.04634224
35	0xbc31f407	-0.010861403
36	0xbce99c13	-0.028516805
37	0x3c95ebe0	0.01830095
38	0xbc2265e5	-0.009911989
39	0x3dac00a4	0.0839856
40	0x3d99ee37	0.07516139
41	0xbdbbb8ff	-0.091661446
42	0x3d0e5495	0.034748632
43	0x3d07cae1	0.033152465
44	0xbc0716b0	-0.008245155
45	0xbd8f7a84	-0.0700579
46	0xbca62558	-0.020281479
47	0x3df0760a	0.11741264
48	0xbc90c602	-0.017672542
49	0xbd90b039	-0.07064862
50	0x3d31b204	0.04338266
51	0x3d35cbf9	0.044383977
52	0xbd5a8f0d	-0.05335908
53	0x3d4a6d53	0.049420666
54	0x3d41ff5f	0.04736268
55	0xbd1cbd27	-0.038266327
56	0xbccdc1b6	-0.025116783
57	0x3d14e80a	0.036354102
58	0x3b47fbb8	0.0030515026
59	0xbd8bec08	-0.06832129
60	0x3d78850e	0.060673766
61	0x3d6257a0	0.055259347
62	0xbd74f2f6	-0.059802018
63	0x3db62e49	0.08895547
64	0xbc0d08ca	-0.0086080525
65	0xbcc9f19a	-0.024651337
66	0xbd4a18e7	-0.049340155
67	0x3cf9cd53	0.030493414
68	0x3b5e36cd	0.0033907176
69	0xbcfa3fd8	-0.030548021
70	0x3d8623fd	0.06549833
71	0x3d0160fd	0.031586636
72	0x3bf97285	0.0076125287
73	0xbdcf6a26	-0.10127668
74	0x3b2d2b41	0.0026423486
75	0xbd1d5d4f	-0.038419064
76	0x3d4be603	0.049779903
77	0x3c63017d	0.013855335
78	0xbcea65d3	-0.028613007
79	0xbcedaf23	-0.029014176
80	0x3cb9baf1	0.022672148
81	0xbbe1cc6d	-0.0068908245
82	0x3d17d200	0.037065506
83	0xbca5de8e	-0.020247724
84	0x3d8403cc	0.06446037
85	0xba87a2c9	-0.0010348196
86	0xbc86b237	-0.016442401
87	0x3d3d6252	0.046236344
88	0x3ce3edf8	0.027823433
89	0x3d8e5d81	0.06951428
90	0xbcef2474	-0.029192187
91	0x3d3fd69b	0.046835523
92	0xbc8a66a5	-0.016894648
93	0x3b7613ce	0.0037548426
94	0x3ca85f76	0.020553332
95	0xbd2dd8dd	-0.042443145
96	0x3c90d1ed	0.017678225
97	0xbbc72f45	-0.006078633
98	0xbda38e37	-0.0798611
99	0x3d41bc18	0.04729852
100	0x3bdb033c	0.006683735
101	0xbd7835bb	-0.060598116
102	0x3d90f85a	0.07078619
103	0xbc2c4654	-0.010514814
104	0x3d850a38	0.0649609
105	0x3cf38b37	0.029729469
106	0x3ce443d7	0.02786438
107	0xbd0a3e3f	-0.03375077
108	0xbc43d5e8	-0.011952855
109	0xbd352702	-0.044226654
110	0x3cc44425	0.023958275
111	0xbc83c598	-0.016085431
112	0x3d0a9af0	0.033839166
113	0xbd28d80f	-0.041221675
114	0xbd3e2a56	-0.046427093
115	0xbd4c72e8	-0.04991427
116	0xbb913901	-0.004431844
117	0xbd401c59	-0.046902034
118	0xbd054fb9	-0.032546733
119	0x3d886f57	0.066618614
120	0xbd29955a	-0.0414022
121	0xbc970873	-0.018436646
122	0x3d1f3670	0.038870275
123	0xbca87ef6	-0.020568352
124	0xbbb5ee1f	-0.005552068
125	0x3d87b5b9	0.06626458
126	0x3dbe7a73	0.09300699
127	0xbc32cd1a	-0.010913158
128	0xbcea12a9	-0.028573351
129	0x3d6b9db5	0.057523448
130	0xbbf22ae3	-0.0073903664
131	0xbc3c8392	-0.011505978
132	0xbd221997	-0.039575186
133	0x3cbebd1a	0.02328353
134	0xbd12a8da	-0.03580556
135	0xbd3ca4d1	-0.04605562
136	0xbbcfa748	-0.00633708
137	0xbd5a72d8	-0.05333218
138	0xbd4a0511	-0.049321238
139	0xbcbdeb83	-0.02318359
140	0x3cbcee3b	0.023062816
141	0xbc624774	-0.013810981
142	0xbcc5871d	-0.024112279
143	0x3c8cc59d	0.017184073
144	0xbacf8734	-0.001583314
145	0xbdb99066	-0.09060745
146	0xbced4956	-0.028965633
147	0x3c845e6f	0.01615831
148	0xbcf4ec66	-0.02989788
149	0xbcdfe862	-0.027332488
150	0x3d85a650	0.06525862
151	0xbc3a06d7	-0.01135417
152	0xbccf164e	-0.02527919
153	0x3c5400bb	0.012939627
154	0x3c2cf48a	0.0105563495
155	0xbc058560	-0.008149475
156	0xbcb1095c	-0.021610908
157	0x3c48deb4	0.012260128
158	0xbbcbeb8b	-0.0062231473
159	0x3c028c14	0.007967968
160	0x3ca76560	0.020434082
161	0xbc3baffa	-0.01145553
162	0x3c62b073	0.013836014
163	0xbbf623aa	-0.0075115757
164	0xbd6d4151	-0.05792362
165	0xbd622437	-0.05521032
166	0xbc1ed34d	-0.009693933
167	0xbd93131c	-0.07181379
168	0xbd3e612d	-0.046479393
169	0xbd40e5eb	-0.047094267
170	0xba3d9e3a	-0.00072333554
171	0xbc901d44	-0.01759208
172	0xbd06d527	-0.03291812
173	0xbbb0608b	-0.0053826026
174	0x3ca69259	0.020333456
175	0x3c1ac469	0.009446242
176	0x3d79969c	0.060934648
177	0x3c9585fe	0.018252369
178	0xbd2cf819	-0.042228792
179	0xbd3f3183	-0.046678077
180	0x3c92c376	0.017915469
181	0xbdbb22ea	-0.09137519
182	0x3c68235b	0.014168586
183	0xbc7b9082	-0.015354278
184	0xbbc52359	-0.0060161767
185	0x3c826b0b	0.015920183
186	0x3d3e7760	0.046500564
187	0xbd9f11ef	-0.077670924
188	0xbc920fd6	-0.017829817
189	0x3d17a7b4	0.03702517
190	0x3cec84a6	0.028871845
191	0xbdb29ab6	-0.08720915
192	0xbb17a9c4	-0.002314196
193	0xbc0d90ee	-0.008640511
194	0x3cd1ac89	0.025594966
195	0xbd29b54d	-0.041432668
196	0xbd107d68	-0.035275847
197	0x3d030e1a	0.03199587
198	0x3c83988e	0.016063955
199	0xbd74bcc0	-0.05975032
200	0xbbd26fec	-0.0064220335
201	0xbc6246fa	-0.013810867
202	0xbd3c932d	-0.046038795
203	0xbc6fe125	-0.014641081
204	0x3cabf10a	0.02098896
205	0x3cce3da6	0.02517588
206	0x3d02d6cd	0.03194313
207	0x3d0c4e4b	0.034254353
208	0x3bd6f15f	0.0065595354
209	0xbd264523	-0.040593278
210	0x3d19decc	0.03756599
211	0x3d2361b5	0.039888103
212	0xbc5aa57c	-0.013345119
213	0xbca0fcc3	-0.019651776
214	0x3d13bda3	0.036069524
215	0xbd97a6ee	-0.07404886
216	0xbda28463	-0.07935407
217	0x3d0daa03	0.034585964
218	0x3d0f901b	0.03504954
219	0x3caa62d9	0.020799087
220	0xbbe9f60a	-0.007139926
221	0x3cd94678	0.02652286
222	0xbdb17de1	-0.086665876
223	0x3d142a84	0.03617336
224	0x3b63e07e	0.003477126
225	0xbb3d8bbf	-0.0028922406
226	0xbb532fb7	-0.0032224485
227	0xbc11c5e2	-0.008897277
228	0x3d9b5cbb	0.07586046
229	0xbd3872d2	-0.045031376
230	0x3c1339c8	0.008985944
231	0x3d59e24e	0.053194337
232	0xbc875806	-0.016521465
233	0xbcdebed9	-0.027190613
234	0xbd0d6d7e	-0.034528248
235	0xbc332ae8	-0.010935523
236	0xbdf0d0df	-0.11758589
237	0x3d49169b	0.049093824
238	0xbbea58b9	-0.00715169
239	0xbcdd808d	-0.027038837
240	0x3d20d0e9	0.039261732
241	0xbd8de3ea	-0.06928237
242	0x3da64998	0.08119506
243	0xbd6037e8	-0.054740816
244	0x3c889bd3	0.016675865
245	0xbc52e664	-0.012872312
246	0x3d81b1dd	0.06332753
247	0x3dce4168	0.10071069
248	0xbcc43b33	-0.02395401
249	0x3d231e36	0.039823733
250	0x3d84eef0	0.06490886
251	0x3ccb0911	0.024784597
252	0xbd0fe285	-0.035128135
253	0xbd1aa4a0	-0.037754655
254	0xbc4a4471	-0.012345419
255	0xbb8f2de6	-0.004369485

conv2.bias f4 [128]
0	0x3fbf5d30	1.4950314
1	0x3fca7a19	1.5818511
2	0x3fcbca8d	1.5921189
3	0x3fbcf761	1.4762994
4	0x3fc9c462	1.5763056
5	0x3fce410b	1.61136
6	0x3fbf68aa	1.4953816
7	0x3fc31046	1.5239341
8	0x3fbe76a4	1.4879956
9	0x3fcb5bad	1.5887352
10	0x3fcd7ead	1.6054283
11	0x3fc6b94b	1.5525297
12	0x3fe09428	1.7545214
13	0x3fcfa14c	1.6221099
14	0x3fddebbf	1.7337569
15	0x3fbb92fc	1.4654231
16	0x3fc22593	1.5167717
17	0x3fad83be	1.355583
18	0x3fb89a92	1.4422171
19	0x3fd2ab52	1.6458533
20	0x3fd55808	1.666749
21	0x3fd3a177	1.653365
22	0x3fc337a2	1.5251353
23	0x3fc2a19b	1.5205568
24	0x3fbaac8e	1.458391
25	0x3fc95389	1.5728618
26	0x3fc7ec52	1.5618994
27	0x3fd3e843	1.6555256
28	0x3fd1b14f	1.6382235
29	0x3fc34e9c	1.5258365
30	0x3fd5830a	1.6680615
31	0x3fc761c6	1.5576713
32	0x3fda9742	1.707741
33	0x3fc8852f	1.5665644
34	0x3fcc5a5c	1.5965075
35	0x3fc73da6	1.5565689
36	0x3fb7a6e1	1.4347802
37	0x3fc97911	1.5740072
38	0x3fd6b094	1.6772637
39	0x3fcdd723	1.608128
40	0x3fbd4c0e	1.4788835
41	0x3fc714fc	1.5553279
42	0x3fbe381c	1.4860873
43	0x3fc59ece	1.5439088
44	0x3fcc08f9	1.5940238
45	0x3fd5be6f	1.6698741
46	0x3fc8b97c	1.5681605
47	0x3fc9b9e1	1.5759851
48	0x3fc7b8c4	1.5603261
49	0x3fd0c527	1.6310166
50	0x3fbe2433	1.4854797
51	0x3fd70018	1.6796904
52	0x3fc3a77e	1.528549
53	0x3fd607cd	1.6721131
54	0x3fb3f6c8	1.4059687
55	0x3fb2ca6e	1.3968027
56	0x3fc28157	1.5195721
57	0x3fdaddf2	1.7098982
58	0x3fc7bcfe	1.5604551
59	0x3fd26606	1.6437385
60	0x3faed4bb	1.365867
61	0x3fca1aee	1.5789468
62	0x3fe65024	1.7993207
63	0x3fb28e2f	1.3949641
64	0x3fc88114	1.5664392
65	0x3fc73b34	1.5564942
66	0x3fd2ce05	1.6469122
67	0x3fc2834b	1.5196317
68	0x3fd65812	1.6745627
69	0x3fd5fcd7	1.6717786
70	0x3fcd7316	1.6050746
71	0x3fdb5942	1.7136614
72	0x3fbe9e43	1.4892048
73	0x3fc8f840	1.570076
74	0x3fd45600	1.6588745
75	0x3fd4d959	1.6628829
76	0x3fcc6a24	1.5969892
77	0x3fcd672b	1.6047109
78	0x3fcc62dc	1.596767
79	0x3fda3ce2	1.704983
80	0x3fca9b72	1.5828688
81	0x3fc9cdaa	1.5765889
82	0x3fc85fc1	1.5654222
83	0x3fb56c35	1.4173647
84	0x3fc552e9	1.5415927
85	0x3fc6d9f3	1.5535263
86	0x3fbd5c17	1.4793729
87	0x3fb663c0	1.4249191
88	0x3fdf698c	1.7454085
89	0x3fc305c8	1.5236139
90	0x3fcc5622	1.5963786
91	0x3fcc6f6b	1.5971502
92	0x3fd04265	1.6270262
93	0x3fc3bcd2	1.5291998
94	0x3fcb4638	1.5880804
95	0x3fc8489d	1.564716
96	0x3fb40df6	1.406676
97	0x3fb6f69e	1.4294012
98	0x3fb5d6f2	1.4206221
99	0x3fc7a2d6	1.5596569
100	0x3fc70ae2	1.5550196
101	0x3fc7aa12	1.5598776
102	0x3fe2fdbc	1.7733684
103	0x3fcfc3d4	1.6231637
104	0x3fd34187	1.6504372
105	0x3fca1301	1.578705
106	0x3fb08aeb	1.3792394
107	0x3fc17e10	1.5116596
108	0x3fd2cc1e	1.6468542
109	0x3fd7458d	1.68181
110	0x3fd3109c	1.6489444
111	0x3fadcfac	1.3579001
112	0x3fd6b4ca	1.6773922
113	0x3fd1cdbc	1.639091
114	0x3fb565fe	1.417175
115	0x3fbf6a2b	1.4954275
116	0x3fd678d7	1.6755627
117	0x3fc27457	1.5191754
118	0x3faba072	1.3408339
119	0x3fcc9a1d	1.5984532
120	0x3fd0febe	1.6327741
121	0x3fc2c7e0	1.5217247
122	0x3fd380af	1.6523646
123	0x3fbe36c4	1.4860463
124	0x3fd44fe5	1.6586882
125	0x3fc29440	1.5201492
126	0x3fbff6d1	1.4997197
127	0x3fd23f68	1.64256

bn2.weight f4 [128]
0	0x3f7f6853	0.9976856
1	0x3f8d6008	1.1044931
2	0x3f82f7fd	1.023193
3	0x3f8ffaac	1.1248374
4	0x3f865701	1.0495301
5	0x3f8097b2	1.0046294
6	0x3f58cd1d	0.8468798
7	0x3f918a89	1.1370403
8	0x3f7109b1	0.9415541
9	0x3f80d39e	1.006458
10	0x3f8964ea	1.0733922
11	0x3f72227e	0.9458388
12	0x3f822b9d	1.016956
13	0x3f8226b2	1.0168059
14	0x3f8079cf	1.0037173
15	0x3f6c599f	0.9232425
16	0x3f84f00c	1.0385756
17	0x3f89289e	1.071552
18	0x3f901605	1.125672
19	0x3f77181f	0.9652118
20	0x3f84f175	1.0386187
21	0x3f80e8c4	1.0071034
22	0x3f864cbf	1.0492171
23	0x3f7e4d19	0.9933639
24	0x3f7284d7	0.9473395
25	0x3f8c015e	1.0937917
26	0x3f755dcb	0.9584624
27	0x3f831387	1.0240334
28	0x3f6e8df8	0.9318538
29	0x3f7871c8	0.97048616
30	0x3f7cca66	0.98746336
31	0x3f81e562	1.0148127
32	0x3f8d3a6c	1.1033454
33	0x3f931a4f	1.1492404
34	0x3f7b430b	0.98149174
35	0x3f84db94	1.037951
36	0x3f93f8fe	1.1560361
37	0x3f7c88db	0.98646325
38	0x3f820bd6	1.0159862
39	0x3f843ba2	1.0330698
40	0x3f73ddfc	0.95260596
41	0x3f848e5f	1.0355948
42	0x3f8e8806	1.1135261
43	0x3f772c4d	0.9655197
44	0x3f811f46	1.0087669
45	0x3f862078	1.0478659
46	0x3f8655cf	1.0494937
47	0x3f7288c9	0.9473997
48	0x3f8d92ce	1.1060426
49	0x3f63165b	0.88705987
50	0x3f7a9645	0.97885543
51	0x3f5d199a	0.8636719
52	0x3f71c419	0.94439846
53	0x3f82e66e	1.0226572
54	0x3f5dbbf8	0.8661494
55	0x3f83755b	1.0270189
56	0x3f73b06f	0.9519109
57	0x3f7dcd1f	0.99141115
58	0x3f755866	0.9583801
59	0x3f82dc61	1.0223504
60	0x3f79327c	0.9734266
61	0x3f82f88d	1.0232102
62	0x3f6b849f	0.9199924
63	0x3f8ca08a	1.0986493
64	0x3f8bd249	1.0923549
65	0x3f88f3fd	1.0699459
66	0x3f837c88	1.0272379
67	0x3f6efb27	0.9335198
68	0x3f835459	1.0260116
69	0x3f7710fe	0.96510303
70	0x3f8255ff	1.0182494
71	0x3f83e63b	1.0304636
72	0x3f5eefc3	0.870846
73	0x3f847847	1.0349206
74	0x3f8ad756	1.0846965
75	0x3f87bc74	1.0604386
76	0x3f867f62	1.0507624
77	0x3f71eb1d	0.9449938
78	0x3f8b639c	1.0889773
79	0x3f87a6bc	1.0597758
80	0x3f80cbd7	1.0062207
81	0x3f82e6e7	1.0226716
82	0x3f761f66	0.9614166
83	0x3f75ab35	0.95964366
84	0x3f87d41c	1.0611606
85	0x3f76a11a	0.9633957
86	0x3f837f4c	1.0273223
87	0x3f71632a	0.9429194
88	0x3f81839d	1.011829
89	0x3f62d096	0.88599527
90	0x3f7ae38a	0.9800345
91	0x3f8ae411	1.085085
92	0x3f64a6e9	0.89317185
93	0x3f7f2c98	0.9967742
94	0x3f8fd98b	1.1238264
95	0x3f7ff78b	0.99987096
96	0x3f636a9c	0.8883455
97	0x3f6fa81b	0.93615884
98	0x3f6ea3bd	0.93218595
99	0x3f802c02	1.001343
100	0x3f779ff4	0.96728444
101	0x3f730291	0.9492579
102	0x3f80538a	1.0025494
103	0x3f81a7b9	1.012931
104	0x3f7fde24	0.99948335
105	0x3f815956	1.0105388
106	0x3f666a2e	0.9000577
107	0x3f82cd23	1.0218853
108	0x3f83394f	1.0251864
109	0x3f849b74	1.035994
110	0x3f7924b5	0.97321635
111	0x3f6fab3c	0.9362066
112	0x3f7ddbb0	0.9916334
113	0x3f85505b	1.0415148
114	0x3f62b195	0.8855222
115	0x3f84faf8	1.038909
116	0x3f7fb91c	0.9989183
117	0x3f90bb8b	1.1307234
118	0x3f96e87e	1.1789701
119	0x3f84a717	1.0363492
120	0x3f6da787	0.9283375
121	0x3f81356b	1.0094427
122	0x3f8317e7	1.024167
123	0x3f844b0e	1.0335405
124	0x3f7f17f8	0.9964595
125	0x3f5a6a28	0.8531823
126	0x3f6d7858	0.92761755
127	0x3f8854ab	1.0650839

bn2.bias f4 [128]
0	0xbda16c40	-0.07881975
1	0x3d02ee82	0.03196574
2	0xbd012285	-0.03152706
3	0xbc9278b3	-0.01787982
4	0xbe4cfae6	-0.20017585
5	0xbd2e950e	-0.04262262
6	0xbe4b1c97	-0.19835125
7	0x3cc3861e	0.023867663
8	0xbe8c573d	-0.27410308
9	0xbe4bdfdf	-0.19909619
10	0xbd9c2de5	-0.07625941
11	0xbe1bd542	-0.1521807
12	0xbe635d63	-0.22203593
13	0xbd573ca9	-0.052548084
14	0xbe28378f	-0.16427444
15	0xbe854df3	-0.26036033
16	0xbe6b0ead	-0.22954817
17	0xbd694eaa	-0.056959786
18	0xbd972c80	-0.073815346
19	0xbe19e37c	-0.15028185
20	0xbdd63847	-0.10459953
21	0xbe53c2c0	-0.2067976
22	0xbb8b5656	-0.0042522354
23	0xbe1efc0c	-0.15525836
24	0xbe437176	-0.1908625
25	0xbc080156	-0.0083011
26	0xbe2989ea	-0.16556516
27	0xbe3e1205	-0.18561561
28	0xbe344dc1	-0.17607786
29	0xbe613226	-0.21991786
30	0xbd10074e	-0.035163216
31	0xbe63014d	-0.22168465
32	0x3d4efa4b	0.050531667
33	0xbe04c844	-0.1296702
34	0xbe4c1f9a	-0.1993393
35	0xbd1c2e0c	-0.03812985
36	0xbc05e3f9	-0.008172029
37	0xbe0a2a07	-0.13492595
38	0xbe1945f2	-0.14968088
39	0xbd32f035	-0.04368611
40	0xbe2808e6	-0.16409644
41	0xbe0bf3ec	-0.13667268
42	0xbc83887c	-0.016056292
43	0xbe49e545	-0.19716366
44	0xbd7baf29	-0.061446343
45	0xbe2bc332	-0.1677368
46	0xbcd9e55a	-0.026598621
47	0xbe17649a	-0.1478447
48	0x3ba5e595	0.0050627687
49	0xbe10b790	-0.14132524
50	0xbdee2353	-0.11627831
51	0xbe24ecd1	-0.16105963
52	0xbde17702	-0.11009027
53	0xbdaec268	-0.08533174
54	0xbe2ee210	-0.17078424
55	0xbdd8426e	-0.105595455
56	0xbe53f272	-0.20697954
57	0xbde09ef8	-0.10967821
58	0xbe049648	-0.12947953
59	0xbce5aebc	-0.028037421
60	0xbe84269e	-0.25810713
61	0xbdbdccd3	-0.09267583
62	0xbdfc3d9f	-0.12316441
63	0xbd4f4718	-0.05060491
64	0xbc23703f	-0.009975492
65	0xbd1e160c	-0.038595244
66	0xbe269f3e	-0.16271684
67	0xbe36e8a1	-0.17862178
68	0xbe4b7d92	-0.1987212
69	0xbe478728	-0.19485152
70	0xbdd624c6	-0.10456233
71	0xbe55ac3e	-0.20866486
72	0xbde88422	-0.11353327
73	0xbd1a4960	-0.037667632
74	0xbbc648d2	-0.0060511613
75	0xbe3a13b3	-0.18171577
76	0xbdce9361	-0.10086704
77	0xbdb9fed5	-0.090818085
78	0xbc6ab12d	-0.014324469
79	0xbe1823ca	-0.14857402
80	0xbdcfd1a7	-0.1014741
81	0xbe1964ed	-0.14979906
82	0xbe0f6d93	-0.14006643
83	0xbe26dced	-0.16295214
84	0xbe0b9db1	-0.13634373
85	0xbe16acb1	-0.14714314
86	0xbe01bcdb	-0.12669699
87	0xbe3299f2	-0.17441538
88	0xbe347be0	-0.1762538
89	0xbe27a519	-0.16371574
90	0xbe5a47f0	-0.21316504
91	0xbc7666e0	-0.015039176
92	0xbe1d2c15	-0.15348847
93	0xbdb8cdde	-0.09023641
94	0x3d217e7e	0.039427273
95	0xbd7d1c67	-0.061794665
96	0xbdcd5cde	-0.10027479
97	0xbe2830c2	-0.1642485
98	0xbe1b832e	-0.1518676
99	0xbe12aaf6	-0.14323029
100	0xbe39205d	-0.18078752
101	0xbe15be03	-0.14623265
102	0xbe605b2d	-0.21909781
103	0xbd5962af	-0.053072628
104	0xbe05e0bf	-0.13074015
105	0xbe1e9fa5	-0.15490587
106	0xbdf54e9c	-0.11977884
107	0xbe47f1f6	-0.19525895
108	0xbd7e751c	-0.062123403
109	0xbdf783ff	-0.12085723
110	0xbe1a1b85	-0.1504956
111	0xbe3fa5f5	-0.18715651
112	0xbda55e51	-0.0807463
113	0xbe0c31d2	-0.1369088
114	0xbe3817af	-0.17977785
115	0xbd8e4ff6	-0.06948845
116	0xbe3efe7e	-0.18651769
117	0x3d08267c	0.033239827
118	0xbd469439	-0.0484812
119	0xbe383246	-0.17987928
120	0xbe5cad6e	-0.21550533
121	0xbe3a93b6	-0.1822041
122	0xbdf51260	-0.119663954
123	0xbe8096f7	-0.25115177
124	0xbe7b5ecf	-0.24547885
125	0xbe5a31e1	-0.2130809
126	0xbe160eb4	-0.14654046
127	0xbdb007e1	-0.08595253

bn2.running_mean f4 [128]
0	0x3fbfe98b	1.4993147
1	0x3fb27d66	1.3944519
2	0x3f879a6f	1.0594004
3	0x3f76d110	0.96412754
4	0x40035a59	2.0523894
5	0x3fc1789e	1.5114934
6	0x403ac2ec	2.918147
7	0x3caf6a22	0.021412913
8	0x3f8b8a57	1.0901593
9	0x3fb7f667	1.4372071
10	0x3fca5308	1.5806589
11	0x3fd93497	1.6969174
12	0x40073c11	2.1130412
13	0x3fdeeee1	1.741665
14	0x400eae88	2.2294025
15	0x3f401362	0.75029576
16	0x3f94b7dd	1.1618611
17	0x3f97205e	1.1806753
18	0x3f9b02bb	1.2110208
19	0x3f937e12	1.1522849
20	0x40070393	2.1095932
21	0x3fee39ed	1.8611428
22	0x3e805316	0.2506339
23	0x3fb0682e	1.3781793
24	0x3fb504dd	1.4142109
25	0x3f383875	0.71961147
26	0x3fd67c0d	1.6756607
27	0x3feca197	1.8486813
28	0x40225507	2.5364397
29	0x3fb47a88	1.4099894
30	0x3fed06f9	1.8517753
31	0x3f900fea	1.1254857
32	0x3f2067d1	0.6265841
33	0x3fbf9447	1.4967126
34	0x3fc4fd76	1.538985
35	0x3fa2d398	1.2720823
36	0x3f5e5c2f	0.8685941
37	0x3fc3509d	1.5258976
38	0x3fc0dea1	1.5067941
39	0x3fd11362	1.633404
40	0x3fad8af2	1.3558028
41	0x3fa0300a	1.251466
42	0x3f9f1a25	1.2429854
43	0x3ff133f8	1.8843985
44	0x3ff1093e	1.8830945
45	0x3fe95574	1.8229203
46	0x3f883532	1.0641234
47	0x3ff1df57	1.8896283
48	0x3f67ee46	0.9059795
49	0x400dcce1	2.2156298
50	0x3fcf2bc3	1.618523
51	0x40052f98	2.08103
52	0x3fcfe802	1.6242678
53	0x3f9b962e	1.2155206
54	0x4028bf4b	2.6366756
55	0x3f92e9e1	1.1477624
56	0x3faa0940	1.3284073
57	0x3ff27561	1.8942071
58	0x3fa93cc6	1.3221672
59	0x3fab531c	1.3384738
60	0x3f9d720d	1.230043
61	0x3fd01d57	1.6258954
62	0x401267e1	2.2875903
63	0x3ec12a96	0.37727803
64	0x3f78f0d5	0.9724248
65	0x3f7b9d93	0.98287314
66	0x4005af95	2.0888417
67	0x3fe2a669	1.7707034
68	0x3fd3ce43	1.6547321
69	0x4005204e	2.0800967
70	0x3f953275	1.1656023
71	0x3fdfdfd0	1.7490177
72	0x400ebfdb	2.23046
73	0x3f86f66e	1.0543954
74	0x3f8fc59a	1.1232178
75	0x400d213c	2.2051535
76	0x3fbaca67	1.4593018
77	0x4003c5bd	2.058944
78	0x3f514846	0.81750906
79	0x4016f9bc	2.3589926
80	0x3fd39185	1.6528784
81	0x3fd15aa7	1.635579
82	0x3ffe1889	1.9851238
83	0x3f80e98c	1.0071273
84	0x3fc9bb37	1.5760258
85	0x3fbf22ed	1.4932534
86	0x3f3857f1	0.7200919
87	0x3fb634f9	1.4234916
88	0x3fe8ac66	1.8177612
89	0x3fc35239	1.5259467
90	0x3f84a846	1.0363853
91	0x3fb09f17	1.379855
92	0x3fd1f5a8	1.6403093
93	0x3ffa33da	1.9547074
94	0x3f68c56b	0.90926236
95	0x3fdd6c22	1.7298625
96	0x4027e78f	2.6235082
97	0x3fbf397a	1.4939415
98	0x3fa17eb7	1.2616795
99	0x3f9f31b1	1.243704
100	0x3fc044e7	1.5021027
101	0x3fc522fb	1.54013
102	0x3ffb1609	1.96161
103	0x3f314c38	0.69256926
104	0x3f92cd49	1.1468898
105	0x3fe9bd9e	1.8260992
106	0x40311a9a	2.7672486
107	0x3f99eeeb	1.2026037
108	0x3fac7af0	1.3475018
109	0x3fc0f1d3	1.5073799
110	0x3f7e443f	0.99322885
111	0x3fa203e1	1.2657434
112	0x3fe02272	1.7510512
113	0x3f9f7710	1.245821
114	0x40052ff7	2.0810525
115	0x3fc8c97a	1.5686486
116	0x3ffe25b7	1.985526
117	0xbe98dbbc	-0.29855144
118	0x3f233cfa	0.6376492
119	0x3f8ca7d8	1.0988722
120	0x3fe297a8	1.7702532
121	0x3f806cd0	1.0033207
122	0x3faf9e8b	1.3720258
123	0x4002cdd0	2.0438118
124	0x3fc03c64	1.501843
125	0x40393bbd	2.8942711
126	0x3fbdcc9d	1.4828068
127	0x3fc4a31a	1.5362275

bn2.running_var f4 [128]
0	0x3ecaea7e	0.39632028
1	0x3f86d3a0	1.0533333
2	0x3ee1c8cc	0.44098508
3	0x3f24eac0	0.644207
4	0x3edd26e7	0.43193743
5	0x3ee4a0a7	0.44653818
6	0x3f103fa9	0.5634714
7	0x3f5327fe	0.824829
8	0x3eb26306	0.34841174
9	0x3ed05bf7	0.40695164
10	0x3ee945cd	0.45561066
11	0x3ebf5831	0.37371972
12	0x3eab0f40	0.33410072
13	0x3ed1a3b5	0.4094521
14	0x3ecf7f2c	0.40526712
15	0x3ecc539c	0.3990754
16	0x3ead32a6	0.33827704
17	0x3f170a68	0.59000254
18	0x3f32510a	0.69654906
19	0x3eb64bee	0.35604805
20	0x3f1cbad0	0.61222553
21	0x3f008fc5	0.50219375
22	0x3f083eb3	0.5322067
23	0x3eac1d00	0.33615875
24	0x3eb1500e	0.3463139
25	0x3f582a28	0.84439325
26	0x3ed013a7	0.40639994
27	0x3ecb3b63	0.39693746
28	0x3f0d0b13	0.5509502
29	0x3eb38821	0.35064796
30	0x3ebdecf0	0.3709483
31	0x3eaaa7fe	0.33331293
32	0x3ee609e8	0.44929433
33	0x3ee12c41	0.43979076
34	0x3e8d371f	0.27581117
35	0x3ee48a91	0.44636968
36	0x3f0a27ee	0.5396718
37	0x3f02a529	0.51033264
38	0x3eb69a67	0.35664675
39	0x3efb3568	0.49064183
40	0x3ea020af	0.31274936
41	0x3eccb435	0.39981237
42	0x3f5e20bf	0.86768717
43	0x3ed22d81	0.41050342
44	0x3efa3548	0.48868775
45	0x3eb1a167	0.34693453
46	0x3f223533	0.63362426
47	0x3ea635bd	0.32462874
48	0x3f707157	0.9392294
49	0x3ef051a4	0.46937287
50	0x3ec5c76c	0.3862871
51	0x3eabb364	0.33535302
52	0x3ec512cc	0.38490903
53	0x3ee7d58b	0.45280108
54	0x3f2c9fee	0.67431533
55	0x3f07b730	0.53013897
56	0x3ec570d9	0.38562658
57	0x3e93510f	0.2877278
58	0x3e886209	0.26637295
59	0x3f191a8f	0.5980615
60	0x3ed07385	0.40713134
61	0x3ed621a9	0.41822556
62	0x3ed83fc2	0.42236143
63	0x3f1914af	0.59797186
64	0x3f2893d2	0.65850556
65	0x3f639b78	0.889091
66	0x3ef2e00e	0.47436565
67	0x3ec54c74	0.38534892
68	0x3f05f862	0.5233213
69	0x3ebbdbb5	0.3669106
70	0x3ec24a92	0.37947518
71	0x3eb89cee	0.36057228
72	0x3ec6038d	0.38674584
73	0x3e9cbe36	0.3061387
74	0x3f03fc3f	0.5155677
75	0x3f1c1a2e	0.6097745
76	0x3ec8a747	0.39190122
77	0x3ec21136	0.37903756
78	0x3f4d3988	0.8016591
79	0x3f10c099	0.5654388
80	0x3eb0e2f7	0.3454816
81	0x3eae3024	0.34021103
82	0x3ee1178b	0.43963274
83	0x3f050be1	0.5197125
84	0x3f187180	0.5954819
85	0x3e90ca47	0.28279325
86	0x3eedabd3	0.46420154
87	0x3eacea07	0.337723
88	0x3ec20207	0.37892172
89	0x3ea034f6	0.31290406
90	0x3edd36cf	0.43205878
91	0x3f1ebaf9	0.6200405
92	0x3e85a6b0	0.26103735
93	0x3ee7727f	0.4520454
94	0x3f272158	0.65285254
95	0x3ef0665f	0.46953103
96	0x3f0fecbb	0.562206
97	0x3eab4459	0.33450583
98	0x3eca743e	0.3954181
99	0x3e988b4a	0.2979377
100	0x3e928ba9	0.28622177
101	0x3e8d4350	0.27590418
102	0x3eb0248f	0.34402892
103	0x3f17ca4b	0.5929305
104	0x3ee95c47	0.45578215
105	0x3eb28607	0.3486788
106	0x3f5cb967	0.862204
107	0x3ecd8400	0.4013977
108	0x3ee2b9f8	0.44282508
109	0x3eb68a17	0.3565223
110	0x3eef0c90	0.46689272
111	0x3ed73b1d	0.42037287
112	0x3eba34b8	0.36368346
113	0x3eb36f75	0.35045972
114	0x3eadb34e	0.3392586
115	0x3f12ca24	0.5733969
116	0x3ed0760f	0.40715072
117	0x3fbf3e16	1.4940822
118	0x3f8b7ab2	1.0896819
119	0x3f055570	0.5208349
120	0x3eaae960	0.33381176
121	0x3edd20b2	0.43189007
122	0x3eabdf40	0.33568764
123	0x3edc8cbe	0.43076128
124	0x3ea36b84	0.31917965
125	0x3f36a033	0.71338195
126	0x3ee1dd76	0.44114274
127	0x3f0c6879	0.5484691

conv3.weight f4 [128, 128, 3, 3]
0	0x3d38b523	0.04509462
1	0x3ce79d80	0.028273344
2	0x3ba8624e	0.005138672
3	0xbb87368d	-0.004126376
4	0xbc73be32	-0.014876889
5	0xbc9f7b9f	-0.019468127
6	0x3cae240c	0.021257423
7	0x3d1d9ef3	0.038481664
8	0x3cc0a712	0.023517165
9	0xbd5aa894	-0.053383425
10	0xbda3bb07	-0.07994657
11	0xbbd4c7af	-0.0064935307
12	0xbda04fb5	-0.07827703
13	0xbd8e010b	-0.06933793
14	0xbcf9ea6a	-0.030507285
15	0xbbd4989d	-0.0064879195
16	0xbdb49d8d	-0.08819113
17	0x3b3676ef	0.0027841886
18	0xbcefe81a	-0.02928548
19	0xbcf88229	-0.030335503
20	0x3bdab791	0.006674715
21	0x3cac3d44	0.021025307
22	0x3c5502fa	0.013001198
23	0x3c3376eb	0.010953645
24	0x3cd3294d	0.02577653
25	0x3d1bbfd1	0.038024727
26	0x3c7fc366	0.015610551
27	0x3d3586d5	0.04431804
28	0x3cff78fb	0.031185618
29	0x3c8808fa	0.016605843
30	0x3d0f2c64	0.034954444
31	0x3c3124f8	0.010812037
32	0xbab5c44e	-0.0013867707
33	0x3d54c17b	0.05194233
34	0x3d984d0f	0.07436573
35	0x3d82bfbb	0.06384226
36	0xbcf0fa86	-0.029416334
37	0xbc954486	-0.018221151
38	0xbc80753e	-0.015680905
39	0xbd255ed4	-0.04037364
40	0xbbdd0ad6	-0.0067456765
41	0x3c1a9a13	0.009436148
42	0x3c6e8d09	0.014559993
43	0x3caa2274	0.020768382
44	0x3d37a0bb	0.04483102
45	0xbc966399	-0.018358039
46	0xbd0b5f60	-0.034026504
47	0xbcf46a03	-0.029835707
48	0x3bb37581	0.005476654
49	0xbc710977	-0.014711729
50	0x3c00f750	0.007871464
51	0xbd3246a3	-0.043524396
52	0xbc9174e9	-0.017755942
53	0xbd10aa88	-0.03531888
54	0x3b533317	0.0032226497
55	0xbd4bec0b	-0.049785655
56	0x3bd39fc5	0.006458255
57	0x3ceb94d1	0.028757485
58	0xbc8b5b06	-0.017011177
59	0xbd5cad73	-0.05387635
60	0xbd18f862	-0.03734625
61	0xbd1828c1	-0.03714824
62	0xbc4a81a9	-0.012360015
63	0xbc1a1822	-0.009405168
64	0xbda6b21d	-0.08139441
65	0xbd4a527e	-0.049395077
66	0xbd4264cd	-0.047459412
67	0xbdda7bb7	-0.10668128
68	0x3c5234da	0.012829984
69	0x3c82e1eb	0.015976867
70	0xbd904352	-0.0704409
71	0x3ce367c4	0.02775944
72	0xbc0cb5e8	-0.008588292
73	0xbc112bdb	-0.008860554
74	0x3b0b3fa1	0.0021247643
75	0xbbe5d0e7	-0.0070134285
76	0xbbe43be9	-0.0069651497
77	0x3c958570	0.018252105
78	0x3cb2bab4	0.021817543
79	0xbbbf2196	-0.005832861
80	0xbc1a699d	-0.009424594
81	0x3b92b796	0.0044774516
82	0x3d5ea875	0.054359872
83	0xbca48ca2	-0.02008659
84	0x3b3afdab	0.0028532546
85	0x3ccff382	0.025384668
86	0xbd5f1705	-0.054465313
87	0x3c52f51b	0.0128758205
88	0x3cb290e3	0.021797603
89	0x3c892a11	0.016743692
90	0xbbb7976f	-0.005602769
91	0x3ccacc31	0.02475557
92	0xbd7cac85	-0.061687965
93	0x3de0ff82	0.10986234
94	0xbd1d9993	-0.038476538
95	0x3ca5ed73	0.020254826
96	0x3bb07b12	0.005385765
97	0x3d03927c	0.03212212
98	0xbd2f1f11	-0.042754237
99	0xbcdc367e	-0.026881453
100	0x3bc6f0d2	0.0060711885
101	0xbd6aec18	-0.057354063
102	0xbd8c2dd1	-0.06844676
103	0x3d221ac4	0.039576307
104	0xbcb6f076	-0.022331458
105	0x3c951e28	0.018202856
106	0xbd25caeb	-0.04047672
107	0xbcbb7516	-0.02288298
108	0x3c8f12e9	0.017465072
109	0xbcc5da96	-0.024152081
110	0x3d6f4c10	0.05842215
111	0x3d2aed5b	0.041730266
112	0xbd0ad7ff	-0.033897396
113	0xbb58e5ab	-0.0033095877
114	0x3d3db603	0.046316158
115	0x3ca17d5b	0.019713094
116	0x3cee2957	0.029072447
117	0x3d42b46d	0.04753535
118	0x3c46187e	0.0120908
119	0xbccb2274	-0.024796702
120	0x3b909671	0.0044124653
121	0xbcb739bc	-0.022366397
122	0x3be9691c	0.0071231257
123	0x3cd5b0cb	0.026085278
124	0xbbbfbe9b	-0.0058515794
125	0xbbae124a	-0.005312239
126	0x3d025bf3	0.03182597
127	0x3dd69929	0.10478432
128	0x3d2a144b	0.04152326
129	0xbd01653c	-0.031590685
130	0x3c85607f	0.016281364
131	0x3d99cb54	0.07509485
132	0x3b8f0a7d	0.004365264
133	0x3c06ed39	0.008235269
134	0xbcfad00a	-0.030616779
135	0xbd2cc6ee	-0.0421819
136	0xbcebc6bc	-0.028781287
137	0xbaf10f97	-0.0018391487
138	0xbce46bb6	-0.027883392
139	0xbb9de823	-0.0048189326
140	0x3cd675e9	0.02617927
141	0xbd610d3a	-0.054944254
142	0x3c5a7802	0.013334276
143	0xbc2d821a	-0.010590101
144	0x3d0e6647	0.034765508
145	0xbcc108de	-0.023563799
146	0xbc71b094	-0.014751572
147	0xbc97c5f2	-0.018527005
148	0xbcd5a944	-0.026081689
149	0x3c9c339e	0.019067582
150	0xbab62361	-0.0013896042
151	0x3c8bb01f	0.017051755
152	0x3cd25e6b	0.025679788
153	0x3dbbd447	0.09171348
154	0x3cc0209f	0.023453055
155	0x3c99fd3e	0.018797513
156	0x3d982d0e	0.074304685
157	0x3d245dad	0.0401284
158	0x3c2837b4	0.010267187
159	0x3c19ef21	0.009395392
160	0x3d5b7d61	0.053586368
161	0xbc87ca92	-0.016576085
162	0xbcca6e62	-0.024710838
163	0x3cea605d	0.028610403
164	0xbcb1f246	-0.02172197
165	0x3d804700	0.06263542
166	0x3d84d072	0.0648507
167	0x3cba0b2c	0.022710405
168	0x3d417de2	0.04723919
169	0x3c6f0794	0.014589209
170	0x3c802135	0.015640834
171	0x3cc80fcc	0.024421595
172	0xbb872888	-0.0041247047
173	0x3bea8e1a	0.007158053
174	0x3cef2ee4	0.029197164
175	0xbd2eebbf	-0.042705294
176	0x3bf50be2	0.007478223
177	0x3b8800af	0.004150472
178	0xbb2794ad	-0.0025570795
179	0x3ce49f33	0.027907943
180	0x3e142352	0.14466599
181	0x3d42a5c1	0.047521356
182	0x3d077a39	0.033075545
183	0x3d6cda38	0.057825297
184	0x3d2864d5	0.041111786
185	0x3d05a85c	0.032631263
186	0x3b23cff5	0.0024995778
187	0xbd31bb68	-0.043391615
188	0x3b9159eb	0.004435768
189	0xbce387ea	-0.02777477
190	0xbd0d70c8	-0.034531385
191	0x3b319228	0.0027095173
192	0x3cd5e59e	0.026110467
193	0xbc20f7a1	-0.009824664
194	0x3dc24b51	0.09487022
195	0x3db647aa	0.089003876
196	0x3b82766a	0.003981401
197	0x3d23f6a4	0.040030137
198	0x3d1b2bd6	0.037883602
199	0x3d07fb34	0.03319855
200	0x3dbd7005	0.09249882
201	0xbc440680	-0.01196444
202	0xbc2ab7e7	-0.010419822
203	0x3d0fe684	0.035131946
204	0xbb121a04	-0.0022293339
205	0x3bf5a204	0.0074961204
206	0x3d8f13c1	0.0698619
207	0xbc0c4e78	-0.00856363
208	0xbcaac71f	-0.020846901
209	0x3be6f755	0.0070485272
210	0x3c5b0521	0.013367922
211	0x3d02f771	0.03197426
212	0xbcea0601	-0.028567316
213	0x3d5f6c30	0.054546535
214	0x3cded180	0.027199507
215	0xbd5552b2	-0.052080818
216	0x3d372741	0.04471517
217	0xbc9da21a	-0.019242335
218	0xbd0e7025	-0.034774918
219	0x3cfa9b5b	0.030591657
220	0xbca15727	-0.019694878
221	0x3b9008dd	0.004395588
222	0xbc3f9bbf	-0.011694848
223	0x3c6dfdff	0.014525889
224	0xbcaf5574	-0.021403052
225	0x3bf0ed7f	0.0073525305
226	0xbbfc3c19	-0.007697594
227	0x3d07c060	0.033142447
228	0xbc59162a	-0.013249913
229	0xbdcdfc33	-0.10057869
230	0xbc275b48	-0.010214634
231	0xbd10da16	-0.035364233
232	0xbda6f5cd	-0.081523515
233	0x3b2221ad	0.002473931
234	0x3d0c4f51	0.03425533
235	0x3d12b269	0.035814676
236	0x3d163cc2	0.036679037
237	0xbc746223	-0.014915976
238	0x3b0e3ddf	0.0021704359
239	0xbc6c1121	-0.014408381
240	0x3ce3ca45	0.02780641
241	0xbc336a05	-0.01095057
242	0x3cb3da2b	0.021954617
243	0x3c5e753d	0.0135777565
244	0xbca6c21a	-0.020356227
245	0xbde7b345	-0.1131349
246	0x3b768e5f	0.003762148
247	0x3c60d1b8	0.013721876
248	0xbda998f1	-0.082811244
249	0x3d9dd6e4	0.07707003
250	0x3ca85c65	0.02055187
251	0xbb45a185	-0.0030156088
252	0x3d6071d8	0.05479607
253	0xbcc823a4	-0.024431057
254	0xbc177bb5	-0.009245803
255	0xbc71b989	-0.014753708

conv3.bias f4 [128]
0	0x3fcbb19c	1.5913577
1	0x3fd84ef5	1.6899096
2	0x3fc140a1	1.5097848
3	0x3fc52040	1.5400467
4	0x3fcb2f3b	1.5873789
5	0x3fdab090	1.7085133
6	0x3fd0a86f	1.6301402
7	0x3fda5dfc	1.7059932
8	0x3fa59e46	1.2938926
9	0x3fc981df	1.5742759
10	0x3fc75074	1.5571427
11	0x3fd60043	1.671883
12	0x3fcf244f	1.6182956
13	0x3fa377d3	1.2770942
14	0x3fcfad50	1.6224766
15	0x3fa24bc6	1.2679374
16	0x3fe4358b	1.782884
17	0x3fc45c2e	1.5340631
18	0x3fba48ca	1.4553463
19	0x3fd72d45	1.681069
20	0x3fce44c3	1.6114734
21	0x3fdb9c6f	1.7157115
22	0x3fc24b3b	1.5179209
23	0x3fbfba5e	1.497875
24	0x3fc618b1	1.5476285
25	0x3fd89b39	1.692237
26	0x3fc9bce8	1.5760775
27	0x3f9fac34	1.2474427
28	0x3fca46b2	1.5802824
29	0x3fa3d552	1.2799475
30	0x3faecf08	1.3656931
31	0x3fe8fbf7	1.8201894
32	0x3fb5cdf9	1.4203483
33	0x3fd07ff4	1.6289048
34	0x3fb26e73	1.3939956
35	0x3fdf7fb7	1.746085
36	0x3fca209e	1.5791204
37	0x3fd01e97	1.6259335
38	0x3fbe177e	1.4850919
39	0x3ff9b803	1.9509281
40	0x3fa83651	1.3141576
41	0x3fd974e5	1.6988798
42	0x3fe34b63	1.7757381
43	0x3fd9c4b1	1.701315
44	0x3fa9cf1e	1.3266332
45	0x3facac2e	1.3490045
46	0x3fcc7dc7	1.5975884
47	0x3fbeeac6	1.4915397
48	0x3fd092d3	1.6294807
49	0x3fd45f00	1.6591492
50	0x3fd49838	1.6608953
51	0x3fca977f	1.5827483
52	0x3fd789b8	1.6838903
53	0x3fe46440	1.7843094
54	0x3fb4ddf1	1.4130231
55	0x3fdb92e2	1.71542
56	0x3fc09961	1.5046808
57	0x3fa1c24a	1.2637417
58	0x3fb4698f	1.4094714
59	0x3fc6194d	1.5476471
60	0x3feb707e	1.8393705
61	0x3fe28e99	1.7699767
62	0x3fa1e4cb	1.2647947
63	0x3fe3da68	1.7801027
64	0x3fdac654	1.7091775
65	0x3fe128ec	1.7590613
66	0x3fb5c4be	1.4200666
67	0x3fd58852	1.6682227
68	0x3fc2c980	1.5217743
69	0x3fcc5ec0	1.5966415
70	0x3fbf1ad1	1.4930059
71	0x3fb326b6	1.3996189
72	0x3fd5746a	1.6676152
73	0x3fbadbb0	1.4598293
74	0x3fe04f8a	1.7524273
75	0x3fcb72ef	1.589445
76	0x3fcc137e	1.5943449
77	0x3fd751ed	1.6821877
78	0x3fe0f88c	1.757585
79	0x3fbe3ea0	1.4862862
80	0x3fed7f0a	1.8554394
81	0x3fcf3ded	1.6190773
82	0x3fb4b7ed	1.411863
83	0x3fc5d6c2	1.5456164
84	0x3fa3f84c	1.2810149
85	0x3fc10724	1.5080304
86	0x3fa5cdc5	1.2953421
87	0x3fe3a0f4	1.7783494
88	0x3fafb28e	1.3726366
89	0x4000c03c	2.011733
90	0x3fb57fb7	1.41796
91	0x3ff088f1	1.8791791
92	0x3fc7ba1f	1.5603675
93	0x3fe43975	1.7830034
94	0x3fe5336d	1.7906319
95	0x3fe50dbc	1.7894816
96	0x3fa562fe	1.2920835
97	0x3ff0b25d	1.8804432
98	0x3fbcae9b	1.4740785
99	0x3fd90d4e	1.6957185
100	0x3fe405cb	1.7814268
101	0x3fd65cfc	1.6747127
102	0x3fd04bcb	1.627313
103	0x3fb58557	1.4181317
104	0x3f99f390	1.2027454
105	0x3fb5ad14	1.4193444
106	0x3fc0f549	1.5074855
107	0x3feaac55	1.8333842
108	0x3fcf081e	1.6174352
109	0x3fc91088	1.570817
110	0x3fbfb740	1.4977798
111	0x3fe6f62b	1.8043875
112	0x3fc1f086	1.5151527
113	0x3febee60	1.8432121
114	0x3fb109b1	1.3831083
115	0x3fa38233	1.2774109
116	0x3fc49733	1.5358642
117	0x3fb9bbb5	1.4510409
118	0x3fe49b4e	1.7859895
119	0x3fa02045	1.2509848
120	0x3fe0d161	1.7563897
121	0x3fa5162a	1.2897389
122	0x3fbbaf86	1.466294
123	0x3fe1821b	1.761783
124	0x3f9df0de	1.2339132
125	0x3fcaaba8	1.5833635
126	0x3fc0766f	1.5036143
127	0x3fa17eb5	1.2616793
